firebase_ml_model.tflite (tflite, 10796 bytes, 6 tensors)

sequential/dense_2/BiasAdd/ReadVariableOp/resource f4 [2]
000000 7e 14 88 bd b5 14 88 3d
       -0.066445336 0.066445746

sequential/dense_1/BiasAdd/ReadVariableOp/resource f4 [60]
000000 20 86 e7 be 36 bb 18 be 7e 8e 94 bd 41 fa 3b 3e
       -0.45219517 -0.14915165 -0.07253741 0.18357183
000010 ac 06 1b be 03 32 0e be 00 79 f4 bd d7 65 7d be
       -0.15139264 -0.13886265 -0.119371414 -0.2474588
000020 42 29 17 3e 6f 22 ee bd 3f 74 06 be 44 5e 2d be
       0.14761832 -0.116276614 -0.13130282 -0.1693049
000030 66 9c 0d bc bc 62 70 bd 6c 0d c1 bd e9 f1 f1 bd
       -0.008643245 -0.05868791 -0.09426388 -0.11813719
000040 00 cf 19 3e d4 89 63 bd 80 26 53 3e 65 89 4b be
       0.1502037 -0.055551365 0.20620155 -0.1987663
000050 13 81 4a be f2 1a 20 bd 9a ac 4f bd e2 50 f5 bd
       -0.197758 -0.039088197 -0.050701715 -0.11978318
000060 2c 68 48 3e b4 95 40 be 0f 35 87 3e 2a 6e a7 bd
       0.19570988 -0.18807107 0.26407668 -0.08175309
000070 a9 b0 67 be af ee 22 be 17 ad 82 ba bb 92 1a 3d
       -0.22625984 -0.15911363 -0.0009969798 0.03773759
000080 2e 57 a5 3e 5b 83 f0 bd 8d 36 5c be bf f8 76 bd
       0.32293075 -0.11743804 -0.21505184 -0.060295817
000090 12 0b a9 3e b6 d5 a4 bc 82 62 a9 3d cb db 50 3e
       0.33016258 -0.020121437 0.08270742 0.20396344
0000a0 97 2b 00 be f9 30 40 be 14 7f 21 3e 85 58 94 3e
       -0.12516628 -0.18768682 0.15771133 0.28973785
0000b0 02 1c 87 be ef 38 55 3e fb fb 87 be a1 be f6 3c
       -0.26388556 0.208225 -0.26559433 0.030120196
0000c0 21 5b 22 3e f6 0f 5e be 73 bb 7a 3e a1 c4 b5 bd
       0.15855075 -0.21685776 0.24485569 -0.088753946
0000d0 56 15 22 3e 99 e2 39 3e bc 04 12 be 98 ed c8 ba
       0.15828452 0.18152846 -0.14259619 -0.0015329598
0000e0 18 0a aa 3e 89 00 82 3d d0 7b dc 3e cd b5 3b be
       0.33210826 0.06347758 0.4306321 -0.1833107

sequential/dense/BiasAdd/ReadVariableOp/resource f4 [20]
000000 85 21 d6 be f1 a2 f3 be 51 39 cb be 9a 6e bf 3e
       -0.41822448 -0.47585252 -0.39692166 0.3738907
000010 45 c9 d3 3e 26 7b c8 3e 2b 78 cf 3e 13 3e db 3e
       0.41364494 0.39156455 0.40521368 0.42820796
000020 60 92 cf 3e 0c b6 ba be 4f 01 d1 3e 09 3f e0 3e
       0.40541363 -0.36467016 0.4082131 0.43798092
000030 10 08 cf 3e 66 52 c4 3e 5b db c7 be 37 f8 d1 be
       0.4043584 0.38344115 -0.39034542 -0.41009685
000040 bc cf b7 be 52 6d eb be 61 b6 d5 be 4f 24 d0 3e
       -0.35900676 -0.45981842 -0.41740707 0.406527

sequential/dense/MatMul f4 [20, 40]
000000 3c 81 cb be 4c b2 5e be a4 1f b8 be 4b 4b 79 be
       -0.39747036 -0.21747702 -0.3596164 -0.24345128
000010 11 4b 16 be 4a cb 02 bf a6 a7 01 bf 8f dd 8b bd
       -0.14677073 -0.51091444 -0.50646436 -0.06829368
000020 c7 f0 27 3e b4 0f e2 3e 14 55 f3 3d c0 c9 56 be
       0.16400443 0.44152606 0.11881462 -0.20975399
000030 96 05 a8 3d 92 d7 85 bd c0 80 32 3e d4 b9 0e 3e
       0.082041904 -0.065352574 0.17431927 0.13938075
000040 9b 2c af 3e 60 af d7 3c f0 5c 18 3f 2e 64 c0 3e
       0.3421372 0.026328743 0.5951681 0.3757643
000050 19 e9 e0 3e b9 64 0c 3f af 5f ce 3e 38 18 c8 3e
       0.4392784 0.5484119 0.40307376 0.39080977
000060 53 21 11 3f 18 32 1a 3f a0 4d c0 3d e8 04 12 3f
       0.56691474 0.60232687 0.09389806 0.57038736
000070 94 7f c5 3e c8 6f 11 3f 64 24 21 3f d5 43 c5 3e
       0.38573897 0.5681119 0.6294615 0.38528314
000080 c1 48 d1 3e 2f 17 29 3f 7c 8c b4 3d bb 60 0b 3f
       0.4087582 0.66051 0.08815858 0.54444474
000090 cb c9 84 3e bc a7 ab 3d 74 e8 a6 3e 28 a3 e2 3c
       0.25935206 0.08381602 0.32599223 0.02766569
0000a0 ca 55 24 bf 79 83 23 bf b3 5c f2 be e3 74 09 bf
       -0.64193404 -0.63872486 -0.4733635 -0.5369398
0000b0 dd 2d 44 bf 8c c1 2a bf 83 bb 9f bc 2e 8e 8f bd
       -0.7663248 -0.6670158 -0.019498592 -0.070095405
0000c0 fa db d2 3d ee 6f 18 bd f4 cb b8 bd 47 42 be bd
       0.102958634 -0.03721612 -0.09023276 -0.09289985
0000d0 d2 4b 80 3e 9d 30 5e 3e e7 c9 47 bd 48 5a d5 3e
       0.25057846 0.21698232 -0.048776533 0.41670442
0000e0 ad f6 f5 3e ca cb 0e 3e 18 a5 9f 3d c3 25 4e 3e
       0.4803976 0.13944927 0.07795161 0.20131592
0000f0 07 e9 bc 3e 39 9f 61 3e 86 c9 e9 3e c9 18 7d 3d
       0.36896536 0.22033395 0.45661563 0.061791215
000100 2e 36 2e 3f a1 b0 2a 3f d5 c9 24 3f dd 15 c2 3e
       0.6805142 0.66675764 0.6437047 0.37907305
000110 6a e4 c8 3e eb 12 e8 3e 6c 44 a3 3e 4a 6a ab 3e
       0.39236766 0.45326933 0.3188814 0.3347953
000120 a2 48 a9 3e 1d 2d fb 3e 80 09 28 3f d2 f8 a0 3e
       0.33063227 0.49057856 0.65639496 0.31439835
000130 7c c5 f7 3e 9c 92 7b 3e 6a 53 a6 3e 9b fa 84 3e
       0.48392856 0.24567646 0.32485515 0.25972447
000140 72 ca 02 bf 92 06 90 be a1 91 0c bf aa 64 16 bf
       -0.5109016 -0.28130013 -0.5490971 -0.5874735
000150 6d c7 20 bf ce 3e d0 be b1 fd be 3c ae cd 5c be
       -0.628043 -0.40672916 0.023314329 -0.21562836
000160 64 24 3b bd f2 1c 99 3e 8e cc 75 be 8a 9c 64 3d
       -0.045689 0.29904896 -0.24003813 0.05581335
000170 51 e1 b1 bc bf ff 68 3e 9b ac 87 3e 87 cd 01 3f
       -0.021713885 0.2275381 0.26498875 0.50704235
000180 6e 4a ca 3e 3a 5e 7f 3e 50 05 db 3e 62 2e bf 3e
       0.3950991 0.24938288 0.4277749 0.37340075
000190 b7 e4 1d 3f 02 99 ba 3d 15 4c fb 3a da e7 12 3f
       0.61677116 0.09111215 0.0019172454 0.5738503
0001a0 02 2b 08 3f e9 27 1b 3f 79 22 24 3e 54 72 df 3e
       0.53190625 0.60607773 0.16028775 0.43641913
0001b0 72 2c 96 3e 9b 46 d9 3e c9 dc b7 3e 66 60 0e 3f
       0.29330784 0.4243668 0.35910633 0.5561584
0001c0 19 ae 18 3f 0c 18 c1 3e af d9 1a 3f 1a 83 1a 3e
       0.5964065 0.3771366 0.6048841 0.15089074
0001d0 bd 25 23 3f 4f b3 9d 3e b6 21 a9 3d bb 99 ed 3e
       0.6372946 0.30800864 0.08258383 0.4640635
0001e0 8c 27 aa 3e 00 b7 2f 3f 28 96 e1 3d 51 04 42 3e
       0.33233297 0.6863861 0.11014968 0.18946959
0001f0 c7 12 a6 3e c1 79 07 3f 3c a4 42 3e 3f 4e 78 3e
       0.324362 0.52920157 0.19007963 0.24248599
000200 43 5c 10 be 3a 3e 04 be 1c 57 f3 bd 71 05 94 be
       -0.14097695 -0.12914363 -0.11881849 -0.289104
000210 e6 86 da be 0b d9 84 be 19 45 69 3d dc 0a 16 bd
       -0.42681044 -0.2594684 0.056950662 -0.03663145
000220 8c 24 68 be 85 ad e8 be 2a 80 08 be 0f e2 c8 be
       -0.22670192 -0.45444885 -0.1333014 -0.3923497
000230 2d 4c 1f bf 37 8c 78 be b7 51 1a bf af f5 78 be
       -0.6222561 -0.24272238 -0.60280937 -0.24312471
000240 4f 4c ea be 19 38 bb be c5 ac ba be 13 bd e0 bd
       -0.45761344 -0.36566237 -0.36459938 -0.10973563
000250 fc 7e 95 bd 64 a0 0f bf dc dc 1d bf 68 95 23 bf
       -0.07299611 -0.5610411 -0.6166513 -0.6389985
000260 bb 79 da be 7c 9e 15 bf a7 3d aa be dc e5 66 be
       -0.42670998 -0.5844495 -0.33250162 -0.22548622
000270 4f f4 05 bf 75 15 d5 bd 5d 84 f6 3c 88 0e 46 be
       -0.5232591 -0.10404483 0.030092413 -0.1934148
000280 1b 03 a3 3e 05 c5 dc 3e 8e 22 05 3f 8b 1c 38 3f
       0.31838307 0.43119064 0.5200585 0.71918553
000290 17 ed 2a 3e 71 14 97 3e 1f 4c 58 3e 03 f9 8a be
       0.16692005 0.29507783 0.21122788 -0.27143106
0002a0 05 4e b3 be 35 61 b6 be 8d fc 05 be 87 a2 12 3e
       -0.35020462 -0.35621038 -0.13084622 0.14319812
0002b0 a9 8c e7 bd 97 ca 8c 3d d9 ce 45 be 01 8b 0b be
       -0.11306126 0.068745784 -0.19317187 -0.13627245
0002c0 0c 0f c2 be b3 45 3e be 43 a8 16 bf f8 68 06 bf
       -0.37902105 -0.18581276 -0.58850497 -0.5250392
0002d0 49 ad e3 be 34 70 3a be 3d 7d 79 be 76 59 71 be
       -0.44468144 -0.18206865 -0.24364181 -0.23569283
0002e0 83 17 d0 be 63 18 03 bf 69 60 d9 be 43 f0 9d be
       -0.40642938 -0.51209086 -0.42456368 -0.30847368
0002f0 d2 c4 2f bf 66 ac 2e bf fb 26 07 bf d9 1a 1f be
       -0.686597 -0.6823181 -0.52793854 -0.15537585
000300 0e d4 9d be 08 f3 b1 be 17 45 29 bf 16 c4 37 be
       -0.30825847 -0.3475573 -0.6612105 -0.17945895
000310 c9 15 0b bf c4 61 9d be 31 12 03 be 37 62 6d bd
       -0.54330117 -0.30738652 -0.12799908 -0.057954993
000320 8b a1 3e 3e 07 6a aa 3e fe d3 0c 3f 8f ca 05 3f
       0.18616311 0.33284017 0.55010974 0.52262205
000330 0e 2e 3e 3e 40 78 2d 3f 5e 0b a5 3e 13 65 37 3d
       0.18572256 0.6776161 0.32235235 0.044774126
000340 21 3e 12 3e c3 44 39 be 96 c0 d5 bc 0e 84 c9 be
       0.14281513 -0.18092637 -0.026092809 -0.39358562
000350 f7 e9 e5 3d bc e1 ca be f2 cd 0b bf bf dc 48 be
       0.11226266 -0.39625347 -0.5461112 -0.19615458
000360 bc 3f 8f be ee c6 03 bf 66 6f c8 be 06 08 ee be
       -0.27978313 -0.5147542 -0.3914749 -0.46490496
000370 97 3e 63 be 25 2c a5 be fa 56 68 bd 12 53 da be
       -0.22191845 -0.32260242 -0.056723572 -0.42641503
000380 e5 cf ba bd d1 13 05 bf b0 a0 34 be 9c 1d 06 bf
       -0.09121684 -0.5198336 -0.17639422 -0.5238893
000390 31 88 57 be a3 64 e9 be 4c 16 01 bf 67 1f 04 be
       -0.21048047 -0.45584592 -0.5042465 -0.12902604
0003a0 f6 eb 9e be c9 3f 98 be 0f 27 f5 be cb a9 25 bf
       -0.310394 -0.29736164 -0.47881362 -0.6471221
0003b0 26 f9 11 bf 8e c6 fa be fd ce 8f be d1 79 df 3d
       -0.57020795 -0.4897961 -0.28087607 0.109119065
0003c0 7e e1 a0 3e a2 ba 11 3f 4f 16 02 3f 37 5b ee 3d
       0.31422037 0.56925404 0.5081529 0.116384916
0003d0 87 75 36 3f e4 e7 93 3e 41 2b 0b 3f dc 31 52 3e
       0.7127308 0.28887856 0.54362875 0.20526832
0003e0 3d 8a 19 3d 3f ea 57 be 64 0e 23 3c f1 c8 32 3c
       0.03748535 -0.21085452 0.009952161 0.010912166
0003f0 d8 e5 8a be 1a 2a 09 be 12 fb 0c bf c8 e9 09 be
       -0.27128482 -0.13394967 -0.550706 -0.13468087

sequential/dense_1/MatMul f4 [60, 20]
000000 5a d8 b7 3e b0 f5 02 3f af 07 4f 3f a1 7f 18 bf
       0.3590725 0.5115614 0.808711 -0.59569746
000010 8c 36 e4 be 83 7c 19 bf ba 0c f5 be 18 5f 1d bf
       -0.44572866 -0.59955615 -0.47861272 -0.61473227
000020 65 f2 f3 be 6d 4c 16 3f b4 3c ae be 56 67 41 bf
       -0.4764587 0.58710366 -0.34030688 -0.75548303
000030 6b 58 0e bf a1 7d 18 bf 75 b0 e9 3e ca 9e fe 3e
       -0.55603665 -0.59566694 0.4564244 0.4973052
000040 49 01 03 3f 54 0a 20 3f 51 10 c7 3e c3 c4 21 bf
       0.51173836 0.6251576 0.38879636 -0.6319086
000050 a1 0f c5 3e 6b d1 e7 3e 98 1b 45 3e 2b 0b 82 be
       0.38488486 0.4527696 0.19248807 -0.25399145
000060 d9 16 6d be 99 1c 09 bf c4 d7 0c bf d8 e7 a2 be
       -0.23153247 -0.5355926 -0.5501673 -0.31817508
000070 3c 61 f6 be 89 2d 11 3f 28 8b 0f bf 84 0a 9a be
       -0.4812106 0.56710106 -0.5607171 -0.30086148
000080 99 40 1f bf c1 16 af be b9 38 6e 3e 40 fa 76 3e
       -0.62207943 -0.34197047 0.23263825 0.241189
000090 be 5a 0f 3e 7b 29 b1 3e 3e d5 09 3f 68 96 73 be
       0.13999459 0.3460196 0.53841007 -0.23787844
0000a0 3c f5 9a 3e 7c af cd 3e b0 aa dd 3d 05 dc 10 bf
       0.30265224 0.40172946 0.10823572 -0.56585723
0000b0 03 6d bc be a0 ad ae bd 4a 0d 0e be 91 ad 72 be
       -0.3680192 -0.0852921 -0.13872257 -0.23699023
0000c0 07 ca 8b be 18 c6 c0 3e 3f e6 00 bf 58 96 09 be
       -0.27302572 0.37651134 -0.5035133 -0.13436258
0000d0 87 3b 58 be 8e 62 e2 be 78 f3 81 3d 5c 6a ec 3e
       -0.21116458 -0.44215816 0.06345266 0.46174896
0000e0 aa f3 32 3e 53 03 d2 3e bd cb 1a 3d a9 cf 08 bf
       0.17475763 0.4101816 0.037791956 -0.53441864
0000f0 29 d2 97 be e6 ef 87 be e0 86 49 bd 50 f5 26 3e
       -0.29652527 -0.26550215 -0.049200892 0.16304517
000100 5e db 72 3e 3c c9 06 3e fe 0b 13 3f 3c f3 76 3d
       0.23716494 0.13162702 0.57440174 0.06029056
000110 4f a0 f3 3e 2d 72 b1 be cc a5 12 3f 21 54 53 3d
       0.47583243 -0.34657422 0.57284236 0.051593903
000120 d0 be 22 3e 83 c6 e5 3e 3a 21 2b bc e3 eb e9 be
       0.15893102 0.44878015 -0.010444934 -0.4568778
000130 3e 91 9c be 04 3f f1 be bf ab 8f be 71 ec 50 3e
       -0.3057956 -0.4711839 -0.2806072 0.20402695
000140 6b 35 19 3e 27 23 c1 3d 35 03 0d 3f 9e b7 07 bf
       0.14961784 0.09430533 0.5508302 -0.5301455
000150 17 29 38 be 37 a6 b8 be 52 7d 93 be be a1 0c bf
       -0.17984425 -0.36064312 -0.2880655 -0.549343
000160 ee cf 06 bf d2 21 d1 3e 26 85 d0 be 1a f8 bd be
       -0.52661026 0.40846115 -0.40726584 -0.3710335
000170 ee ec 0b bf 08 76 ac bd 2c 01 a3 3e ca e8 e5 3e
       -0.546584 -0.0842095 0.31836832 0.44904166
000180 26 88 f0 3e 2f 35 66 3e 2e 5c df 3e 7f e2 0c bf
       0.46978873 0.22481225 0.43625015 -0.55033106
000190 7b 74 b9 3e 13 d2 ff 3c ee 7d ef 3e 76 c6 db be
       0.3622168 0.0312281 0.46775764 -0.4292485
0001a0 ca db 83 bd 85 5c 7a be e0 57 ab be aa f3 b3 be
       -0.06438406 -0.24449356 -0.3346548 -0.35146838
0001b0 b1 f2 a3 be ad 7e ab 3e 9a 36 ce be cf 4d 7a be
       -0.32021096 0.33495083 -0.40276033 -0.24443744
0001c0 04 a4 ed be e8 19 2a be b6 10 49 3d fc 31 ab 3e
       -0.46414196 -0.16611445 0.049088202 0.33436573
0001d0 15 be d1 3d b8 fa b0 3e 08 3d bf 3e 5f 6d 86 be
       0.102413334 0.34566283 0.3735125 -0.2625532
0001e0 b1 41 85 3e 7d 3d 09 3f 8e 0a 60 3c d2 9d a1 be
       0.2602668 0.5360945 0.013674391 -0.3156572
0001f0 5b aa e5 be da 6f c8 be 7c 22 a8 be b0 ac 06 bd
       -0.44856533 -0.39147836 -0.3283881 -0.03287953
000200 21 69 b6 be 8f bc ea 3e ba d7 81 be 90 f5 51 bd
       -0.35627082 0.45846984 -0.253599 -0.051259577
000210 10 a9 07 bf c5 6a 8a be e0 5d aa 3e 8a 03 cd 3d
       -0.52992344 -0.27034584 0.33274746 0.10010441
000220 54 0c 14 be 22 f5 f0 3e e0 ff 89 3e 7f e6 74 be
       -0.14457828 0.47062021 0.2695303 -0.23916052
000230 90 2b 02 3f 9d 55 78 3e 6a 04 9d 3e c2 40 09 bf
       0.5084772 0.24251409 0.3066743 -0.5361444
000240 3c 24 1b bf 0f d4 18 bf a6 86 cb be 3f 7d 4a be
       -0.60602164 -0.59698576 -0.39751166 -0.1977434
000250 ff 6b b8 bd 99 5d 9c 3e 9d 1b e1 bd 18 ef 17 bf
       -0.090049736 0.3054016 -0.10991595 -0.59349203
000260 2a e4 95 be 67 6b 74 be 59 dc 7b 3e 75 0d df 3e
       -0.29275638 -0.23869096 0.24595775 0.43564954
000270 62 97 87 3e 92 1e b6 3e 05 be 11 3f 9a be c3 be
       0.26482683 0.35570198 0.5693057 -0.38231355
000280 8a 9b 6b be 42 ec 66 be 50 8b 13 be 5e 13 ce 3d
       -0.23008552 -0.22551063 -0.14408612 0.10062288
000290 bc 23 04 3f 72 d6 f5 3e e7 80 99 3e 0d 1a 01 3f
       0.51617026 0.4801517 0.29981157 0.50430375
0002a0 90 95 12 3f 83 02 d5 be 49 08 cc 3e 4b 3c 3a 3e
       0.57259464 -0.4160348 0.3985007 0.18187062
0002b0 ab 28 56 3e 82 5a 7d 3e b7 b3 f0 be a7 4b c6 be
       0.20913951 0.24741557 -0.47012112 -0.38729593
0002c0 eb ec 8c be 6e ea e2 bc 19 a7 07 bf e0 a2 80 3e
       -0.27524504 -0.027699675 -0.52989346 0.25124264
0002d0 35 e7 83 3e d0 3b 2f 3e a0 43 a0 3e 93 dd 88 bd
       0.25762334 0.1711266 0.31301594 -0.06682887
0002e0 ab 03 f1 be 1d 9b 92 be 0b a3 01 bf 0c db 03 be
       -0.4707311 -0.28633967 -0.5063941 -0.12876529
0002f0 14 c1 86 be 21 e1 fc 3d d1 2f 19 be 4a 0e ae be
       -0.26319182 0.123476274 -0.14959647 -0.33995277
000300 66 54 52 be 6d 33 c5 be 86 fc 6f 3e 96 c9 b1 3e
       -0.20540008 -0.38515797 0.23436174 0.3472411
000310 27 77 93 bd 66 aa cc 3e 70 44 c4 3e 65 90 53 be
       -0.07200461 0.39973754 0.38333464 -0.20660551
000320 b3 82 32 3f cf 51 45 3f 4c b8 bf 3e 63 2c 2e bf
       0.6973068 0.77077955 0.37445295 -0.6803648
000330 98 b6 35 bf 08 ac 3e bf c4 75 3d bf 1a 6e 04 bf
       -0.7098174 -0.7448125 -0.7400782 -0.517305
000340 24 6b 0a bf c9 23 7e 3e bf 79 62 bf 81 d9 4b bf
       -0.54069734 0.24818338 -0.8846702 -0.7962876
000350 fb 53 9b be f8 c7 e5 be 72 13 c3 3e 3f 80 18 3f
       -0.3033751 -0.44879127 0.38100773 0.5957069
000360 b0 d0 0b 3f 42 87 da 3e 8d 2c 3f 3f 18 8f 38 bf
       0.54615307 0.4268132 0.74677354 -0.72093344
000370 c2 40 f3 3c 2d ba f0 3e b9 75 02 3f ac e0 49 be
       0.029693965 0.4701704 0.5096088 -0.19714612
000380 b4 7d 5b bd 4d 96 44 be b0 8e 06 be 85 14 ec be
       -0.053586677 -0.1919796 -0.13140368 -0.46109405
000390 d0 ac 9b be 3b e1 06 3f 03 e9 ef be 93 82 0c bf
       -0.30405283 0.52687424 -0.4685746 -0.5488674
0003a0 3f 04 15 bf 86 63 0f bf 4b 1e 90 3e ea 47 c8 3e
       -0.58209604 -0.56011236 0.28148112 0.39117366
0003b0 48 59 77 3e 2b 7a 41 3e 7e f0 72 3e d6 f9 b6 be
       0.24155152 0.1889426 0.23724553 -0.35737485
0003c0 58 bb 2f be 52 0f 0b bf bb c3 28 be 58 70 1c 3e
       -0.1716131 -0.5432025 -0.16480915 0.1527723
0003d0 7a 80 00 3f ec 00 f9 3e 41 e0 a4 3e 5c b9 eb 3e
       0.5019604 0.48633516 0.32202342 0.46039855
0003e0 df 76 10 3f 92 ae 1d be 97 7f 01 3f 2f ff a5 3e
       0.5643138 -0.15398625 0.5058531 0.32421252
0003f0 f7 2f 4c 3e 29 98 00 3e 54 90 bf bd 63 83 df be
       0.19940172 0.12558044 -0.093537 -0.43654928

sequential/dense_2/MatMul f4 [2, 60]
000000 cf db 92 3e fa 3d a6 3e c5 9e 5a 3e 87 78 ae be
       0.28683326 0.3246916 0.21349628 -0.3407633
000010 e7 32 3b 3e fe c6 05 3f 65 55 e6 3e 6f 2e f6 3e
       0.18281136 0.52256763 0.44987026 0.480823
000020 71 ac fd be f6 46 85 3e 33 4e 74 3c d8 fa 55 3e
       -0.49545625 0.260307 0.014911222 0.2089647
000030 95 3f 8b bd dd 56 01 3f fe 8b da 3e 91 30 e0 3e
       -0.06799237 0.5052317 0.4268493 0.43787053
000040 3c 81 09 bf 50 af 21 3e 92 b6 62 be 39 3f 7c 3e
       -0.5371282 0.15789533 -0.22139958 0.24633493
000050 44 6e ab 3e ea c2 ab be 7c 94 ef bd 5b 2b c5 3d
       0.33482563 -0.33547145 -0.11698243 0.0962741
000060 99 4c cb be 7c 38 70 3e 33 89 b6 be e0 f0 a9 3e
       -0.39706877 0.23459047 -0.3565155 0.33191586
000070 85 23 f9 3e cb 95 08 3f b1 b1 d3 be 6e 49 cc be
       0.48659912 0.53353566 -0.41346505 -0.39899772
000080 ba d7 0b bf d6 81 78 be 6b e6 68 3e af 52 06 bf
       -0.5462605 -0.24268278 0.22744147 -0.52469915
000090 c8 dc 56 be 23 57 6f be e0 e1 92 be 88 6f 33 be
       -0.20982659 -0.23373084 -0.28687954 -0.17523015
0000a0 30 e6 6b be f6 ae c4 3e b1 50 04 be 89 00 05 be
       -0.23037028 0.38414735 -0.12921406 -0.12988485
0000b0 0a d4 55 3d 0c b1 ba be fe 36 9a 3e cb f1 a9 be
       0.05220417 -0.364632 0.3012008 -0.33192286
0000c0 95 3a eb be 43 88 c9 3e 33 32 82 be 93 e4 e4 3e
       -0.45943132 0.39361772 -0.25428924 0.44705638
0000d0 96 4e b7 be 35 bc 0e bd 7f ae 8f 3e 16 a7 de be
       -0.35802144 -0.034847457 0.28062817 -0.4348685
0000e0 48 1e 22 be ff d8 9b be b5 94 05 bf 24 ac b1 3d
       -0.15831864 -0.30438992 -0.52180034 0.08675411
0000f0 19 a7 40 be b6 93 9d be b6 b4 a6 be d9 6c f2 3e
       -0.18813743 -0.30776757 -0.32559747 0.4734867
000100 eb 45 02 bf 75 51 80 be 39 a0 c6 be 66 d5 c7 bd
       -0.50887936 -0.25062147 -0.38794115 -0.097574994
000110 d6 78 3e 3e 7e a6 cd be 10 24 f8 be aa e8 04 bf
       0.18600783 -0.40166086 -0.48465014 -0.5191752
000120 d7 5f f9 3e 3e c9 d0 be 43 02 b1 be 84 6e 1b be
       0.48705932 -0.40778536 -0.34572038 -0.15178877
000130 5f 6c bf 3e f3 05 05 bf de 4f f1 3e d0 69 97 be
       0.37387368 -0.519622 0.47131246 -0.29572916
000140 fd 97 a5 be ba a2 91 3e a8 c2 6b be 88 67 fb be
       -0.3234252 0.28444463 -0.23023474 -0.49102426
000150 b4 ba 5c 3e aa fa f8 be c3 fb e4 3e ee 8b 67 be
       0.21555597 -0.48628742 0.4472333 -0.22611973
000160 cf 4e c6 bd fa f9 1c be 46 8b e1 3e 54 61 eb 3e
       -0.09683 -0.15329733 0.4405157 0.45972693
000170 8f af 2c 3e f1 17 e3 3e a5 0f f5 be 85 ed e2 3e
       0.16863845 0.44354203 -0.47863498 0.44321838
000180 41 5c ae 3e fd d1 68 3e 9c 77 d3 3e 8c 6a f9 3e
       0.3405476 0.22736354 0.41302192 0.487141
000190 1d e9 ea 3e b5 eb fb be 16 cf 00 3f 08 97 08 3f
       0.45880976 -0.49203268 0.5031599 0.53355455
0001a0 d5 dc 0b bf 7f 8b ee 3e ee d9 3e be bc 46 aa 3e
       -0.5463384 0.46590802 -0.18637821 0.3325709
0001b0 53 a9 aa 3e f2 c6 7b be 92 d1 e9 3e ab 86 b8 be
       0.3333231 -0.2458761 0.45667702 -0.36040244
0001c0 1c 83 a4 3e 42 cf fb 3e 5d 33 ca be a1 4a b1 3d
       0.3213128 0.49181563 -0.39492312 0.086568125
0001d0 83 1c a5 3e aa cf 28 3e bb ad 59 bd 5e 0b 0a bf
       0.32248315 0.16485468 -0.053144198 -0.53923595
