firebase_ml_model.tflite (tflite, 9196 bytes, 6 tensors)

sequential/dense_2/BiasAdd/ReadVariableOp/resource f4 [2]
0	0xbbc742ba	-0.0060809525
1	0x3bc741fb	0.0060808635

sequential/dense_1/BiasAdd/ReadVariableOp/resource f4 [60]
0	0xbe495eb2	-0.1966503
1	0x3dd7e2f7	0.10541337
2	0xbe71f5ba	-0.23628893
3	0xbdb4fb47	-0.0883699
4	0x3e7fbff9	0.24975576
5	0x3ea629f8	0.32453895
6	0xbe06b711	-0.13155772
7	0x3ddb66d9	0.10712976
8	0xbe447881	-0.19186594
9	0x3e206c18	0.15666234
10	0x3ed659ee	0.41865486
11	0xbdd2a217	-0.102848224
12	0x3e0bdf03	0.13659291
13	0x3e52abf5	0.20573409
14	0xbde0a512	-0.10968985
15	0xbe2daea9	-0.16961159
16	0xbe2d4499	-0.16920699
17	0x3e1447bf	0.14480494
18	0x3db96b3d	0.09053657
19	0xbe16cf8d	-0.14727612
20	0xbe9211ce	-0.2852921
21	0xbdf6c1f5	-0.12048713
22	0x3e2d5560	0.16927099
23	0xbe4a476b	-0.19753806
24	0x3e866a64	0.26253045
25	0x3e1da72c	0.15395802
26	0x3dde75e5	0.1086233
27	0xbe40ad4e	-0.1881611
28	0x3e155df6	0.14586625
29	0x3e19a13d	0.15002914
30	0xbe5c5c70	-0.21519637
31	0x3e0df034	0.13861161
32	0xbe572a76	-0.21012291
33	0xbe981008	-0.2969973
34	0x3e076374	0.13221532
35	0x3e4f623e	0.2025232
36	0xbe1ce451	-0.15321471
37	0xbe06e5e2	-0.13173631
38	0x3e9ddecc	0.30834043
39	0xbe8174e9	-0.25284508
40	0xbe5502c3	-0.20801835
41	0xbe566180	-0.20935631
42	0xbdee89df	-0.116473906
43	0xbe88ca08	-0.26716638
44	0x3ee23751	0.44182828
45	0x3e89907f	0.26868054
46	0xbd97b4d1	-0.07407535
47	0xbdf36fcf	-0.1188656
48	0x3e121e75	0.14269431
49	0x3dd835c4	0.1055713
50	0xbdd6d23f	-0.1048932
51	0xbe116d02	-0.1420174
52	0x3e5ca2a7	0.21546422
53	0xbe800654	-0.25004828
54	0xbe67f57f	-0.22652243
55	0x3e8603c5	0.2617475
56	0x3df303bf	0.11865949
57	0x3e1311bb	0.14362232
58	0xbe159f8f	-0.14611648
59	0xbeb0f18d	-0.3455929

sequential/dense/BiasAdd/ReadVariableOp/resource f4 [20]
0	0xbe092b71	-0.13395478
1	0xbdcfed0f	-0.10152637
2	0xbde7daac	-0.11321005
3	0xbc90064d	-0.01758113
4	0x397b6df6	0.00023978189
5	0x3d978bc9	0.07399709
6	0xbd4ba738	-0.04972002
7	0xbd679c0b	-0.0565453
8	0xbd0e62aa	-0.034762062
9	0xbccd50db	-0.025062969
10	0xbd8b86ba	-0.068128064
11	0xbd9a6f5c	-0.07540771
12	0x3d977a95	0.073964275
13	0x3d017cee	0.031613283
14	0xbd9956e7	-0.074872784
15	0xbbc3ec58	-0.005979102
16	0xbcd64f3a	-0.026160825
17	0xbd238d23	-0.03992952
18	0xbdc13269	-0.09433443
19	0xbcf400e4	-0.029785581

sequential/dense/MatMul f4 [20, 20]
0	0x3f51048d	0.8164757
1	0x3f04f2a8	0.51932764
2	0x3ec211b8	0.37904143
3	0x3e4cbc7f	0.1999378
4	0x3f0732ab	0.5281169
5	0x3e9a519d	0.3014039
6	0x3e049206	0.12946329
7	0x3e262dfc	0.16228479
8	0xbec8182f	-0.3908095
9	0x3e43aed3	0.19109659
10	0x3e338eac	0.17534894
11	0xbe44adc8	-0.19206917
12	0xbf128bdb	-0.5724465
13	0xbf0ac3d5	-0.54205066
14	0xbeff8ff2	-0.4991451
15	0xbea98c89	-0.33115032
16	0xbf82dd1a	-1.0223725
17	0xbf44c383	-0.7686083
18	0xbf05cc62	-0.5226499
19	0xbf14dc66	-0.581488
20	0x3fec57f4	1.8464341
21	0x401eb164	2.479577
22	0x3ff56870	1.9172497
23	0x3fba427d	1.4551541
24	0x3fa9d499	1.3268005
25	0x3f94586e	1.1589487
26	0x3efd7f9d	0.49511424
27	0x3e96b2f1	0.29433396
28	0x3f1667d7	0.587522
29	0x3e3ad423	0.18244986
30	0x3f2a5e18	0.66549826
31	0xbe8e8cec	-0.2784189
32	0xbcb05b75	-0.021527985
33	0xbf307f68	-0.68944407
34	0xbf3b9027	-0.73266834
35	0xbf30ee0d	-0.69113237
36	0xbfcc7be9	-1.5975314
37	0xc00fbfb8	-2.2460766
38	0xbff0add3	-1.8803047
39	0xbff44eb3	-1.9086517
40	0x40184cbe	2.379684
41	0x402610b4	2.5947695
42	0x3fdffca8	1.749898
43	0x3fb20040	1.3906326
44	0x3f7a012c	0.9765804
45	0x3f6b0fa4	0.9182074
46	0x3f890f05	1.0707709
47	0x3eb16f5d	0.34655276
48	0x3f401524	0.7503226
49	0x3e1b6d70	0.15178466
50	0x3e34e07c	0.17663759
51	0x3e8781ec	0.2646631
52	0x3e83d364	0.25747216
53	0xbeeec2b7	-0.4663293
54	0xbec1af17	-0.37828895
55	0xbfa5da74	-1.2957292
56	0xbfc7733f	-1.5582045
57	0xc00095ce	-2.0091434
58	0xc00bcc06	-2.1843276
59	0xc0176a44	-2.365861
60	0xc01a4e04	-2.4110117
61	0xc00a2c5c	-2.1589575
62	0xbfaf1feb	-1.3681616
63	0xbfc2f1c1	-1.5230027
64	0xbf40cb87	-0.7531056
65	0xbfac2266	-1.3447998
66	0xbf4940f4	-0.78614736
67	0xbf163c94	-0.58686185
68	0xbf2063f5	-0.6265252
69	0xbe839378	-0.25698447
70	0xbdec9727	-0.115522675
71	0x3e413da5	0.18871172
72	0x3e02e62c	0.12783116
73	0x3ed0379d	0.4066743
74	0x3f2c5954	0.67323804
75	0x3f3b35dc	0.7312906
76	0x3fed32ef	1.8531169
77	0x3feac55a	1.8341477
78	0x3ffa3444	1.95472
79	0x4021b48e	2.5266452
80	0x4011bae3	2.2770317
81	0x40105de2	2.2557302
82	0x3fd39b57	1.6531781
83	0x3f864d3a	1.0492318
84	0x3f5fb96c	0.87392306
85	0x3f32cc05	0.6984256
86	0x3efe9d3a	0.4972933
87	0x3f4d6ef8	0.8024745
88	0x3f210aa5	0.6290687
89	0x3e77978f	0.24178909
90	0x3e295e14	0.16539794
91	0xbeed97b0	-0.4640479
92	0xbebf01c4	-0.37306035
93	0xbe914578	-0.28373313
94	0xbf605565	-0.876303
95	0xbf4d7377	-0.8025431
96	0xbfc51f63	-1.5400203
97	0xbfd79179	-1.684127
98	0xbfeec299	-1.8653136
99	0xc001ad24	-2.0261927
100	0xc0032c72	-2.0495877
101	0xc00cfdfd	-2.2030022
102	0xbf910afb	-1.1331476
103	0xbf7560fc	-0.9585111
104	0xbf106991	-0.5641108
105	0xbf91bf57	-1.1386517
106	0xbe3e3ed6	-0.18578658
107	0xbecdb3a7	-0.40176126
108	0xbe7437d6	-0.23849425
109	0xbf2338b2	-0.63758385
110	0xbf0826f9	-0.5318447
111	0xbe7dc22a	-0.24781099
112	0x3e7e1913	0.24814253
113	0x3e97291d	0.29523554
114	0x3f2807d6	0.65636957
115	0x3f8da7fa	1.1066887
116	0x3fd254d1	1.6432134
117	0x3fbd72ec	1.4800696
118	0x3fdbbfe9	1.7167941
119	0x3fe7cb9b	1.810901
120	0xc013e02c	-2.3105574
121	0xbff7339e	-1.9312627
122	0xbfdd9b3b	-1.7312998
123	0xbf8d7492	-1.10512
124	0xbf91dee9	-1.1396152
125	0xbf8c7fed	-1.097654
126	0xbf64eeea	-0.89427054
127	0xbeb398c9	-0.35077503
128	0xbebd5390	-0.36977816
129	0xbe106a30	-0.14103007
130	0xbe879686	-0.26482028
131	0xbddbdb5f	-0.10735201
132	0x3f01f674	0.5076668
133	0x3f1f0b1f	0.62126344
134	0x3f1f7eca	0.6230284
135	0x3f57e233	0.8432953
136	0x3fdef903	1.7419742
137	0x3fe87823	1.8161663
138	0x3ff0728f	1.878496
139	0x400cb64e	2.198627
140	0x3ff5a21b	1.9190096
141	0x40016010	2.0214882
142	0x3f9bf85a	1.2185166
143	0x3fc65f81	1.5497895
144	0x3fa69f7b	1.301742
145	0x3f17c17c	0.5927961
146	0x3f1c71f4	0.6111138
147	0x3da15190	0.07876885
148	0x3f2082a3	0.62699336
149	0x3e45b759	0.19308223
150	0x3ee1f56c	0.44132555
151	0x3c370f82	0.011173131
152	0x3d632a54	0.05546029
153	0xbf3ba1a7	-0.73293537
154	0xbf1dd94c	-0.61659694
155	0xbf326d8d	-0.6969841
156	0xbfdb078a	-1.7111676
157	0xbff020d3	-1.8760017
158	0xbfb4f604	-1.4137578
159	0xc00aace7	-2.1668031
160	0x3fc7159c	1.555347
161	0x3fbd319b	1.4780763
162	0x3f81dd0e	1.0145586
163	0x3f8d0c1f	1.1019324
164	0x3f2961f5	0.66165096
165	0x3ef85179	0.4849966
166	0x3e3d26d6	0.18471846
167	0xbdef635f	-0.116888754
168	0x3ee97815	0.45599428
169	0x3e6f7e22	0.2338796
170	0x3d50f00a	0.05101017
171	0xbe6046a3	-0.21901946
172	0xbf04c6d2	-0.51865876
173	0xbf324409	-0.69635063
174	0xbdfc0c2f	-0.12307011
175	0xbf57956a	-0.8421236
176	0xbf7b122a	-0.9807459
177	0xbfb765d9	-1.4327956
178	0xbfabab80	-1.3411713
179	0xbf964080	-1.1738434
180	0x3fec33c1	1.8453294
181	0x400321a5	2.0489285
182	0x3f84213b	1.0322641
183	0x3fa03c2f	1.2518367
184	0x3f225f6f	0.6342687
185	0x3f3458b4	0.7044785
186	0x3e9ba6dd	0.30400744
187	0x3f0ee97c	0.5582502
188	0xbd010ce7	-0.031506445
189	0xbcb0619f	-0.021530924
190	0xbe7225c5	-0.2364722
191	0xbe943d54	-0.2895304
192	0xbe1eccfe	-0.15507886
193	0xbf0d9127	-0.5529961
194	0xbf4133b1	-0.754695
195	0xbee47961	-0.44623855
196	0xbfb2ff50	-1.3984165
197	0xbf90d4f0	-1.1314983
198	0xbfda4bfa	-1.7054436
199	0xbfa67e11	-1.3007222
200	0x401e7471	2.475857
201	0x40114654	2.2699175
202	0x3fc5e72d	1.5461174
203	0x3f9963b9	1.1983558
204	0x3f6b5dc3	0.91939944
205	0x3f873247	1.0562218
206	0x3ed62545	0.4182531
207	0x3f502357	0.81303924
208	0x3f12c34b	0.57329243
209	0x3e3e7c76	0.18602166
210	0x3f169b20	0.5883045
211	0x3e594a4d	0.2121975
212	0xbe301990	-0.17197251
213	0xbf40fb55	-0.753835
214	0xbf32b0a4	-0.6980078
215	0xbf4bd4ef	-0.79621786
216	0xbff7c8b0	-1.935812
217	0xc00fd5d9	-2.2474272
218	0xbfc6d931	-1.5535032
219	0xc0059d07	-2.0877092
220	0x3faf792a	1.3708851
221	0x3fcdd992	1.6082022
222	0x3f84dd10	1.0379963
223	0x3f811e54	1.008738
224	0x3f19937c	0.5999067
225	0x3f434642	0.7627908
226	0x3f2207fc	0.63293433
227	0xbd814166	-0.06311302
228	0x3ea475cf	0.3212113
229	0xbe8a45e8	-0.2700646
230	0xbdd47781	-0.10374356
231	0xbf0266c2	-0.50938046
232	0xbdfb8d60	-0.122828245
233	0xbdd51e05	-0.104061164
234	0xbea50972	-0.3223377
235	0xbf7a6c08	-0.9782109
236	0xbf5b8cb1	-0.85761553
237	0xbfb3b5b8	-1.4039831
238	0xbfbee209	-1.491273
239	0xbfa5a336	-1.2940433
240	0x3fe2e2d6	1.7725475
241	0x3fd3bff3	1.6542953
242	0x3fd1ced6	1.6391246
243	0x3f6cd65b	0.9251458
244	0x3f817727	1.0114487
245	0x3eb5676a	0.3543046
246	0x3ef2f3f2	0.4745174
247	0x3f1378b8	0.5760608
248	0xbb830fed	-0.0039997012
249	0x3ec71d53	0.3888956
250	0x3de8ff09	0.11376769
251	0x3e304f59	0.17217769
252	0xbe3be02e	-0.18347237
253	0xbe94a835	-0.29034582
254	0xbf0deb9c	-0.55437636
255	0xbf8a1bb8	-1.0789709

sequential/dense_1/MatMul f4 [60, 20]
0	0x3e7d18d8	0.24716508
1	0x3eb81087	0.3595011
2	0x3c61095f	0.013735144
3	0xbf2a49ba	-0.6651875
4	0x3e98f2f3	0.29872856
5	0xbedf3d6a	-0.43601543
6	0xbf338bd3	-0.7013523
7	0x3e92537c	0.2857932
8	0x3ec2f95b	0.38080868
9	0x3ec734e7	0.3890755
10	0x3e959f8e	0.29223293
11	0x3e8e4308	0.27785516
12	0x3f027036	0.5095247
13	0x3dd9d3c1	0.10636092
14	0xbeb60b91	-0.355557
15	0xbf0311ba	-0.51198924
16	0x3e69c5bd	0.22829337
17	0x3ef8c010	0.48584032
18	0x3ebe6578	0.3718679
19	0x3ea5b104	0.32361615
20	0xbea6bbfd	-0.325653
21	0xbd8a0ef4	-0.06741133
22	0xbebfe518	-0.37479472
23	0x3f37ddd8	0.7182288
24	0xbed49ca3	-0.41525754
25	0x3ee8b2cd	0.45448914
26	0x3f342512	0.70369065
27	0xbe252396	-0.16126856
28	0xbe8ee4aa	-0.27908832
29	0xbe3fed4e	-0.18742868
30	0xbdec8afa	-0.11549945
31	0xbeba32d8	-0.36366916
32	0xbedc7314	-0.43056548
33	0xbe920f4c	-0.28527296
34	0x3f1dfa59	0.61710125
35	0x3ee91046	0.45520228
36	0xbf114a56	-0.5675405
37	0xbeaa5e28	-0.3327496
38	0xbda03143	-0.07821896
39	0xbf171585	-0.5901721
40	0xbda10dc1	-0.078639515
41	0x3ef661b7	0.48121426
42	0x3ee268c7	0.44220564
43	0xbf55fc5c	-0.83588195
44	0x3e7b67ff	0.2455139
45	0xbef88017	-0.48535225
46	0xbefa3273	-0.48866615
47	0x3e8f3cca	0.27976066
48	0x3ef12b49	0.47103336
49	0x3efde465	0.49588314
50	0x3f074b9b	0.5284974
51	0x3eba2de3	0.36363134
52	0x3eac29d1	0.33625653
53	0x3e372b26	0.17887554
54	0xbf5c0ce3	-0.85957164
55	0xbf0df3f4	-0.5545037
56	0x3ef979df	0.48725793
57	0x3ed2a249	0.4113944
58	0xbd808e05	-0.06277088
59	0x3f1642f6	0.58695924
60	0x3ead76dc	0.33879745
61	0x3e978eab	0.29601035
62	0x3ec80492	0.39065987
63	0xbed7d2e9	-0.421531
64	0x3dd064fc	0.10175511
65	0xbef01cca	-0.46896964
66	0xbf1966c5	-0.5992244
67	0x3e29b6ce	0.1657364
68	0x3e4e75ab	0.20162074
69	0x3f0227cc	0.50841975
70	0x3ec9ae16	0.3939063
71	0x3de9657d	0.113963105
72	0x3ef1df74	0.47240794
73	0x3ed10846	0.40826625
74	0xbf0877a1	-0.5330754
75	0xbf0c4a25	-0.54800636
76	0x3e28a41d	0.16468854
77	0x3c981827	0.018566204
78	0x3edfae79	0.436878
79	0x3e29e111	0.16589762
80	0xbde9ee0c	-0.11422357
81	0xbf001683	-0.5003435
82	0xbedeeeb7	-0.435415
83	0x3f6dcb99	0.9288879
84	0xbf20b310	-0.6277323
85	0x3f21ad5d	0.63155156
86	0x3f6abdb3	0.9169571
87	0xbed4704e	-0.41491932
88	0xbec05479	-0.37564448
89	0xbec7b013	-0.3900152
90	0xbe4f97f2	-0.20272806
91	0xbed740d2	-0.4204164
92	0xbf27551b	-0.65364236
93	0xbf1eb99f	-0.62001985
94	0x3f4781ea	0.7793261
95	0x3f4d639f	0.80230135
96	0xbeb3e797	-0.35137627
97	0xbe48dfae	-0.19616577
98	0xbe2d1b52	-0.16904953
99	0xbf16fba2	-0.5897771
100	0xbe574688	-0.21023
101	0xbf008089	-0.5019613
102	0xbf064287	-0.5244526
103	0x3f86770b	1.0505079
104	0xbf59da3d	-0.8509863
105	0x3f263855	0.64929706
106	0x3f852668	1.0402346
107	0xbe70b89e	-0.23507926
108	0xbe3a30a6	-0.1818262
109	0xbf114e90	-0.567605
110	0xbef339a3	-0.4750491
111	0xbdcd0f34	-0.100126654
112	0xbf57a92b	-0.84242505
113	0xbed24951	-0.4107156
114	0x3f6b7fc0	0.91991806
115	0x3f73a719	0.95176846
116	0xbf15bf09	-0.5849462
117	0xbecd3aa6	-0.40083808
118	0xbea9f7a3	-0.33196744
119	0xbf199acc	-0.60001826
120	0x3dbc42f2	0.09192456
121	0x3f010ed5	0.50413257
122	0x3ef9719b	0.48719487
123	0xbf47c195	-0.7802976
124	0x3e882953	0.26594028
125	0xbee7ab08	-0.45247674
126	0xbee906b7	-0.45512936
127	0x3e751a9b	0.2393593
128	0x3e4f30ea	0.20233503
129	0x3d65afb2	0.05607576
130	0x3eaf291a	0.34211046
131	0x3f065799	0.52477413
132	0x3f28e144	0.6596873
133	0x3e1e0ed6	0.15435347
134	0xbf4da4ed	-0.8032978
135	0xbf3d19df	-0.738676
136	0x3ef1f85d	0.472598
137	0x3e86b985	0.26313415
138	0x3ee812c6	0.45326823
139	0x3e5a9b41	0.21348287
140	0xbe98c62a	-0.29838687
141	0xbda93c14	-0.08263412
142	0xbf0827a4	-0.53185487
143	0x3eef5249	0.46742466
144	0xbe4d5d72	-0.20055178
145	0x3f0e4f79	0.55590016
146	0x3f4144ce	0.7549561
147	0xbe7a9e9e	-0.2447457
148	0xbe62edfd	-0.22161098
149	0xbf0febaf	-0.56219
150	0xbf0e86ab	-0.55674237
151	0xbe1a39ce	-0.15061113
152	0xbeeaeed7	-0.45885345
153	0xbf0bebc8	-0.5465665
154	0x3eda6a67	0.42659304
155	0x3f12e678	0.5738292
156	0xbe06973f	-0.13143633
157	0xbe5d8f3c	-0.21636671
158	0xbe211038	-0.15728843
159	0xbd8c4b01	-0.06850243
160	0x3df22fcb	0.11825522
161	0x3ed18257	0.40919754
162	0x3e852e9d	0.26012126
163	0xbf34200c	-0.703614
164	0x3f240eb2	0.64084923
165	0xbf51d5fe	-0.8196715
166	0xbf7047ec	-0.93859744
167	0x3ea40afa	0.32039624
168	0x3e0b1bb7	0.13584791
169	0x3ee6975d	0.45037356
170	0x3f14d23e	0.58133304
171	0x3ebca83e	0.3684711
172	0x3f146a2d	0.5797451
173	0x3eda0ef9	0.42589548
174	0xbf67d275	-0.90555507
175	0xbf616de2	-0.8805829
176	0x3f19bee3	0.60056895
177	0x3eca3dfe	0.3950042
178	0x3e670d22	0.22563604
179	0x3f1e7392	0.61895096
180	0xbe35783c	-0.17721647
181	0xbb0cce42	-0.0021485244
182	0xbedd6a51	-0.43245175
183	0x3f0e5f17	0.55613846
184	0xbe5563c8	-0.20838845
185	0x3e947668	0.28996587
186	0x3f2e5118	0.6809249
187	0xbe17c898	-0.14822614
188	0xbe98b413	-0.29824886
189	0xbea3869f	-0.31938645
190	0xbe0f1881	-0.13974191
191	0xbea5887e	-0.32330698
192	0xbeb897fd	-0.36053458
193	0xbee9b7ac	-0.45647943
194	0x3e9b9644	0.3038808
195	0x3ee619f9	0.4494169
196	0xbeac7d02	-0.33689123
197	0xbee0bfa5	-0.43896213
198	0xbec14bae	-0.37753052
199	0xbe132873	-0.14370899
200	0x3d978219	0.07397861
201	0xbeeba7ce	-0.46026462
202	0xbeb15fdd	-0.3464345
203	0x3f73a6e4	0.9517653
204	0xbf4233f0	-0.758605
205	0x3f218fae	0.6310986
206	0x3f522c71	0.8209906
207	0xbefe57e4	-0.4967643
208	0xbf0cb46a	-0.5496279
209	0xbe882c1a	-0.26596147
210	0xbed15fe7	-0.4089348
211	0xbee1876e	-0.44048637
212	0xbf43ff77	-0.76561683
213	0xbe3bc1f6	-0.18335709
214	0x3f791852	0.97302735
215	0x3f43da83	0.765053
216	0xbf2a9a01	-0.6664124
217	0xbefd30ab	-0.49451193
218	0xbe81acc2	-0.25327116
219	0xbef33458	-0.47500873
220	0x3d2a3448	0.041553766
221	0x3e2423f6	0.16029343
222	0x3d9bd21a	0.07608433
223	0xbf168475	-0.58795863
224	0x3e864ef6	0.26232117
225	0xbe78c63b	-0.24294369
226	0xbe98b790	-0.29827547
227	0x3edf5c13	0.43624935
228	0x3ef4bb24	0.47799027
229	0x3d227c8f	0.03966957
230	0x3e34f17c	0.17670244
231	0xbc89c038	-0.01681529
232	0x3ee55b14	0.4479605
233	0x3e562330	0.2091186
234	0xbf2f548b	-0.6848838
235	0xbeb02804	-0.3440553
236	0x3e898d7a	0.2686575
237	0x3f06335d	0.52422124
238	0x3e8b9837	0.27264568
239	0x3ef0b751	0.4701486
240	0xbe2df96e	-0.16989681
241	0xbe7f8a47	-0.24955092
242	0xbeb8d630	-0.36100912
243	0x3ea9679d	0.33086863
244	0xbe18170e	-0.14852545
245	0x3f00c1c0	0.5029564
246	0x3f041126	0.51588666
247	0xbef2728c	-0.47353017
248	0xbecfe751	-0.40606168
249	0xbea329bb	-0.31867775
250	0xbdd80104	-0.10547069
251	0xbcd53900	-0.026028156
252	0xbf26575d	-0.64977056
253	0xbe304169	-0.17212452
254	0x3f1c4406	0.61041296
255	0x3f22c59c	0.6358278

sequential/dense_2/MatMul f4 [2, 60]
0	0x3e5f8ed8	0.21831834
1	0xbe851519	-0.2599266
2	0xbd41db17	-0.04732808
3	0x3ef3c897	0.47613975
4	0xbe762e42	-0.24041083
5	0xbf07675e	-0.528921
6	0x3eecdc31	0.46261743
7	0xbecdacc1	-0.40170863
8	0x3efa701e	0.48913664
9	0xbeea4a6a	-0.45759898
10	0xbf30708f	-0.6892175
11	0x3e91f3e2	0.2850638
12	0xbf0f8ec5	-0.56077224
13	0xbef51732	-0.4786926
14	0x3ed1a751	0.40947965
15	0x3ed99088	0.4249308
16	0x3ebe66ed	0.371879
17	0xbe5edacd	-0.21763153
18	0xbecc9416	-0.3995673
19	0x3e75de31	0.2401054
20	0x3dfd099c	0.123553485
21	0x3f0bb790	0.5457697
22	0xbf0fa16e	-0.561057
23	0x3efaaf3b	0.48961815
24	0xbf2c1ef0	-0.67234707
25	0xbee71f49	-0.45141056
26	0xbefe010a	-0.49610168
27	0x3f0d4800	0.5518799
28	0xbeecb147	-0.46229002
29	0xbefae639	-0.4900377
30	0x3ebd37f2	0.36956745
31	0xbea9e67a	-0.33183652
32	0x3eab18ab	0.33417258
33	0x3e292e2d	0.16521521
34	0xbf0710c1	-0.5275994
35	0xbf0f80e8	-0.5605607
36	0x3ecf4c22	0.40487772
37	0x3ec412c0	0.38295555
38	0xbf13fcfb	-0.5780789
39	0xbc6d3867	-0.014478779
40	0xbc4357ec	-0.011922818
41	0x3f0d50ca	0.552014
42	0x3f1030dd	0.5632456
43	0x3ef12381	0.470974
44	0xbf5a9de9	-0.853972
45	0xbe8c3087	-0.27380773
46	0x3ef56044	0.47925007
47	0x3e9f7569	0.31144264
48	0xbed87b73	-0.42281684
49	0xbe21dc43	-0.1580668
50	0x3ee084be	0.43851274
51	0x3ed7ef0d	0.4217457
52	0xbe21dbe5	-0.1580654
53	0x3da3a611	0.07990659
54	0x3ec2be91	0.38036016
55	0xbe9e6eff	-0.30944058
56	0xbe6ca892	-0.2311118
57	0xbeb62d66	-0.3558151
58	0x3de934fd	0.1138706
59	0x3e37df35	0.1795624
60	0xbf042e9f	-0.5163364
61	0x3f0e92c5	0.556927
62	0xbef4457d	-0.47709265
63	0xbf04751a	-0.5174118
64	0x3f04cb08	0.518723
65	0x3edf7c8d	0.43649712
66	0xbe9f06df	-0.3105993
67	0x3f07a4fa	0.5298611
68	0xbeb1aa60	-0.34700298
69	0x3e8cc76f	0.27495906
70	0x3f1d1b1c	0.6136949
71	0xbd3e6691	-0.046484534
72	0x3f077e7c	0.52927375
73	0x3f310d24	0.69160676
74	0xbeacd885	-0.3375894
75	0xbe185533	-0.14876251
76	0xbec5c465	-0.386264
77	0x3ec371a5	0.3817264
78	0x3eea5a3e	0.45771974
79	0xbf01969c	-0.50620437
80	0xbec7bbe9	-0.39010552
81	0xbeb8c03f	-0.36084172
82	0x3e8d54ac	0.27603662
83	0xbed1c8e2	-0.40973574
84	0x3eb46e9a	0.35240632
85	0x3eae613f	0.34058568
86	0x3f0dbef7	0.55369514
87	0xbe844dba	-0.2584055
88	0x3ec4c662	0.38432604
89	0x3ec4fede	0.38475698
90	0xbe6997db	-0.22811835
91	0x3ebf5b33	0.37374267
92	0xbe8e665b	-0.27812466
93	0xbec43014	-0.3831793
94	0x3f21972c	0.63121295
95	0x3ecb8c70	0.39755583
96	0xbe5ac209	-0.21363081
97	0xbf0bf6a5	-0.54673225
98	0x3f0aa495	0.5415738
99	0xbef9fe3b	-0.48826775
100	0xbefee25e	-0.4978208
101	0xbdc41a0b	-0.0957528
102	0xbeae7910	-0.34076738
103	0xbe8e0021	-0.27734473
104	0x3f077c8e	0.5292443
105	0x3f1b42a4	0.6064856
106	0xbe2b8494	-0.16749793
107	0x3e03ec3d	0.12883087
108	0x3e450de1	0.19243576
109	0x3f07e8ce	0.53089607
110	0xbe7e99c3	-0.24863343
111	0xbeb9aba4	-0.36263764
112	0x3f01d5cb	0.5071685
113	0xbf13eb0e	-0.5778054
114	0xbece1aeb	-0.40254912
115	0x3f18fef8	0.5976405
116	0x3e81dc5c	0.25363433
117	0x3ed0f346	0.40810603
118	0xbe4b2c64	-0.19841152
119	0xbf1d7d15	-0.61518985
