firebase_ml_model.tflite (tflite, 256160 bytes, 8 tensors)

model_1/conv2d/BiasAdd/ReadVariableOp f4 [32]
00000000: 296a 2bbc 7bd2 28bc eb83 8f3e b753 94bc
00000010: c950 95bd ad71 8fbc 842a a8bb 18f4 16bd
00000020: 3b2a d93b b231 dabc 0467 d7bb c9d8 cb39
00000030: 7f21 243c 99a8 babc 3570 753c 43a3 473c
00000040: 2447 413c c70f f83d 0ae9 6bbd f20a 873d
00000050: f4cb dbbc b8a8 00bd a144 f33c fb87 c33c
00000060: fc0d bc3d 32b5 86bd b22b b13c 880b d53c
00000070: f902 1a3d c470 0c3d 40ec a93b f111 8b3d
-0.010462322 -0.010304089 0.28030333 -0.018106325 -0.07290799 -0.01751026 -0.0051320214 -0.03685388
0.0066273487 -0.026635025 -0.0065735597 0.00038880695 0.010017752 -0.022785472 0.0149803655 0.012184921
0.011796746 0.12112384 -0.05759529 0.065938845 -0.02683065 -0.031410903 0.02969581 0.023868551
0.09182355 -0.06577529 0.02162728 0.026006475 0.03760049 0.03428723 0.005185634 0.067905314

model_1/conv2d_1/BiasAdd/ReadVariableOp f4 [16]
00000000: c86a b13e 9c4e 323d d847 06bd c706 3bbd
00000010: d424 6bbc cef7 a73c b83f ed3a 1cdc 99bc
00000020: a2d4 48bd c8b9 373e 2a27 8c3d 2f2e e4bc
00000030: 7d2f 04bd 158a 9abc c3a3 a9bd 4182 30bd
0.3465178 0.043532 -0.03278336 -0.04566076 -0.014352042 0.020503905 0.0018100655 -0.018781714
-0.049030907 0.17941964 0.068434075 -0.027854053 -0.03227185 -0.01886467 -0.08283188 -0.04309297

model_1/conv2d/Conv2D f4 [32, 5, 5, 1]
00000000: 8caf 943c 7f56 30bd bf5b f1bd fda2 773c
00000010: 520f ba3c 9e50 b6bc 3251 b5bd 29f9 adbc
00000020: ef6c 91bd c71f ac3b 463c 6cbb 687e 99bd
00000030: 2ac8 b83b c783 f73c aaec a1bd a22a 52bd
00000040: 82a3 dbbd 52f6 623d b90e 31bd 2baf aebd
00000050: 4edf f6bc c30d 26bd 038f 97bc eee2 ecbd
00000060: dc91 b4bc 9d12 893d bc2c 67bb 0f45 d33c
00000070: f72c ee3c 2a13 5b3c 17a5 143d d626 86bd
00000080: 35a6 663d 509c f3bc 1e0d 273d f5cb 60bc
00000090: 472f dabd ba24 c53b ee7a 9dbd 74c5 593c
000000a0: 774d 403d 05cd b4bd aa63 283d 0de9 f4bc
000000b0: d9db a9bc 147f 9a3d b3ca d8bd 4697 ed3d
000000c0: 8d2e 403c f254 4c3d 0447 963d 4718 073e
000000d0: f07a a2bd dfed 483d 425b 823d 9707 503d
000000e0: 6b50 003e 7102 59bb 53e1 82bc a5bf ba3d
000000f0: 886e 003c 41e2 8bba 5fe7 743c 6507 363d
00000100: 7c3d 103e 8755 f63d 58fc 5e3d 1635 23bd
00000110: 55e6 8cbd 20d4 023d 756f 333d 6859 8d3d
00000120: 11e7 67bd 2b97 93bd 1eef 953d 9e12 a7bc
00000130: 6d2c e2bd 5897 98bc e7c5 e4bd 9143 66bc
00000140: 5b92 743d 8e08 febc 3994 db3c 34da 98bb
00000150: e0b2 783d 717a dfbb 09ee b8bc f6e7 a6bd
00000160: a542 7abc 667f af3d 972b 84bc 3a33 a6bd
00000170: 4a05 273d e50b e4bd 70cd e93d c797 d5bb
00000180: 3e7e 693d cd99 29bd 5b9c 90bc 6bbd ef3d
00000190: 2fc3 9c3a 60d8 82bd ead4 b5bd 909c 44bd
000001a0: fb67 913b ebd6 58bc fb32 fbbd 8b03 0abd
000001b0: e703 d0bd 86c1 c1bc 7be2 29bc 6275 08bd
000001c0: 719b 623d 2e70 b3bd d025 d13d e631 b93c
000001d0: b900 77bd 5359 73bd 5d8c 08be 544a 833d
000001e0: 13ff 4e3d 1fdd 92bd eea0 4abd aba9 b2bd
000001f0: eb42 cb3d 0c7d 75bd 0336 aebd 1f17 eabb
00000200: 0840 dc3c 511c f13c 540b 7dbd 4e9f 203d
00000210: 199e 80bc e311 10bd 3ea8 153d 0b36 273c
00000220: 6b37 9bbd bf6c 91bd 71c8 ce3d 5428 bcbd
00000230: aa2e f4bb ff67 93bd e748 b03b 1424 27bc
00000240: 04ae 1bbd 2011 a6bb 02b3 babd f6d5 a23d
00000250: 84fd 35bb 1936 c3bd 69b4 8a3d 8a17 16be
00000260: 5db3 873d a313 debd 4ef8 88bd e51f 81bd
00000270: 4d61 cfbd e45b ca3d 5df3 16bd 27eb 3fbd
00000280: f7bf 773b 7fb9 3ebb 2440 d23d 77a3 ea3c
00000290: 6524 cb3c a8b2 c3bc 6a23 69bd 9588 59bd
000002a0: e707 cbbd 0e70 4dbd 6d2f 9c3c 46b0 fbbd
000002b0: 5498 4e3d 06b3 94bc bc87 2db9 727b 20bd
000002c0: 2895 2cbd f5a8 95b9 84d9 8dbd 2268 d03c
000002d0: 7ee2 a23d 5e44 32bd bb49 463d aa3b d1bb
000002e0: 8277 b3ba 671d 9bbd 9249 f6bc 6f65 043d
000002f0: aece 30bc e8eb a93d 1f48 393d e79c b63c
00000300: 0593 a1bd 3655 a9bd 06d6 cfbc 5a25 c43c
00000310: 4c97 99bd 084f e83b d3c4 06bd c7df 07bd
00000320: a7a2 173d 103d 1a3d 1213 81bc 96d9 66bd
00000330: 2de4 8fbd 8144 90bd c73f ccbc 9aff 6c3d
00000340: 7402 97bd 7729 7ebd 8208 09bd 616d 7cbd
00000350: 7c67 a8bb 0c0e 7ebc 1b79 8b3d 8dfa b83d
00000360: 81fe c1bd 46ca 4ebd 059b 83bc c927 12bd
00000370: 0d46 b03d 44e0 a4bd 4dff c93c 565d 193d
00000380: ca94 7fbd 2982 bd3d 7df0 6abd ec36 773c
00000390: 777e f8bd 90ca b33d a418 103c 82d8 2cbb
000003a0: 064a 923c 5878 fa3c f5fd 2d3a 411e a0bd
000003b0: bd5e 4dbd bf58 f2bc 91df d9bd f643 05bd
000003c0: cc85 95bd 0a9b debd a677 c6bd 7e55 b6bd
000003d0: 8490 ac3d ea53 1d3c 063c 75bc 9cc1 a6bb
000003e0: 06bf c0bc 1994 403d 7fd2 5cbd b172 eebd
000003f0: 1c26 023d c838 bcbc 3b4e c6bc b577 4a3d
0.018150114 -0.04305124 -0.11785077 0.015114543 0.022712383 -0.022255238 -0.088533774 -0.021236973
-0.071008556 0.0052528116 -0.0036046668 -0.07494813 0.005639096 0.030214204 -0.07906468 -0.05131019
-0.10724546 0.05541069 -0.04322693 -0.085295044 -0.030135777 -0.040540468 -0.01850081 -0.11566721
-0.022042207 0.06693003 -0.0035274466 0.025789766 0.029074175 0.013371268 0.036290254 -0.06550376
0.05631085 -0.029737622 0.040783994 -0.013720502 -0.10653549 0.006016341 -0.076894626 0.013291705
0.046948876 -0.08828167 0.041110672 -0.029896284 -0.020734714 0.075437695 -0.10585537 0.11601119
0.011729849 0.049885698 0.07337764 0.13192855 -0.07933605 0.049054977 0.06365062 0.05078849
0.12530677 -0.0033113027 -0.015976584 0.091185845 0.007838853 -0.0010672287 0.014947741 0.044440646
0.14085954 0.12028032 0.054439873 -0.03984555 -0.0687987 0.03194058 0.043807466 0.069018185
-0.056616846 -0.072065674 0.073209986 -0.02039462 -0.1104363 -0.018626854 -0.111705594 -0.014054195
0.059709888 -0.031009939 0.026804077 -0.0046646837 0.060717463 -0.006820016 -0.022574442 -0.08149712
-0.015274678 0.08569221 -0.016134067 -0.081152394 0.04077653 -0.11135081 0.11416137 -0.0065183374
0.05700516 -0.04140644 -0.017652681 0.117060505 0.0011960025 -0.063889265 -0.08878501 -0.048000872
0.0044374443 -0.013234834 -0.12265583 -0.033694785 -0.10156994 -0.02365185 -0.010368939 -0.03331507
0.05532402 -0.08761631 0.1021229 0.022606801 -0.060303424 -0.059411358 -0.13334794 0.06410661
0.050536226 -0.07171082 -0.04946988 -0.08723768 0.09924873 -0.059933707 -0.08506396 -0.0071438695
0.026886001 0.029432448 -0.06177838 0.039214425 -0.015700387 -0.035173308 0.0365374 0.010205756
-0.075789295 -0.0710082 0.10096825 -0.091873795 -0.007451852 -0.0719757 0.0053797844 -0.010201473
-0.03800775 -0.0050679594 -0.09116174 0.07950966 -0.0027769515 -0.09531803 0.06772692 -0.14657417
0.06626008 -0.10843589 -0.06687985 -0.063049115 -0.101259805 0.09880808 -0.036853183 -0.046855118
0.003780363 -0.0029102264 0.1026614 0.0286424 0.024797628 -0.0238889 -0.05691854 -0.05310877
-0.099136166 -0.05015569 0.019065583 -0.12289481 0.05043824 -0.018151771 -0.0001654913 -0.039180227
-0.042134434 -0.00028545377 -0.069262534 0.02544028 0.07953356 -0.04352223 0.04841016 -0.0063852863
-0.0013692232 -0.075739674 -0.030064378 0.032323297 -0.010791464 0.08296949 0.045234796 0.022291614
-0.0788937 -0.08268206 -0.025370609 0.023943592 -0.07499561 0.0070894994 -0.03290255 -0.033172395
0.03702035 0.03765589 -0.015756164 -0.05635985 -0.07025943 -0.07044316 -0.024932755 0.05786095
-0.07373515 -0.062051263 -0.03345538 -0.06162775 -0.0051392894 -0.015506279 0.068102084 0.09032164
-0.09472371 -0.05048587 -0.01606513 -0.035682473 0.08607111 -0.08050588 0.02465787 0.037442528
-0.062397756 0.09253342 -0.057358254 0.015088778 -0.12133496 0.0877887 0.008794937 -0.0026374166
0.017857563 0.030574962 0.0006637269 -0.078182705 -0.050139178 -0.029583333 -0.10638345 -0.032535516
-0.0730091 -0.10869415 -0.0969079 -0.08903025 0.08426002 0.009602526 -0.014967924 -0.005088998
-0.023528587 0.047016237 -0.053911682 -0.116429694 0.031774625 -0.022976294 -0.024207225 0.049430568

model_1/conv2d_1/Conv2D f4 [16, 3, 3, 32]
00000000: 7eb4 a33d 92cd efbb 0c84 403d 29d0 00be
00000010: 45f9 683b 8f7c 853d d5bf 88bd 0303 60bd
00000020: 3124 85bd 17a5 543d 5ede 893c de77 86bd
00000030: b99a c7bc 9662 2dbd c89b 313d 4dc4 8ebd
00000040: e649 4ebd 6fa9 bfbd 0846 933d c360 87bd
00000050: 049a 9d3d b68c 3d3d 19e9 e73d 2e18 6b3d
00000060: fa24 c83d 6136 0fbe 8f9f dfbd dd30 6a3c
00000070: fcd3 aebd 7f17 7cbd 1252 e23c 7839 b2bd
00000080: c98e 2b3d 093a 9dbd 2a28 b93d 4062 dd3c
00000090: 6e50 10bc b1bf 4bbd c671 263c c948 b5bd
000000a0: 34c9 febd 683e 043d 0b46 863b fd6c 1fbd
000000b0: 5dc1 a1bd 1bc5 3fbd fc3b e0bc a955 5ebd
000000c0: 9af8 9f3d ba0a 953d d41d 543d 06c8 e83c
000000d0: 7e5c 9fbd b645 2ebd 48fd 43bd da7d d7bd
000000e0: 684e c9bd 9da1 a7bc 9dd9 f9bd fbe1 ba3d
000000f0: 7282 0ebc 37c1 2abd 5652 cbbb 9b0b d73d
00000100: 860a 543c ae68 873d 6c71 163e 8682 80bd
00000110: a5cb e8bd 53ed 75bd 4c84 943d 1e22 49bd
00000120: 32c0 be3d b69f 033d d9a5 85bd 698c 0b3d
00000130: b213 3d3b 1852 a2bc f79d fa3c 9731 7cbb
00000140: 8926 2e3d aa29 ec3d 45c9 90bd a41b 0abd
00000150: f91b 3abd 0532 94bd b422 e7bc 9a36 3f3d
00000160: a02f ba3d 785d dabb 7c3f edbd 80a8 723d
00000170: 7656 883d 058d 653d c98f 23bd ddfd 58bd
00000180: ee1d 233d d907 ecbc 41f6 ae3d a9d2 bebd
00000190: 073a 8f3c 8d72 453d 9e8d e13d 09f7 983d
000001a0: 391d 9abd 1d46 ee3c 4ce7 7dba a2a7 46bd
000001b0: 7cfc ecbc 7e1e 3ab9 5ec9 ddbd 868c 873d
000001c0: 67cf 15bc 6e26 313d 7ce6 ee3c af70 b73d
000001d0: b816 90bd 93c2 a93d bc0e bbbd 7de8 0a3d
000001e0: dbae 8dbd c735 1e3d 7f3e 2cbd c981 ab3b
000001f0: e633 da3d 6d11 febd 6c43 ecbd bd1a 00bd
00000200: 913c 0abc 9580 84bc 5909 2a3e c888 d2bd
00000210: 1b12 d6bd fcec 0a3d 72fb 7cbc 40ab 3fbd
00000220: 350e 15bd 67ac f9bc 02c7 6bbd caef 83bd
00000230: 154e f5bd 9d37 853d 100c 7e3d 049b 2d3b
00000240: 51a9 02be db63 c23d 7491 e0bd 6718 773c
00000250: 847c e2bd c26d c2bd b7cd a43c 8320 d8bd
00000260: 0feb 4d3d 045c 6d3d 5c1c c7bc 9883 7ebd
00000270: b950 14bd 507c 923c e40a 993c 73fc 83bc
00000280: 1547 93bd 4b20 fbbd a27c ae3d 2c1d df3d
00000290: 8188 d0bd 0cc0 8bbd 3905 533d 996c b7bd
000002a0: 0441 c8bd 1c05 c33d c2fe cfbd e834 903d
000002b0: 3adb abbd 3644 94bd a971 a23d e6e3 d6bd
000002c0: f994 653d 411c b83d 043c a03d 0dac 20bd
000002d0: 8b56 93bd 826e 9cbd 2205 d33c d65e c83c
000002e0: 4926 bfbd ff55 4e3d f992 d13d 36b6 afbd
000002f0: 2bfb 2ebc 2201 75bd 3791 91bd a9a7 493d
00000300: 80c4 d6bd 7218 85bc 48ad 17bd fbe5 ceba
00000310: aa18 8d3c f6a0 d7bd 2e95 693d 7fd7 8dbd
00000320: 089a a4bd 3115 b3bd d26b e0bd 8dd0 44bd
00000330: 516a 0ebd ecab 00bd 5da4 bfbd 2604 debd
00000340: 8258 65bd 01f4 a43d d26d 4e3d 0031 6cbd
00000350: 6839 c63d 2542 b63d e3f7 ea3d eb37 a8bd
00000360: bec3 b53d b344 05bd 4ed1 d53d 71d5 8f3c
00000370: 409b 6f3d 4462 4fbd 422e 8dbb e8f1 5cbd
00000380: 5010 753d 2ac1 413d c986 ec3d 653f 973d
00000390: 5d14 dfbd 3d90 1d3d a223 c2bd 5a12 063b
000003a0: 25cb f13c 2106 e2bd 42d2 093d 0eef eabd
000003b0: 0889 03be 5629 993d 632f ee3d ab49 533d
000003c0: c86c 393d ae2e 9abd a545 b43c ac5f 6a3d
000003d0: e353 8f3d d57d f7bd d0dc a9bd f4cd 68bd
000003e0: 4eab 9f3d 11c7 04be 238f b23d d012 bc3d
000003f0: 1f4f a53d 9a0f 503d 856d c3bd 8ab1 8d3d
0.079934105 -0.007318207 0.04700093 -0.12579407 0.0035548967 0.06517898 -0.06677214 -0.054690372
-0.065010436 0.051915254 0.016829666 -0.065658316 -0.02436577 -0.042330347 0.043361455 -0.06971035
-0.050363444 -0.09358489 0.07191092 -0.06610253 0.07695392 0.04627677 0.11323757 0.057396106
0.09772678 -0.13985588 -0.10919105 0.0142938765 -0.085365266 -0.061545845 0.027627025 -0.087023675
0.041884217 -0.07677085 0.09040864 0.027024388 -0.008808238 -0.049743358 0.010158962 -0.08851773
-0.1244072 0.032286078 0.0040977052 -0.0389223 -0.07898209 -0.046818834 -0.027372353 -0.05428091
0.07811089 0.072774366 0.05178626 0.028415691 -0.07781313 -0.04254695 -0.04784897 -0.10522051
-0.09829408 -0.020462805 -0.121997096 0.091251336 -0.008698093 -0.04168817 -0.0062048836 0.105002604
0.012941962 0.06611763 0.14691705 -0.06274895 -0.11366967 -0.060040783 0.07251796 -0.049104802
0.09314002 0.032134734 -0.065257736 0.034069452 0.002885085 -0.019814536 0.030592902 -0.0038481706
0.04251722 0.11531384 -0.07069639 -0.033717766 -0.045436833 -0.07236103 -0.02821479 0.04668293
0.09091115 -0.0066639744 -0.11584374 0.059242725 0.06657116 0.05604269 -0.039932046 -0.052976478
0.039823465 -0.028812336 0.08543063 -0.09317524 0.017483724 0.048204947 0.110133395 0.07468993
-0.07525105 0.029086167 -0.000968565 -0.04849971 -0.028928988 -0.00017749702 -0.10829423 0.066185996
-0.009143687 0.04324954 0.029162638 0.089570396 -0.07035583 0.08289065 -0.0913367 0.033913124
-0.06918117 0.038625505 -0.04205179 0.0052339775 0.1065443 -0.124056675 -0.11536297 -0.0312755
-0.008437292 -0.016174594 0.16605128 -0.10279995 -0.10452672 0.033917412 -0.015440809 -0.046794176
-0.036390502 -0.030477716 -0.057562836 -0.064422205 -0.119777836 0.06504748 0.062023222 0.0026490102
-0.12759902 0.09491702 -0.10965243 0.015081502 -0.11058906 -0.09493591 0.020117624 -0.10553076
0.050272997 0.05794908 -0.024305515 -0.062137216 -0.036209796 0.017881542 0.01868195 -0.016111588
-0.07191292 -0.12262019 0.085198656 0.10894236 -0.10182286 -0.068237394 0.051518653 -0.0895626
-0.09778026 0.09522459 -0.10156013 0.07041341 -0.083914235 -0.07239573 0.07931835 -0.10492687
0.056050275 0.08989764 0.07823947 -0.03922658 -0.07194241 -0.07638265 0.025759283 0.024459284
-0.09333474 0.05037498 0.10233111 -0.08579676 -0.01068 -0.059815533 -0.07107776 0.04923216
-0.10486698 -0.016247008 -0.03703049 -0.0015785092 0.017223675 -0.10528748 0.057027034 -0.06925868
-0.08037192 -0.08744276 -0.10958065 -0.048050452 -0.03476936 -0.031413957 -0.09357522 -0.10840635
-0.05599261 0.080543526 0.0503977 -0.057663918 0.09678918 0.08899335 0.11473062 -0.082137905
0.088752255 -0.03253622 0.10440312 0.017557831 0.058497667 -0.050630823 -0.004308493 -0.053941637
0.05983001 0.047303356 0.11549146 0.073851384 -0.10892556 0.038467634 -0.09479453 0.0020457716
0.029515812 -0.11036325 0.033647783 -0.11471377 -0.12845242 0.07478587 0.11630132 0.051583927
0.045269758 -0.07528435 0.022005865 0.057220146 0.06998422 -0.120845474 -0.0829407 -0.056837037
0.07796346 -0.12966563 0.087187074 0.09183276 0.08071732 0.05079613 -0.095423736 0.069186285

model_1/dense/BiasAdd/ReadVariableOp f4 [60]
00000000: 8151 7c3d 5812 13bb 61d2 4ebc 07f7 a23c
00000010: 47e2 3a3d d018 cdbc 5c7d 52bd ce81 7c3c
00000020: e497 013c 80a8 42bd c2cf 4bbd d596 703c
00000030: aa7b b4bb f7d2 aebc 7768 9f3c 05f2 fc3c
00000040: 2b4f 953b d239 8c3b bc66 eb3c 8228 babb
00000050: 75e4 60bc aef5 cabc cada dfbc f352 ad3c
00000060: f790 6abb 518d 70bd 21ef 5a3d 2407 4d3d
00000070: 0d36 843d 5c6c 233d 77dc 51bd 01cc 9cbc
00000080: dd5c 7cbd c6c0 aebc ab98 2ebd 7d3d f2bc
00000090: 1ffb f03a be3b 5e3c cc75 113d cd67 40bc
000000a0: 61e1 8bbb 1a82 213d fb7c 03bd 84b5 74bc
000000b0: 9587 a43d 1291 5f3d 4db9 1ebd 716b 203d
000000c0: 25bd c03c c30f 07bc c3c8 da3b a914 0c3d
000000d0: bb6b 2abd 404d a7bb 38f0 963c 2742 b9ba
000000e0: 535e 8f3c b88a 47bd 4622 cc3c 3059 073b
0.061601166 -0.0022441354 -0.0126234 0.019893182 0.04562595 -0.025036246 -0.051389083 0.015411807
0.007909749 -0.047523975 -0.04975868 0.014684399 -0.005507906 -0.02134083 0.019458992 0.030877123
0.0045565567 0.0042793537 0.028735511 -0.0056810984 -0.013726343 -0.024775352 -0.027326006 0.021157717
-0.0035791972 -0.05872852 0.053450707 0.050055638 0.06455622 0.03989826 -0.051235642 -0.019140245
-0.061612 -0.021332156 -0.042626064 -0.029570336 0.0018385387 0.013564048 0.03551273 -0.011743498
-0.0042688106 0.039430715 -0.032101613 -0.014935855 0.08033673 0.05458171 -0.038750935 0.039164964
0.023527691 -0.008243504 0.0066767647 0.03419939 -0.041606646 -0.0051056445 0.018425092 -0.0014134095
0.017501032 -0.048716277 0.024918687 0.0020652525

model_1/dense_1/BiasAdd/ReadVariableOp f4 [2]
00000000: a1df f63d a2df f6bd
0.120543726 -0.12054373

model_1/dense/MatMul f4 [60, 960]
00000000: 1bc2 15bd 001f 1f3d a8f5 a6bc c41c 8bbd
00000010: 7cdc 4e3d dc12 10bd f5b0 3f3d 2898 173d
00000020: 706b 71bd 16c8 0c3c ef14 fb3a b62a 6a3d
00000030: da07 10bd 24ad 6d3d 0e94 85bc 79e5 513c
00000040: a053 a33d b871 58bd bd2c 75bd 9f06 8f3c
00000050: 34eb 9b3d 4bb6 863c e6ae 94bd 4b40 a63d
00000060: 1422 fa3c 4445 71bd ec4c 70bd b672 54bd
00000070: c24c a23c 7f2f c63c 3206 5fbd 866b 573d
00000080: b3bb 393d 146b edbc e9b9 cf3c 365f 0d3d
00000090: ebb0 833d 46a9 90bd f16f 933c bee2 95bd
000000a0: 1821 973d 48c1 3cbc 984f 803d 8d2b 37bd
000000b0: 7a6d 72bd 4002 57bd 1620 333d 38f8 873c
000000c0: 75b6 2abd 1b73 f23b 7ed0 8ebc cdb7 253c
000000d0: 08b2 893d 492e f1bc 2b66 a33c 7d6e 843d
000000e0: d1d5 613d b1c8 993d b394 94bc e951 423d
000000f0: c182 133d 6a19 79bd c108 bc3b 90fd 8ebd
00000100: 2555 e73b 7d4c 88bd 1411 ddbc 0910 8d3d
00000110: 8ecc 4abd a448 8b3d db65 923d 9563 f53a
00000120: 57d2 1ebc e326 28bc 1b5e 953d 5f91 963d
00000130: 9320 63bd 9a28 3dbd b4fd 3239 5680 a7bc
00000140: 8bae 173d 0154 273b cdcb 95bc cb11 78bd
00000150: bf37 61bd f8df e03c 7fed 5bbd 79c0 5f3d
00000160: 4f39 9d3c c4cd 863c 0623 ecbc 97a4 0c3c
00000170: 03b3 8fbd 5529 97bc ff6c 253d 2649 24bd
00000180: fe95 ab3d fca5 35bc 6515 20bd 39ac b6bc
00000190: ff2e 23bd e1b4 113d 9205 a2bc b59f 203d
000001a0: 882a a5bd 1cdc 093d c23c 323d 8623 fd3c
000001b0: 0c3e 84bd b292 573d 9dda 00bb 94f0 d33c
000001c0: 8936 7bbd 57e8 bcbc 3b9a 5bbd 03a5 25bd
000001d0: b9a9 1c3d 209e 0b3d 2d6d 16bd ac21 a53a
000001e0: bac5 8dbd 343f 86bd 41ce c23c 98eb c1bb
000001f0: fc21 04bd 3adb 40bd 942b 51bd 71e1 b2bb
00000200: b594 b03d caae d4bc b647 37bd 0639 22bd
00000210: a7e7 70bd 691d 8fbd 59b5 db3c 9db8 e2bc
00000220: bc88 09bd 208e 74bc b7b9 80bd 8688 9fbb
00000230: 7c48 4b3d 3ccc 96bd 6580 9e3c ffe4 5bbc
00000240: ba14 9f3d 9984 3f3d be71 42bd 0bf8 a2bc
00000250: ad4a 24bd 5f67 133d 1428 92bd e386 943d
00000260: a937 273d 599f b23c e9bf 963c f294 81bd
00000270: 341f 93bd 2e8d 89bd b39c 00bd 741e c2bc
00000280: 7f2f cfbc 4fa5 2a3d aeeb bf3c c064 28bd
00000290: da9f 873d 3c6b c83c 0898 6c3d 4aa0 363d
000002a0: aff8 043d 54fe 873d f3fe fdbc 5a3e 23bd
000002b0: 6092 b7ba a1e1 cebc 35ef 8dbd fc66 4b3d
000002c0: 28fb e63c c8e2 54bd 40f4 543d f976 27bd
000002d0: 9e88 833d b6e2 ef3c e312 9bbd e734 da3b
000002e0: 054e 79bd 4b33 9c3c 0d36 70bd f8b7 0dbd
000002f0: cae2 55bd b3c5 d23c ae64 07bd bf89 39bd
00000300: 6e20 16bd 31eb 18bc c625 913d 0510 e9bc
00000310: e0b4 123d 11b9 a63c a8a8 143b e6d2 08bd
00000320: b0c6 83bb 23b1 233d 2e6b 513d a940 2f3d
00000330: 0b6b e4bc fcde 853c aa28 403d 4702 a2bd
00000340: b95e a93d b42c 3b3d 5c0d 37bd 6191 5cbd
00000350: d38b a8bd 445c 90bd 744c 393d 389a 4bbc
00000360: d18a 133d 3074 e7bb 7975 8e3c 0980 233d
00000370: 7f6a 6ebd 7f65 163d 55b2 dcbc 1a75 95bd
00000380: 815c ef3c 3594 653c 2030 39bc cef3 2ebd
00000390: af43 bbbc c044 a1ba b6c0 e03c e48f 99bb
000003a0: ee76 aabc ca77 18bc 41f8 88bc c888 d9bb
000003b0: cfc1 713a 383c d1bc 74ee e2bc cfa2 f5bc
000003c0: ec46 cd3c 6b2e 833d 3e90 8cbd 244b 65bd
000003d0: a0bc 8a3d 8815 c03c 6b07 9abd a4b0 66bc
000003e0: bbfd 6f3d a6ca 50bc 56ca f4ba 87bc 68bd
000003f0: 8d85 fd39 9f96 8cbb 10dc a2bd b025 633d
-0.036562067 0.038847923 -0.02038081 -0.06792596 0.05050324 -0.035174236 0.04679962 0.037010342
-0.05894035 0.008592626 0.0019156019 0.05716964 -0.035163738 0.058026448 -0.01630595 0.012811058
0.079749346 -0.052842826 -0.05985712 0.017459212 0.07613221 0.016444346 -0.07259922 0.08117732
0.030533828 -0.058903947 -0.05866711 -0.05186721 0.019811992 0.02419257 -0.054449268 0.052592777
0.04534502 -0.028981723 0.025357204 0.03451463 0.06430229 -0.07063536 0.017997714 -0.07318638
0.07379359 -0.011520691 0.06265181 -0.044719268 -0.059186436 -0.05249238 0.04373177 0.016597852
-0.04167791 0.0073989755 -0.017433401 0.010114622 0.0672341 -0.029441016 0.019946178 0.064663865
0.05513555 0.07508982 -0.018137312 0.047441397 0.03601337 -0.060815252 0.0057383482 -0.06981957
0.0070597106 -0.06655214 -0.026985683 0.06887824 -0.049511485 0.068009645 0.07148334 0.0018721694
-0.009693704 -0.010263178 0.0729334 0.07351946 -0.055450987 -0.0461813 0.00017069915 -0.020446938
0.03703169 0.0025532248 -0.018285656 -0.060563844 -0.054984804 0.027450547 -0.05369329 0.054626916
0.019192366 0.016455539 -0.028825294 0.008584163 -0.07016566 -0.018452326 0.04038715 -0.040108822
0.08378218 -0.011086937 -0.039082903 -0.022298919 -0.03983974 0.03557289 -0.019778047 0.03921481
-0.08064753 0.03365718 0.043514974 0.030900728 -0.06457147 0.052630134 -0.0019661554 0.025871553
-0.061331306 -0.023060007 -0.053613883 -0.04044057 0.038247798 0.034086347 -0.036725212 0.0012598536
-0.06922479 -0.06555024 0.02377999 -0.0059179775 -0.032258973 -0.04708407 -0.05106695 -0.0054590036
0.086221136 -0.025962252 -0.044746123 -0.039605163 -0.05881467 -0.069880314 0.026819872 -0.027675921
-0.033577666 -0.014926463 -0.06285422 -0.00486857 0.049629673 -0.07363173 0.019348333 -0.013421296
0.07767625 0.046757314 -0.047471754 -0.019893667 -0.04011028 0.035987254 -0.071365505 0.0725229
0.040824566 0.021804499 0.018402057 -0.06327237 -0.07183686 -0.06716381 -0.03139944 -0.023696162
-0.025291203 0.041661557 0.02342781 -0.041111708 0.06622286 0.024465196 0.057762176 0.044586457
0.032463726 0.06640306 -0.031005358 -0.039854385 -0.0014005415 -0.025254073 -0.06930391 0.04965876
0.028195933 -0.051974088 0.051990747 -0.040884946 0.06422542 0.029282909 -0.07571962 0.0066591385
-0.06086542 0.019067427 -0.058645297 -0.034599274 -0.052218236 0.025729036 -0.033055 -0.04529738
-0.03665202 -0.009333418 0.07087283 -0.028450022 0.035817027 0.020351918 0.0022683535 -0.033404253
-0.004021488 0.039963853 0.051127605 0.042786274 -0.027883073 0.016341679 0.04691378 -0.079105906
0.0827002 0.04569693 -0.044690475 -0.05384958 -0.08229794 -0.07048848 0.045238927 -0.012426905
0.036021058 -0.007063411 0.01739 0.039917026 -0.05820703 0.036717888 -0.026940504 -0.07297726
0.029218914 0.014012386 -0.011302978 -0.04271298 -0.022859422 -0.0012303814 0.027435642 -0.0046863426
-0.020808663 -0.009305904 -0.01671994 -0.00663862 0.00092223 -0.02554141 -0.027701594 -0.02998486
0.025058232 0.06405338 -0.068634495 -0.055979863 0.067742586 0.023447767 -0.07520946 -0.0140802
0.058591586 -0.012743628 -0.0018676023 -0.05682042 0.00048355423 -0.0042904164 -0.0795213 0.055455863

model_1/dense_1/MatMul f4 [2, 60]
00000000: ee4c b03e 8fc0 92bd 9b60 6c3d 9a35 863e
00000010: 4745 363e 30b4 5dbe 2fe4 9cbe 54d4 6abd
00000020: 28b0 9b3d 305c 9cbe f32f 89be cac5 fd3d
00000030: 3bad 373e 671e 653d 5563 a43d 54be b33d
00000040: 14e5 9ebc 101f ec3d 8714 cb3d a006 673e
00000050: cf2d bf3d 908e 24be 6a79 833d ac0f 7e3e
00000060: 5f2c 973e 7032 c1be 97df 9f3e 5a38 983e
00000070: d84d a33e 2ec0 8f3e 9cfa b5be a0db 8ebc
00000080: 7a14 dabe ebf0 93be 99f9 90be c79a 51be
00000090: 0798 f3bd 4b5a dcb9 25fd 073e d9e2 93be
000000a0: c540 96bd e047 863e c09b 28bd 4b58 4cbd
000000b0: b634 d03e c983 b03e 8664 ccbd 129b 893d
000000c0: 256f d93d 415e a4be 4603 793e aafe ac3e
000000d0: 4af8 3fbe d436 a5bd fef4 b5bb a552 6cbe
000000e0: 7b44 033e 8444 9fbe a512 e5bc b90e 91be
000000f0: 276e 94be 4327 78bd a70a 923e 2c46 8b3d
00000100: 8e73 92be 1e2e 80bc fcc4 8f3e 2032 5fbe
00000110: ed33 2abd 85ba 003e 61d9 943e 78c9 cabc
00000120: 9ef0 663e fd87 a53e 04a0 dcbd cb8c a6be
00000130: c14c d6bc bdf4 d23d 68b0 4dbe 4f81 963e
00000140: e033 6a3e c802 8c3e 7439 8c3e b472 9f3d
00000150: cb70 823e f8a4 713e c254 71be 526d a4be
00000160: a744 96be db0e 3bbe 397b 013e 1cbf 283e
00000170: 2006 cc3e b1d2 debd 3119 cb3d fb01 0a3e
00000180: b76e 49be c555 22be f6e6 40be f923 57be
00000190: 85d9 6bbc 7467 edbd 1d77 983e 0d22 d83d
000001a0: a079 cbbe 7912 57be b912 b83e 4c3b b4be
000001b0: 5d38 18be bd9d 62be c02c 233e 0874 93bd
000001c0: c5d5 693e 4276 9ebc 35f0 49be 493d 4abe
000001d0: 39c8 4f3b 0a12 ec3d a477 8abe 9321 99be
0.34433693 -0.07165634 0.057709318 0.2621277 0.17799865 -0.21650767 -0.3064284 -0.057331398
0.076019585 -0.30539083 -0.26794395 0.12391241 0.17937176 0.055937197 0.080267586 0.087765366
-0.019396342 0.11529362 0.09916025 0.22561121 0.09334909 -0.16070008 0.06419642 0.24810666
0.2952604 -0.37733793 0.31225273 0.29730493 0.31895328 0.2807631 -0.35542762 -0.01743871
-0.42593747 -0.28894743 -0.28315428 -0.20469199 -0.11894231 -0.00042028943 0.1328016 -0.2888401
-0.073365726 0.2622671 -0.04116416 -0.04988889 0.40665215 0.34475544 -0.09980111 0.067190304
0.10616902 -0.3210316 0.24317655 0.33788043 -0.18747059 -0.08067098 -0.005552887 -0.23078401
0.12819092 -0.3110696 -0.027962992 -0.28331545 -0.2899029 -0.060584318 0.28523752 0.068004936
-0.28603786 -0.01564699 0.28079975 -0.21796465 -0.041553427 0.12571152 0.29072097 -0.02475427
0.22552726 0.32330313 -0.10772708 -0.32529292 -0.026159646 0.103005864 -0.20086825 0.2939553
0.22871351 0.27345872 0.27387583 0.0778555 0.2547668 0.23598087 -0.23567489 -0.32114655
-0.29349253 -0.18267386 0.12644662 0.16479152 0.39848423 -0.1088003 0.09916914 0.13477318
-0.1967114 -0.15853031 -0.18838105 -0.21009816 -0.014395122 -0.11591998 0.29778376 0.1055337
-0.3974123 -0.2100314 0.35951784 -0.3520149 -0.14865251 -0.22130485 0.1593504 -0.071998656
0.22835453 -0.0193435 -0.19720538 -0.19749941 0.0031705035 0.11526878 -0.27044404 -0.29908428
