firebase_ml_model.tflite (tflite, 255956 bytes, 8 tensors)

sequential/dense_1/BiasAdd/ReadVariableOp/resource f4 [2]
-0.008172002 0.008172003
00000000: dce3 05bc dde3 053c

sequential/dense/BiasAdd/ReadVariableOp/resource f4 [60]
-0.001042953 -0.0018725522 0.0039385417 -0.001107981 -3.9787563e-05 0.004380181 -0.0016817412 -0.0028522487
0.0010000884 -0.00027655353 -0.0043341652 -0.0007844818 -0.002713269 0.0012163878 0.0013623497 -0.0013973411
-0.0003189855 -0.0001755682 0.00027892747 -0.0009924781 -0.0007842428 -0.0028480324 -0.0009346328 -0.00045926715
0.00052932656 0.00088051864 0.0007330688 0.0010846574 -0.0021922488 0.0023152728 -0.0025912412 -0.001275296
-0.00050934404 -0.0002983474 -0.0027019933 0.0008702634 -0.0018578055 0.0019463156 -0.0024656882 0.0008890052
-0.0010138976 -0.0030596645 0.0004266318 0.00043535666 0.00094213383 0.0010187305 0.0013733323 -0.0025897645
-0.0006828686 0.00048812202 0.0014581963 0.0029952608 0.00378131 0.0033755274 0.0020725115 -0.0024562636
0.0012104673 0.0008713044 0.00028774043 0.0038471993
00000000: b2b3 88ba 6d70 f5ba e20e 813b ac39 91ba
00000010: 92e1 26b8 9f87 8f3b df6d dcba cbec 3abb
00000020: 6615 833a 63fe 90b9 9d05 8ebb afa5 4dba
00000030: 1ad1 31bb 346f 9f3a df90 b23a fd26 b7ba
00000040: 823d a7b9 bb18 38b9 033d 9239 0a16 82ba
00000050: a595 4dba 0ea6 3abb 2502 75ba cbc9 f0b9
00000060: 81c2 0a3a 9bd2 663a 6a2b 403a 102b 8e3a
00000070: d5ab 0fbb d5bb 173b d0d1 29bb d527 a7ba
00000080: 8085 05ba 836b 9cb9 ed13 31bb 6322 643a
00000090: 9c81 f3ba 841b ff3a 6297 21bb 210c 693a
000000a0: c2e4 84ba a784 48bb 8dad df39 9540 e439
000000b0: 88f9 763a ec86 853a 6301 b43a 0ab9 29bb
000000c0: 8902 33ba a1ea ff39 f320 bf3a 234c 443b
000000d0: dbcf 773b f437 5d3b f9d2 073b 44f9 20bb
000000e0: 8ba8 9e3a 4068 643a dedb 9639 4b21 7c3b

sequential/conv2d_1/BiasAdd/ReadVariableOp/resource f4 [16]
0.0026032806 -0.0030966208 0.0032770021 -0.0066613867 -3.1593998e-05 0.002045615 -0.013372502 0.003448377
0.0014341893 -0.009324427 0.0054664193 -0.008368555 -0.004766451 -0.002808385 0.0020310113 0.006919526
00000000: cd9b 2a3b adf0 4abb f9c2 563b c347 dabb
00000010: cc83 04b8 ba0f 063b 5718 5bbc 2afe 613b
00000020: 68fb bb3a 7bc5 18bc a61f b33b 441c 09bc
00000030: e42f 9cbb e20c 38bb b71a 053b 31bd e23b

sequential/conv2d/BiasAdd/ReadVariableOp/resource f4 [32]
0.0019762623 -0.0025837352 0.0026234176 -0.0051585957 0.0018274775 -0.0008763916 0.008062758 0.016826203
0.0051046675 0.006330413 4.532462e-05 -0.0052984115 -0.0005472519 0.003791353 -0.008346847 -0.0076112747
-0.0018954937 -0.00042185013 0.0041409587 0.00084353774 0.0010151782 -0.0015891653 -0.0028151139 -0.0009584228
-0.00010435737 -0.0029436033 -0.007836551 0.0027489506 0.004264986 -0.0038435853 -0.008070879 0.0014312384
00000000: 2e84 013b e253 29bb a5ed 2b3b 7009 a9bb
00000010: f887 ef3a a5bd 65ba a819 043c 1bd7 893c
00000020: 0e45 a73b 5a6f cf3b f11a 3e38 4c9e adbb
00000030: 7475 0fba 5978 783b 37c1 08bc 0068 f9bb
00000040: 3772 f8ba c42b ddb9 e1b0 873b dc20 5d3a
00000050: ba0f 853a 8a4b d0ba c67d 38bb aa3e 7bba
00000060: 70da dab8 78e9 40bb e164 00bc bd27 343b
00000070: 4cc1 8b3b a9e4 7bbb b83b 04bc 6498 bb3a

sequential/dense/MatMul f4 [60, 960]
-0.03461219 0.011173681 -0.0074216947 -0.0045842105 0.03976922 0.072598234 -0.002687161 0.032657318
0.044456862 0.056377366 0.024411067 -0.066430464 -0.039104696 0.053292707 -0.009001786 -0.027016241
-0.025809767 -0.035251036 -0.056351088 -0.012478096 -0.05765512 0.030263957 -0.008518651 0.032310694
-0.037899885 -0.010957265 -0.06447037 -0.028102504 -0.008336728 0.012856712 0.031354167 0.041380107
0.058452424 -0.033268433 0.013184634 -0.07179365 -0.017207503 0.07437508 -0.058621034 -0.019125164
-0.074561484 -0.036157675 0.0081635555 0.02597333 0.01858779 0.031839035 0.036937445 -0.046789207
-0.038755707 -0.07021386 -0.010161303 -0.0038264592 0.025792714 -0.0098717585 -0.01312184 0.017164651
0.007047582 -0.02314973 -0.03568261 -0.060042236 0.042435296 -0.02854549 0.034262326 -0.051952533
-0.07589095 -0.022602433 0.05344614 -0.039672 0.009341634 -0.026790328 0.033486284 0.06530215
-0.024445526 0.021803318 0.046507187 -0.060589552 -0.019013423 -0.054697007 0.0261833 -0.065092064
0.014311171 -0.037914664 0.058420315 0.06418362 0.03526181 -0.03904139 -0.059546616 -0.053731084
0.050126527 0.010804954 0.017659226 -0.023703463 -0.04207341 0.006695062 0.010346001 0.021298718
0.051294856 -0.058756173 -0.0021670999 -0.061896764 0.014377737 -0.009437464 -0.0496574 -0.002822049
0.05999854 0.04839372 0.019993404 0.03036725 -0.07310755 -0.052031584 0.05096077 0.012304783
0.011343692 0.006363103 -0.074996404 -0.018050885 0.057022702 -0.008812584 -0.035173655 0.0106727015
0.03094882 -0.073002815 -0.058154594 0.021535 0.06346811 -0.0038785054 0.020903924 0.073781826
-0.02265676 0.00296427 0.012648545 -0.03007359 -0.03962266 0.046332248 -0.030156316 0.017383456
-0.02100238 -0.072086245 -0.059447937 -0.00630367 -0.0039993003 -0.024660835 -0.031688422 -0.047404993
0.06643563 -0.07064282 -0.07434067 0.014518063 0.01977884 0.024229929 0.06636718 0.055608004
0.07062164 0.06246913 -0.03714965 0.05671925 -0.03724903 0.01327049 -0.008051564 -0.06769914
-0.024516515 -0.008932924 0.07524726 -0.04420769 -0.0136091355 -0.031436905 0.0680786 -0.024341904
0.025213284 0.015880322 -0.0482195 0.014772734 -0.03450633 -0.045896996 0.049374167 -0.06034251
-0.074835874 0.046953388 0.075186044 -0.049649306 0.036477923 -0.07174895 0.03134644 -0.046607744
0.0024201607 -0.051195137 0.053669766 0.074470825 -0.022474926 0.031167462 0.07168266 -0.032935318
-0.010523262 -0.076126315 -0.0093474565 0.051062826 -0.07110115 -0.010690197 -0.041519158 -0.052860055
0.031661354 -0.027258597 -0.023951998 -0.019735388 -0.055042103 0.029141782 0.067333065 -0.055776477
-0.028475437 -0.019867962 -0.030348767 0.06943772 -0.034750145 -0.01430222 -0.02085955 0.027851548
0.07058664 0.042216323 -0.071487285 0.031426013 0.02916813 0.01720293 -0.026128149 -0.07584317
0.019589694 0.05367823 0.06444682 -0.022931073 -0.05599829 0.018821135 -0.053950436 -0.0627687
0.0497708 0.043434553 0.03541563 0.03052996 0.03300391 0.06751929 -0.027903503 -0.069254376
0.07085467 0.013683591 -0.0031332076 -0.07042914 0.032086562 0.06865299 0.045410167 -0.03124792
-0.027516318 0.07129578 0.016315723 -0.058084413 -0.002711576 0.024729367 -0.015316909 -0.04050311
00000000: 83c5 0dbd d111 373c b031 f3bb 2537 96bb
00000010: 0de5 223d 62ae 943d 151b 30bb aec3 053d
00000020: 6618 363d f4eb 663d b8f9 c73c b20c 88bd
00000030: 3f2c 20bd 7449 5a3d 3a7c 13bc 2a51 ddbc
00000040: 016f d3bc 6463 10bd 66d0 66bd ee70 4cbc
00000050: c627 6cbd 1eec f73c d091 0bbc 3858 043d
00000060: e93c 1bbd 1a86 33bc 0b09 84bd 3937 e6bc
00000070: c696 08bc f5a4 523c 3a6d 003d 307e 293d
00000080: cf6b 6f3d 7b44 08bd 5d04 583c 8d08 93bd
00000090: c0f6 8cbc f651 983d 9c1c 70bd 60ac 9cbc
000000a0: b1b3 98bd 121a 14bd 6fc0 053c 05c6 d43c
000000b0: 6c45 983c a669 023d b84b 173d 0aa6 3fbd
000000c0: 4ebe 1ebd 49cc 8fbd 987b 26bc 55c5 7abb
000000d0: 3e4b d33c 28bd 21bc fcfc 56bc e29c 8c3c
000000e0: 67ef e63b 81a4 bdbc ee27 12bd d9ee 75bd
000000f0: a2d0 2d3d 3bd8 e9bc a756 0c3d 2ecc 54bd
00000100: b76c 9bbd bd28 b9bc 57ea 5a3d 1b7f 22bd
00000110: a70d 193c 6477 dbbc ea28 093d 22bd 853d
00000120: fc41 c8bc df9c b23c 527e 3e3d c02c 78bd
00000130: 0ac2 9bbc f809 60bd 5c7e d63c fd4e 85bd
00000140: 6779 6a3c 684c 1bbd 244a 6f3d b472 833d
00000150: b06e 103d dde9 1fbd 27e7 73bd 2015 5cbd
00000160: 7951 4d3d 4307 313c 15aa 903c c42d c2bc
00000170: 2b55 2cbd 4062 db3b 4682 293c a67a ae3c
00000180: 8e1a 523d 50aa 70bd e705 0ebb 7687 7dbd
00000190: 9a90 6b3c 989f 1abc 8f65 4bbd 20f2 38bb
000001a0: 07c1 753d 7e38 463d 35c9 a33c bdc4 f83c
000001b0: 69b9 95bd 121f 55bd 3ebc 503d 009a 493c
000001c0: e5da 393c 9481 d03b b797 99bd 73df 93bc
000001d0: a390 693d a862 10bc 4012 10bd 8edc 2e3c
000001e0: 6188 fd3c 8082 95bd 8333 6ebd 2b6a b03c
000001f0: 92fb 813d 862e 7ebb b53e ab3c ed1a 973d
00000200: ab9a b9bc 3344 423b d83b 4f3c e45c f6bc
00000210: 5f4b 22bd e2c6 3d3d 610a f7bc c067 8e3c
00000220: 2f0d acbc f4a1 93bd ae7f 73bd 048f cebb
00000230: 900c 83bb 8505 cabc b8cb 01bd bd2b 42bd
00000240: 670f 883d 2fad 90bd ec3f 98bd 2bdd 6d3c
00000250: 3c07 a23c d87d c63c 84eb 873d 38c5 633d
00000260: 14a2 903d a1df 7f3d 3b2a 18bd 7252 683d
00000270: 7092 18bd 786c 593c b5ea 03bc d9a5 8abd
00000280: dcd6 c8bc 665b 12bc 3c1b 9a3d 1f13 35bd
00000290: daf8 5ebc fcc3 00bd cb6c 8b3d ac68 c7bc
000002a0: 178c ce3c 7317 823c cf81 45bd 5609 723c
000002b0: 8256 0dbd 7dfe 3bbd 913c 4a3d b529 77bd
000002c0: 8d43 99bd 3252 403d 24fb 993d 125d 4bbd
000002d0: e069 153d 1df1 92bd 2065 003d c3e7 3ebd
000002e0: 8f9b 1e3b feb1 51bd d4d4 5b3d 2984 983d
000002f0: 561d b8bc e852 ff3c 5cce 923d 2fe7 06bd
00000300: c369 2cbc 1de8 9bbd 1326 19bc 4127 513d
00000310: 7b9d 91bd f025 2fbc fe0f 2abd c983 58bd
00000320: 56af 013d 6c4d dfbc fb36 c4bc 1cac a1bc
00000330: d473 61bd bfba ee3c ebe5 893d e075 64bd
00000340: 5245 e9bc 23c2 a2bc fa9d f8bc 5d35 8e3d
00000350: 2b56 0ebd dc53 6abc a6e1 aabc ee28 e43c
00000360: ba8f 903d 06eb 2c3d ed67 92bd 90b8 003d
00000370: 01f2 ee3c 29ed 8c3c b30a d6bc aa53 9bbd
00000380: 917a a03c b4dd 5b3d b2fc 833d f2d9 bbbc
00000390: 775e 65bd c82e 9a3c 22fb 5cbd e08c 80bd
000003a0: 77dc 4b3d 6ee8 313d fb0f 113d f719 fa3c
000003b0: 1c2f 073d 8e47 8a3d e395 e4bc 3dd5 8dbd
000003c0: 411c 913d 2431 603c 8056 4dbb 273d 90bd
000003d0: 336d 033d f099 8c3d 0300 3a3d a3fb ffbc
000003e0: e769 e1bc 8603 923d 8da8 853c ece9 6dbd
000003f0: b2b4 31bb 3e95 ca3c c6f3 7abc 97e6 25bd

sequential/dense_1/MatMul f4 [2, 60]
-0.08035303 -0.02580006 -0.18570255 0.24027443 0.21108742 -0.2834682 0.19319288 0.06564446
0.10622077 -0.24357289 0.30449668 0.027423343 0.2637157 -0.19752923 0.04021153 0.14998259
0.14210732 -0.21038191 -0.08242152 0.16298613 0.2562433 0.17718014 0.21432528 0.14340548
-0.18448497 0.006017659 -0.24242058 -0.18206081 0.2809233 0.019649405 0.07155862 0.007019641
0.117889956 -0.10625822 0.2626938 -0.2778699 0.13408785 -0.031443324 0.02710912 -0.21141027
0.11889956 0.22197182 0.25088477 0.23737656 -0.2756556 -0.004791253 0.038356926 0.18926851
0.118092746 -0.20468654 -0.15070745 -0.10035453 -0.28226414 -0.28986806 -0.11116805 0.19373316
-0.08096425 0.15598337 0.14700389 -0.19964278 -0.20730552 -0.25911507 0.3079609 0.10178208
0.20257066 0.25059864 -0.01485386 -0.28802192 0.2287311 -0.27829942 -0.22466376 -0.06680678
-0.0789457 -0.050694834 0.20748813 -0.026964026 0.10408459 -0.2334971 -0.052330155 0.03366052
0.16400859 -0.18682978 0.100536086 0.084950276 -0.114413776 0.11292006 -0.15528181 -0.05232361
0.014435963 0.30725157 -0.24976139 -0.15033719 0.05550458 -0.1423184 -0.06316392 -0.1747796
-0.0949328 0.2066063 -0.27460185 -0.10176807 -0.009223779 -0.21545315 0.30236983 0.29341665
-0.15710235 0.12043605 0.21383037 -0.12987478 0.034900922 -0.14852339 0.041431874 0.26929626
0.18325348 0.12334222 0.14385137 -0.10354562 0.06689276 0.26381347 0.18125477 0.26840118
00000000: 2190 a4bd a65a d3bc cf28 3ebe 800a 763e
00000010: 4d27 583e be22 91be 5bd4 453e 9a70 863d
00000020: 468a d93d 2c6b 79be fde6 9b3e eba6 e03c
00000030: bf05 873e 1a45 4abe d8b4 243d 0995 193e
00000040: 9584 113e 5b6e 57be 9dcc a8bd d6e5 263e
00000050: 5232 833e b66e 353e 1678 5b3e e3d8 123e
00000060: a1e9 3cbe c82f c53b 1a3d 78be 266e 3abe
00000070: 2ed5 8f3e caf7 a03c 538d 923d 0405 e63b
00000080: 4a70 f13d e99d d9bd cd7f 863e f744 8ebe
00000090: 534e 093e b7ca 00bd f213 de3c ef7b 58be
000000a0: 9d81 f33d 954c 633e f873 803e d712 733e
000000b0: bb22 8dbe f1ff 9cbb 271c 1d3d 9bcf 413e
000000c0: 9cda f13d 5999 51be 0e53 1abe ad86 cdbd
000000d0: ed84 90be 9669 94be 13ac e3bd fc61 463e
000000e0: 96d0 a5bd 1bba 1f3e 3088 163e 286f 4cbe
000000f0: e647 54be bbaa 84be 0dad 9d3e 2073 d03d
00000100: af6e 4f3e 774e 803e 9b5d 73bc 9c77 93be
00000110: 7c38 6a3e 437d 8ebe 420e 66be fed1 88bd
00000120: 48ae a1bd 63a5 4fbd c577 543e a9e3 dcbc
00000130: 4d2a d53d dd19 6fbe 2558 56bd 9ddf 093d
00000140: def1 273e 4e50 3fbe dde5 cd3d 69fa ad3d
00000150: c551 eabd a242 e73d 3202 1fbe 4851 56bd
00000160: d184 6c3c 1450 9d3e 73c1 7fbe fef1 19be
00000170: c558 633d eabb 11be 165c 81bd 6cf9 32be
00000180: 216c c2bd 9a90 533e 9d98 8cbe c76b d0bd
00000190: 551f 17bc c09f 5cbe 38d0 9a3e b53a 963e
000001a0: 70df 20be 2da7 f63d 59f6 5a3e e5fd 04be
000001b0: 45f4 0e3d 8416 18be 78b4 293d 33e1 893e
000001c0: cda6 3b3e d99a fc3d c64d 133e ba0f d4bd
000001d0: 12ff 883d 8f12 873e da9a 393e e16b 893e

sequential/conv2d/Conv2D f4 [32, 5, 5, 1]
-0.019727197 0.0674662 -0.01174497 -0.055321526 0.033042945 -0.02917631 0.055003554 -0.037986245
0.013333693 0.0046562776 -0.017817494 0.056974605 -0.075047165 0.048089202 0.04141319 0.008083448
-0.060060102 -0.06544978 0.06905462 0.06622995 -0.013733364 0.034537755 0.025781464 0.06706222
-0.036020014 -0.0074488767 -0.017193299 -0.054236986 -0.040727936 -0.04452522 0.04743477 0.0069005336
0.07754713 -0.02774935 -0.053975563 0.072767325 0.020461347 -0.037767656 -0.019186532 0.004772926
-0.031628184 -0.07806681 0.0347038 0.079403125 0.0097796675 0.053979415 -0.04697193 0.017320493
-0.041047644 -0.013916764 -0.07012295 -0.037554692 -0.02517466 -0.053710837 -0.03090281 0.015817191
0.07539889 0.0754646 -0.029005094 -0.07004535 -0.04878718 -0.025230614 0.07181062 -0.02082772
0.04085353 -0.055245277 -0.071707614 -0.05214845 0.056218594 0.0076555056 -0.024080914 -0.07196403
-0.08156397 -0.05197019 -0.0018485765 0.044697307 -0.026898462 0.040865827 0.0038568333 -0.054314855
-0.06775418 -0.0009858599 0.046663515 -0.004307875 0.004084411 -0.058719397 -0.022543123 0.059142224
0.024180539 0.013898685 0.0404321 0.036956567 -0.015524886 -0.064170465 -0.082364045 -0.04769713
-0.000909004 -0.0721819 -0.04031432 0.0073326565 -0.00017156906 0.015916387 -0.07696545 -0.08432742
0.0013541589 0.010980546 -0.0831614 -0.04771562 -0.077399686 0.010963088 -0.0629744 -0.025615098
0.05741007 -0.08284755 -0.012014951 0.007941452 -0.020263823 0.0014058751 0.07265103 0.039825853
0.012086553 0.06367624 -0.053131126 0.02917449 -0.031026997 -0.041178547 -0.02219494 -0.05799163
-0.010596421 -0.08191731 -0.063931294 -0.022347158 0.07134138 -0.04680293 0.051315784 -0.0858315
0.014025271 0.04800737 -0.053876907 0.016082346 -0.06611953 0.06652482 0.009930995 -0.046386767
-0.03309467 0.01702419 -0.02608057 0.058585208 0.07684349 0.05037836 -0.06656094 -0.0029328996
-0.07258055 0.049630407 -0.08050571 -0.05251191 0.046096474 0.04412859 0.010435398 0.06721469
0.007981529 0.008333906 0.01703708 0.084079005 -0.053367984 0.053765565 -0.020924797 -0.048931897
0.025868386 0.01855445 0.052685108 -0.08245056 0.019872516 0.02559386 0.002650108 0.039261557
0.018579002 -0.02297102 0.016175203 0.0044207503 -0.0283143 0.008911514 0.026515136 0.0025101108
0.06017685 0.04536751 0.03754671 0.028960042 -0.050196636 -0.009320538 -0.033625335 0.00013601262
-0.02617347 -0.04488964 -0.00028356045 -0.07870505 0.04329602 -0.05393774 0.029318113 0.03304898
-0.03217764 -0.07043843 -0.061393775 0.07302524 -0.004739401 -0.03677638 0.081491 -0.06889923
0.047507655 0.07343163 -0.016304627 -0.036379285 0.04444469 0.050571132 0.044930052 -0.0747515
-0.037830178 -0.08141803 0.031006351 -0.0019571842 0.079076394 -0.050712336 0.021671884 0.04731764
-0.072194256 0.017618334 -0.068107404 0.018505923 0.0439441 -0.0143125 0.06258879 -0.0032136012
-0.0076783006 -0.044992723 0.04262713 -0.0650608 -0.08581431 -0.072436586 0.061115224 -0.07805243
0.04177571 0.0757755 -0.04813398 -0.037152447 0.0037633236 -0.03774638 0.03300409 -0.046184406
0.057683658 -0.08516029 0.030749304 -0.067754075 -0.058646694 -0.07764876 0.048195362 -0.07106625
00000000: ee9a a1bc b82b 8a3d fa6d 40bc d398 62bd
00000010: 0a58 073d 2803 efbc 684b 613d 7797 1bbd
00000020: 9075 5a3c b093 983b fef5 91bc 345e 693d
00000030: 54b2 99bd 2ff9 443d e1a0 293d 7070 043c
00000040: 9501 76bd 890a 86bd 826c 8d3d 91a3 873d
00000050: e701 61bc 7677 0d3d a633 d33c eb57 893d
00000060: b989 13bd b515 f4bb f6d8 8cbc 9a27 5ebd
00000070: 56d2 26bd 1460 36bd f64a 423d df1d e23b
00000080: 08d1 9e3d 9b52 e3bc 7b15 5dbd 0907 953d
00000090: 8e9e a73c 42b2 1abd 132d 9dbc 3566 9c3b
000000a0: 8e8c 01bd 7ee1 9fbd 9225 0e3d 1b9e a23d
000000b0: e63a 203c 8519 5d3d a365 40bd b5e3 8d3c
000000c0: 9321 28bd 2403 64bc 9f9c 8fbd f3d2 19bd
000000d0: 173b cebc e5ff 5bbd e427 fdbc 0e93 813c
000000e0: bc6a 9a3d 2f8d 9a3d 179c edbc f073 8fbd
000000f0: 11d5 47bd 6fb0 cebc 7211 933d e59e aabc
00000100: 0856 273d df48 62bd 71db 92bd 9d99 55bd
00000110: 7845 663d 09db fa3b 5645 c5bc e161 93bd
00000120: 030b a7bd b2de 54bd ef4b f2ba 8614 373d
00000130: 2a5a dcbc ed62 273d edc2 7c3b 4179 5ebd
00000140: b4c2 8abd f837 81ba 3e22 3f3d 1329 8dbb
00000150: 86d6 853b c083 70bd 5bac b8bc 1e3f 723d
00000160: 4416 c63c 4fb7 633c 219c 253d c55f 173d
00000170: 175c 7ebc ce6b 83bd 7bae a8bd 115e 43bd
00000180: 3a4a 6eba 1bd4 93bd a120 25bd c846 f03b
00000190: 38e7 33b9 1563 823c 10a0 9dbd dbb3 acbd
000001a0: 087e b13a bfe7 333c 8650 aabd 7471 43bd
000001b0: ba83 9ebd 869e 333c b9f8 80bd c1d6 d1bc
000001c0: d226 6b3d faab a9bd 5bda 44bc dd1c 023c
000001d0: 5100 a6bc 5745 b83a 10ca 943d 6f20 233d
000001e0: ad06 463c b068 823d 06a0 59bd 57ff ee3c
000001f0: 542c febc d6aa 28bd 2ad2 b5bc a288 6dbd
00000200: 9c9c 2dbc 43c4 a7bd 69ee 82bd 6311 b7bc
00000210: 6e1b 923d 6eb4 3fbd 8030 523d 6dc8 afbd
00000220: 40ca 653c 60a3 443d 08ae 5cbd 20bf 833c
00000230: ad69 87bd 2a3e 883d 9db5 223c 0d00 3ebd
00000240: 478e 07bd 5076 8b3c eba6 d5bc 0bf7 6f3d
00000250: 1f60 9d3d 8a59 4e3d 1a51 88bd e435 40bb
00000260: 1da5 94bd 4149 4b3d 2de0 a4bd bb16 57bd
00000270: a8cf 3c3d 2ec0 343d 3bf9 2a3c dba7 893d
00000280: f6c4 023c ef8a 083c 5991 8b3c 9d31 ac3d
00000290: 6398 5abd 4839 5c3d 7b6a abbc d06c 48bd
000002a0: f0e9 d33c 80ff 973c 57cc 573d d7db a8bd
000002b0: b0cb a23c 37aa d13c 6fad 2d3b bad0 203d
000002c0: fe32 983c b82d bcbc dc81 843c f1db 903b
000002d0: 64f3 e7bc 9901 123c 4536 d93c ac80 243b
000002e0: 007c 763d 48d3 393d 94ca 193d 9c3d ed3c
000002f0: fd9a 4dbd 2bb5 18bc b8ba 09bd 9c9e 0e39
00000300: bf69 d6bc 33de 37bd d7aa 94b9 1d30 a1bd
00000310: 2b57 313d d2ed 5cbd 8a2c f03c 5e5e 073d
00000320: b3cc 03bd 0642 90bd 0a78 7bbd 428e 953d
00000330: fa4c 9bbb d4a2 16bd c1e4 a63d 0a1b 8dbd
00000340: 6397 423d 5363 963d 4891 85bc 7202 15bd
00000350: a30b 363d ad23 4f3d 9308 383d 5017 99bd
00000360: d1f3 1abd 7fbe a6bd 0801 fe3c 1a44 00bb
00000370: cef2 a13d bdb7 4fbd 3c89 b13c 24d0 413d
00000380: 95da 93bd 5354 903c e57b 8bbd bc99 973c
00000390: bbfe 333d fa7e 6abc 8d2e 803d 489b 52bb
000003a0: 419a fbbb 4a4a 38bd c999 2e3d 993e 85bd
000003b0: 6abf afbd a259 94bd f553 7a3d f4d9 9fbd
000003c0: 021d 2b3d 2f30 9b3d 2328 45bd 2a2d 18bd
000003d0: 18a2 763b f39b 1abd 4c2f 073d dc2b 3dbd
000003e0: b345 6c3d 8568 aebd f7e5 fb3c a6c2 8abd
000003f0: 8437 70bd 5006 9fbd 8068 453d 2f8b 91bd

sequential/conv2d_1/Conv2D f4 [16, 3, 3, 32]
-0.09726427 -0.05306422 0.10176989 0.027321557 0.023193026 -0.019028602 0.069559306 -0.06687071
0.10178197 -0.08208854 -0.070431754 -0.0036616041 0.014394778 -0.09328106 -3.6372337e-06 -0.06895861
-0.07587748 0.043501433 0.021953793 0.11677164 0.09951291 0.0340895 -0.09665113 0.025680542
0.111696206 -0.018881818 -0.0133409025 0.07072859 -0.08976527 -0.098128445 0.045810495 0.049392764
-0.088994384 0.016205583 -0.109450385 0.11094873 0.03144753 -0.013283641 -0.0007812246 0.08348429
0.08312684 -0.04297304 -0.006163922 0.09517225 0.07432212 -0.031008624 0.029477768 -0.104612246
0.041952513 -0.09490898 -0.06337049 -0.008354211 -0.031006899 0.111530975 0.11494049 -0.049485937
0.08441453 -0.015105688 0.003738049 -0.06961295 -0.042321138 -0.00029310014 0.046699002 0.0025032838
-0.08709912 -0.029649593 0.04337376 -0.037677713 0.00027059508 -0.067900285 0.05118343 0.07364917
0.09902035 0.08366201 -0.043437175 0.05859097 -0.083386466 0.034138415 -0.07332585 0.0026274777
0.005004778 -0.078785345 0.019745823 -0.09564929 -0.03761219 0.06709494 -0.107102245 -0.05594926
-0.023647234 -0.07692019 0.024259476 -0.02645121 -0.11242848 0.06590241 0.110173255 -0.04993779
-0.02136498 -0.03125306 -0.02260111 -0.0823546 0.09063141 0.11517286 0.052392256 -0.11569124
-0.10895484 -0.042565223 -0.005900091 -0.0039842227 0.038080096 0.057069864 0.021673506 0.08187952
0.027902983 -0.041976046 -0.06454128 -0.043495487 -0.05102635 0.028296534 0.094151124 0.100418605
0.066054285 0.057614088 -0.06853938 0.04003148 -0.017398274 -0.000430077 -0.11418008 -0.04756065
-0.06565037 0.036081605 0.07617022 -0.032071013 0.10850652 0.034127947 0.091162644 -0.106727526
0.077553995 -0.05311889 0.05861256 -0.098942995 0.08041725 0.009367389 -0.09987569 -0.04825982
-0.082843356 -0.030180654 0.003067747 0.0944859 -0.08083261 0.11632818 0.09119952 -0.008278372
-0.097574845 0.07722459 -0.027821127 0.09520822 0.08036645 0.02616722 0.04399028 0.05553083
0.024419839 0.05629469 -0.039299846 -0.02664837 0.1101376 0.010521118 -0.07413027 -0.0299497
0.0587115 0.06960954 0.007551353 0.11489489 -0.01182075 0.027780704 0.10900553 -0.07417345
-0.10771296 -0.07104709 -0.0017363081 0.0125356605 -0.013986093 0.11293594 0.07728328 -0.08138337
0.038376648 0.06244067 0.11399594 -0.07442397 0.098219074 0.08342861 0.087054536 0.051997844
0.078466445 -0.0667041 0.0822884 0.11160357 -0.02614294 -0.033100113 -0.09222738 0.065767854
0.09093895 0.030442532 -0.117346086 -0.10494723 0.099249765 -0.004501664 0.030131223 0.076310515
0.10624189 0.059859052 0.09540816 0.008363551 -0.038580235 0.048152413 -0.015543011 -0.00055758154
0.018909512 -0.018444557 -0.053218216 -0.049023475 -0.01073827 0.116942786 0.021612365 0.08877545
-0.100485794 0.040256593 -0.0189102 -0.0039771227 0.07942754 0.105481684 -0.0030212621 -0.013938782
0.07992731 0.0387504 -0.11142881 0.014972477 -0.04972097 -0.027265102 -0.08060584 0.05819041
0.002773534 0.028255882 0.071221 0.05925002 0.062107958 0.017252881 -0.080314286 -0.022643318
0.09914252 -0.1033322 -0.082841165 -0.05916864 0.0975703 0.033586573 -0.02346999 -0.0013603248
00000000: 7d32 c7bd de59 59bd bb6c d03d 75d1 df3c
00000010: 4dff bd3c dfe1 9bbc 1c75 8e3d 83f3 88bd
00000020: 1173 d03d 091e a8bd 863e 90bd 86f7 6fbb
00000030: 13d8 6b3c 240a bfbd 3317 74b6 2c3a 8dbd
00000040: a765 9bbd 8f2e 323d 71d8 b33c f825 ef3d
00000050: 6dcd cb3d 6ea1 0b3d 07f1 c5bd 0060 d23c
00000060: fbc0 e43d 0bae 9abc cd93 5abc 27da 903d
00000070: dbd6 b7bd 91f7 c8bd c9a3 3b3d 1150 4a3d
00000080: b042 b6bd 92c1 843c 8627 e0bd 1639 e33d
00000090: 20cf 003d a1a3 59bc 18cb 4cba d0f9 aa3d
000000a0: 683e aa3d 8004 30bd bafa c9bb abe9 c23d
000000b0: 3236 983d cc05 febc 5c7b f13c f23e d6bd
000000c0: 66d6 2b3d a45f c2bd 63c8 81bd 1ae0 08bc
000000d0: 2e02 febc 5a6a e43d eb65 eb3d c4b1 4abd
000000e0: 86e1 ac3d d97d 77bc 0efa 743b 3c91 8ebd
000000f0: ee58 2dbd 3cab 99b9 7447 3f3d 220e 243b
00000100: 0661 b2bd b4e3 f2bc afa8 313d f253 1abd
00000110: a8de 8d39 4e0f 8bbd b7a5 513d 60d5 963d
00000120: 2ecb ca3d fd56 ab3d 2eeb 31bd 16fd 6f3d
00000130: 86c6 aabd b9d4 0b3d dd2b 96bd c331 2c3b
00000140: 1fff a33b 365a a1bd fec1 a13c c6e3 c3bd
00000150: 3d0f 1abd 1269 893d 6c58 dbbd 0d2b 65bd
00000160: d8b7 c1bc 5588 9dbd cfbb c63c 35b0 d8bc
00000170: e740 e6bd d8f7 863d 84a2 e13d 918b 4cbd
00000180: 9c05 afbc 3503 00bd f725 b9bc 87a9 a8bd
00000190: f69c b93d c0df eb3d 4399 563d 87ef ecbd
000001a0: b723 dfbd df58 2ebd 8d55 c1bb 158e 82bb
000001b0: e0f9 1b3d 17c2 693d a38c b13c 73b0 a73d
000001c0: cc94 e43c 13ef 2bbd 382e 84bd 5328 32bd
000001d0: 0201 51bd 22ce e73c 4ed2 c03d 45a8 cd3d
000001e0: 7847 873d c0fc 6b3d 605e 8cbd 0df8 233d
000001f0: d386 8ebc f57b e1b9 3fd7 e9bd f5ce 42bd
00000200: b473 86bd 4eca 133d 22ff 9b3d e55c 03bd
00000210: ab38 de3d bfc9 0b3d 7bb3 ba3d f693 dabd
00000220: a1d4 9e3d 3193 59bd b913 703d a0a2 cabd
00000230: cdb1 a43d ad79 193c a08b ccbd 17ac 45bd
00000240: c7a9 a9bd 6b3d f7bc 410c 493b d381 c13d
00000250: 918b a5bd 783d ee3d d0c6 ba3d 02a2 07bc
00000260: 52d5 c7bd ed27 9e3d 22e9 e3bc 87fc c23d
00000270: 2a97 a43d a35c d63c 272f 343d 4c74 633d
00000280: 1d0c c83c 4395 663d e0f8 20bd af4d dabc
00000290: d28f e13d c460 2c3c 9cd1 97bd 1359 f5bc
000002a0: 787b 703d 728f 8e3d 5771 f73b 034e eb3d
000002b0: d2ab 41bc 5c94 e33c 4b3e df3d 40e8 97bd
000002c0: 9d98 dcbd 2381 91bd d594 e3ba 5f62 4d3c
000002d0: ed25 65bc f54a e73d b246 9e3d 53ac a6bd
000002e0: d530 1d3d cac1 7f3d b476 e93d 986b 98bd
000002f0: 1527 c93d 9edc aa3d a649 b23d b1fb 543d
00000300: 04b3 a03d 299c 88bd d286 a83d 6a90 e43d
00000310: b829 d6bc fc93 07bd b5e1 bcbd 4cb1 863d
00000320: 333e ba3d 9e62 f93c 2553 f0bd 93ee d6bd
00000330: 7643 cb3d b282 93bb c1d5 f63c b048 9c3d
00000340: 5995 d93d c42e 753d 5a65 c33d 4707 093c
00000350: 4f06 1ebd 773b 453d 1da8 7ebc aa2a 12ba
00000360: 1fe8 9a3c 0a19 97bc 58fb 59bd d7cc 48bd
00000370: 92ef 2fbc b37f ef3d 6a0c b13c e7cf b53d
00000380: 7fcb cdbd 19e4 243d 90e9 9abc 8652 82bb
00000390: e8aa a23d c806 d83d 5e00 46bb 7d5f 64bc
000003a0: eeb0 a33d bdb8 1e3d ca34 e4bd 1f4f 753c
000003b0: 37a8 4bbd 105b dfbc ad14 a5bd 1159 6e3d
000003c0: 2ec4 353b e178 e73c 51dc 913d 26b0 723d
000003d0: ea64 7e3d ea55 8d3c d17b a4bd 7b7e b9bc
000003e0: 3c0b cb3d d59f d3bd a1a8 a9bd d15a 72bd
000003f0: f0d2 c73d 1392 093d 2344 c0bc ed4c b2ba
