firebase_ml_model.tflite (tflite, 717276 bytes, 8 tensors)

model_1/conv2d/BiasAdd/ReadVariableOp f4 [32]
000000 76 d9 31 bc 14 c8 69 3c 30 03 b7 3b 12 59 4f 3b
       -0.010855069 0.014268894 0.005585097 0.0031638783
000010 6a 55 df bb ff f8 5a bc 3c 37 06 3b a8 8f 4c bc
       -0.006815602 -0.013365029 0.00204797 -0.012485422
000020 fb b9 20 3b 23 bc b9 bb 8f 27 b0 3c 6d ac d2 bb
       0.0024524915 -0.0056681796 0.021503238 -0.006429246
000030 22 2d 2f 3a a3 2c 39 bb de ac 19 bc 3a 31 ab ba
       0.00066824455 -0.0028255365 -0.009379594 -0.0013060935
000040 da ee 73 3b 17 7d 5b 3c 83 2a 04 bc df f1 99 3a
       0.0037221224 0.013396523 -0.008066776 0.0011745057
000050 fa 3e b0 3c e5 d9 80 3a 74 f1 41 bb 0c e5 5a 3c
       0.021514405 0.0009830563 -0.002959338 0.013360273
000060 c9 59 a1 3c 6f 57 a4 3c 60 c4 f7 b9 91 85 87 3c
       0.019696133 0.020061223 -0.00047257822 0.016543182
000070 aa 67 60 3c 17 67 50 bc 64 8f ea 3c bc 7c 4b 3c
       0.01369659 -0.012719891 0.028632827 0.012419876

model_1/conv2d_1/BiasAdd/ReadVariableOp f4 [16]
000000 a2 cc 26 3c ab 55 1c 3c 6c 7c 5f 3d 70 7f 94 3b
       0.010180624 0.009541909 0.054562017 0.0045317933
000010 c5 4e ca 3c 65 a4 2e 3c f8 e2 26 bb b5 65 bd 3b
       0.024695763 0.010659312 -0.0025464874 0.0057799467
000020 76 23 83 3c 66 99 63 3d b2 f4 33 3d 2b 5c d3 3c
       0.01600812 0.055566214 0.04393453 0.025800785
000030 19 94 73 bb 25 a4 4b 3c b6 b6 91 bc 03 58 6d bc
       -0.003716713 0.012429272 -0.017787319 -0.014486316

model_1/conv2d/Conv2D f4 [32, 5, 5, 1]
000000 9e be 37 bd 5b c5 9d bd 1b 6a 8f 3d 55 bb 85 bd
       -0.04485952 -0.07703658 0.0700266 -0.065298714
000010 80 a7 5f 3d 51 07 64 bc 8d f3 c3 3c 03 0f a2 3b
       0.0546031 -0.01391776 0.023919845 0.004945637
000020 26 f4 9a 3d 75 a5 79 bd 4e 0b fa bc 6b 7b 12 3c
       0.07566099 -0.060948808 -0.030522969 0.008940558
000030 42 ff 53 3d 4e a0 57 3b 46 57 d9 bc 7e 82 78 bd
       0.051757105 0.0032901946 -0.026530873 -0.060671322
000040 76 24 a0 bd 19 50 3e bc 94 3d 8b bb 08 95 7d bd
       -0.07819454 -0.011615776 -0.004249284 -0.061909705
000050 ee 7c e2 3c 21 0c 19 3d 45 ff ab 3d 5f 16 97 bd
       0.027647462 0.037365083 0.08398298 -0.07377314
000060 1d f9 d3 bc b8 bf d0 bc 90 55 88 bb ae d6 b3 bd
       -0.025875622 -0.025482044 -0.0041605905 -0.08781181
000070 db cf 85 bd 2b c6 1f 3d d9 1f 69 bc 0e 90 a7 bd
       -0.06533786 0.039007347 -0.0142287845 -0.08181773
000080 36 cb 0c bd 40 a4 6b 3d 48 4d 5c 3d f7 9d 85 3d
       -0.034373485 0.057529688 0.05378464 0.0652427
000090 b6 9b 03 bd ea 23 36 bd da 67 84 3d 04 89 0a 3d
       -0.03213092 -0.044467844 0.064651206 0.033822075
0000a0 0b 54 89 bd 47 dc 38 3d c7 23 9e 3d 43 e7 a7 bb
       -0.06705483 0.045131948 0.07721668 -0.005124004
0000b0 bd 7f 62 bd 96 c1 a8 bd d0 8d 7f bd 55 35 f8 3c
       -0.055297602 -0.082400486 -0.062391102 0.030298868
0000c0 35 8d d0 3b 84 74 6d bd 2c 0b 79 3d e8 ea ab bc
       0.0063644894 -0.057972446 0.06080167 -0.020986035
0000d0 1c 90 9a bd ba bf d1 bc dc 6a e9 bc 71 c6 c9 bc
       -0.07547018 -0.025604118 -0.028493337 -0.024630757
0000e0 6b 18 50 bd f6 b4 08 bd 73 e6 77 bd 65 7e d7 bc
       -0.050804537 -0.033375703 -0.060522508 -0.026305387
0000f0 4f 0f 1b bd 49 57 78 3d 80 ff 72 bc 8f a3 16 3d
       -0.037856396 0.060630117 -0.014831424 0.036777075
000100 99 27 8a bd 88 a1 81 3b 65 17 9b bd f3 30 26 bd
       -0.06745834 0.0039560236 -0.075728215 -0.040574025
000110 a9 04 2f 3c dd 9b 96 3c 84 70 9b 3d ea e4 c4 bc
       0.010682263 0.018384868 0.0758982 -0.024034936
000120 f1 73 e8 3c a3 b5 04 3d b7 c2 33 3d d4 b5 f5 bc
       0.028375598 0.032399785 0.043886866 -0.029993929
000130 e4 e8 a3 bd d3 7e 7c bd 3f 2d 87 3d ba 0f 24 bd
       -0.08003405 -0.061644387 0.06600427 -0.04005406
000140 6b 8c ab bd d3 ee 79 3d 1c e7 0d 3d 2a 45 5f bd
       -0.08376392 0.061018776 0.03464423 -0.05450932
000150 40 80 72 3d e0 18 99 3d a1 ec 46 bd eb d0 5b 3d
       0.05920434 0.07475448 -0.04856551 0.053666037
000160 3e 37 a9 3d d3 a5 ad 3d ec a8 ab bd ed f4 98 3d
       0.0826249 0.08478894 -0.08381829 0.07468591
000170 e6 6a 42 3c f3 32 96 3d b9 26 a9 bb 85 a8 d6 bc
       0.011866307 0.073339365 -0.005162087 -0.026203403
000180 a1 10 2f 3d d2 12 89 bb 94 ad 5d bd 45 4a 9d bc
       0.042740468 -0.0041831518 -0.054120615 -0.019200454
000190 87 e8 46 ba 37 1c d8 3c 76 fe 28 bd 5b 31 c7 3c
       -0.000758775 0.026380641 -0.041258298 0.024315527
0001a0 f6 89 2a bd 0d 71 02 3c dc 20 1e 3d f3 35 fe 3c
       -0.041635476 0.007961524 0.038605556 0.031031584
0001b0 24 3c 4f 3d cb c8 67 3c 5a 8d be bc 9d c7 ee bc
       0.050594464 0.014146994 -0.023260761 -0.029147917
0001c0 ad bf 0d 3c 5b 59 69 bd f4 49 78 bd c7 6f 9b 3d
       0.008651656 -0.05696998 -0.060617402 0.07589679
0001d0 9f 64 a2 bd 69 23 1d 3d 06 0b 9b bd 4d 88 f9 3b
       -0.07929348 0.038363848 -0.07570462 0.0076151253
0001e0 52 b4 a0 bc 54 53 34 3d eb 15 17 bd 97 9a 75 bb
       -0.019617233 0.04402478 -0.036886137 -0.0037476176
0001f0 ed 26 3b bd 5f c0 e1 3c eb bb 70 bd 0f fc 6a 3d
       -0.04569142 0.02755755 -0.058772963 0.057369288
000200 a0 64 b9 bc c3 1a 2b bd 2f 10 8d 3c 6f 4b 3c bc
       -0.02263099 -0.04177357 0.017219631 -0.011492594
000210 03 2f a9 bc 91 fe 58 3d 18 f6 40 bd 86 71 fc 3c
       -0.0206523 0.05297715 -0.047109693 0.030815851
000220 1f ab 1a 3d 7b 80 10 3d 50 de 68 bb 14 f1 e1 3c
       0.03776085 0.03527878 -0.00355329 0.027580775
000230 23 e6 28 bd c7 aa 69 3d 99 8c 89 bd 4d a6 1b bd
       -0.0412351 0.05704763 -0.0671627 -0.038000394
000240 92 10 20 3b c0 63 ad bb 7c d0 9b bd 35 f8 82 3d
       0.002442394 -0.005291432 -0.076081246 0.06394998
000250 92 df 63 3c 10 79 24 bc 68 d9 a9 3d b4 84 0f 3b
       0.013908284 -0.010038629 0.0829342 0.0021899166
000260 3d ab 93 3d 19 cb d5 3c bc e8 0f 3d 81 42 b2 3c
       0.072103955 0.026097821 0.035134062 0.021760227
000270 de 95 70 3d 0e a5 38 3d c3 f2 35 bd 87 92 b9 bc
       0.058736674 0.045079283 -0.04442097 -0.022652877
000280 44 a6 1d bd f0 c9 0a bd 30 44 cb 3c a8 bc 85 3d
       -0.03848864 -0.03388399 0.024812788 0.06530124
000290 22 5d cb bb 89 b5 ef bb b6 dd 86 3c a3 71 9d bd
       -0.0062061707 -0.007315342 0.016463142 -0.0768769
0002a0 79 a0 35 3d ea 35 83 3c 9c f8 c6 bc 38 58 e5 bc
       0.04434249 0.01601692 -0.024288468 -0.027996168
0002b0 42 58 75 3d 87 48 67 3b 54 16 8b 3d b4 00 37 bd
       0.059898622 0.0035291032 0.06791368 -0.044678405
0002c0 24 c7 1d 3d f5 6a 72 bd 2b 7b 66 3d b8 80 f9 bc
       0.038519993 -0.059184033 0.056269806 -0.030456886
0002d0 60 3f a5 3d 59 79 5a 3c 54 99 4a 3d 51 93 15 3d
       0.080687284 0.013334596 0.04946263 0.036517445
0002e0 5a 67 20 bc 73 1e b0 bd 66 cb 96 3d ca d6 20 bc
       -0.009790266 -0.08599558 0.07363014 -0.009816835
0002f0 7e 76 36 bd 3d a7 ac bd 98 8a 8e 3d 8f bb 64 3d
       -0.044546597 -0.08430336 0.069600284 0.055842932
000300 f5 98 70 bd 53 72 95 3d a5 de 9e 3d 70 3b a0 bd
       -0.05873962 0.07297196 0.0775731 -0.07823837
000310 57 bc ed bc 1b db cb 3c 31 0b 9c 3d ed 6d 82 3d
       -0.029020471 0.024884751 0.07619322 0.06368623
000320 1f 8f 47 3d 98 ca 53 3d 4e 81 0d 3d b4 05 1a bd
       0.048720475 0.05170688 0.034547143 -0.037603095
000330 ee d0 82 bc db 5c b1 3c 2e 2c a9 bd 1f 28 9f 3d
       -0.015968766 0.021650722 -0.0826038 0.07771324
000340 49 20 b4 3c b1 5d 64 bc 67 5b 11 bd 3f f4 c2 3c
       0.021988051 -0.013938353 -0.03548756 0.023798106
000350 2b a1 00 bd cb 4c 01 3c 96 56 91 3d 18 91 56 3c
       -0.0314037 0.007891844 0.07096593 0.0130961165
000360 fc 37 d4 bc 38 9d e6 bc 9a 49 d3 bc 4e 5f 16 3c
       -0.025905602 -0.02815114 -0.025791932 0.009177996
000370 cd 6a 35 3d 76 41 22 3d fa 20 04 bd a9 dd 6c 3c
       0.044291306 0.03961321 -0.03225801 0.014457145
000380 e0 90 8d bd 3a 49 7a bd 34 bd ff bc a0 60 00 bc
       -0.06912398 -0.06110499 -0.031218149 -0.007835537
000390 f5 93 09 bc a8 78 ab 3b d8 9a 37 bd e1 f9 7d 3c
       -0.008397092 0.005232889 -0.044825405 0.01550147
0003a0 26 2a 41 bd b3 c2 40 3c 2a 47 ab 3d 5c e4 14 bd
       -0.047159337 0.01176517 0.08363183 -0.036350593
0003b0 a0 87 5e 3d d5 d0 61 3d f0 ae a3 3d 6e 25 06 3c
       0.05432856 0.0551308 0.07992351 0.008187635
0003c0 ac 71 15 bd 58 6a 2e bd 5d f9 5b 3d 91 f6 a1 bc
       -0.03648536 -0.042581886 0.05370461 -0.019770892
0003d0 e7 62 28 bc 5d 60 2d bd 9a e7 3b 3d 99 83 8c bd
       -0.010277486 -0.042328227 0.04587517 -0.06861038
0003e0 35 bd 98 3c a1 69 71 3d 0a 39 96 bb dc e7 ba 3c
       0.018644908 0.058938626 -0.0045844363 0.022815637
0003f0 96 f6 2e bd 81 35 43 bc 95 e3 ae bc 40 b8 4d 3d
       -0.04271563 -0.011914612 -0.021348754 0.050224543

model_1/conv2d_1/Conv2D f4 [16, 3, 3, 32]
000000 a9 59 8d bc a4 f4 8c 3c 38 34 99 3c 71 2b 1d 3c
       -0.017254667 0.017206497 0.018701658 0.009592877
000010 a4 a7 00 3d 4d e4 0e 3c 90 fd 93 bd b7 d1 04 bd
       0.031409875 0.008721423 -0.072260976 -0.032426562
000020 66 b4 bf 3d 17 3e 47 3d 6a cc b9 3d 5e c5 af 3c
       0.0936058 0.048643198 0.09072192 0.021456417
000030 84 1e 7d 3c b3 5e 7b bd 28 04 9d bc b7 a4 81 3d
       0.01544917 -0.06136961 -0.01916702 0.06330245
000040 56 70 23 bd 79 78 94 bd f3 1d 8f bd 06 96 52 bd
       -0.039902054 -0.07249541 -0.06988134 -0.051412605
000050 6b 30 b8 bd 41 ea 88 bc d9 56 a4 bd ce 5d 2f bd
       -0.0899361 -0.016713263 -0.080243774 -0.04281407
000060 53 1d 99 3d b5 4e 2d bd 63 22 ea 3d 04 ff 88 bd
       0.07476296 -0.04231139 0.1143234 -0.06689265
000070 84 77 dc 3d 0f d7 df bd 9d a3 8a 3d d1 37 de 3d
       0.10764983 -0.10929691 0.06769488 0.1085049
000080 ae 6c 67 3d d6 c1 c3 3c c2 bd dc bd 4a 5d ae 3d
       0.05650013 0.02389614 -0.10778381 0.08513887
000090 b4 5e 4f bd 26 59 3b 3d 7a d1 cd 3d 49 34 63 3d
       -0.050627425 0.045739315 0.1004972 0.055469785
0000a0 76 9a 97 bd e9 e0 2d bd 12 62 48 3c 1f 29 e5 bd
       -0.07402508 -0.04245082 0.012230413 -0.11189484
0000b0 75 2a 4e 3d b2 86 98 3d cd df 0c 3b 15 21 5a bd
       0.05033346 0.07447566 0.00214957 -0.053254206
0000c0 f0 ae af bd 9d b6 1c 3d b6 b9 39 3d 56 76 d3 bd
       -0.085782886 0.03826009 0.045343123 -0.10325305
0000d0 68 18 25 bc c7 29 d6 3d 92 71 9b 3c 54 b7 ba 3d
       -0.01007662 0.10457187 0.018975053 0.09116998
0000e0 92 3b bb 3d 94 57 88 bd e9 b5 8b 3b 94 37 94 bd
       0.091422215 -0.06657329 0.0042636287 -0.07237163
0000f0 a1 6f ea bb 1d 74 da 3d ef 85 bb 3b 5d f1 ec 3c
       -0.0071544205 0.10666678 0.0057227532 0.028923685
000100 0d fe e3 3c 39 7f 99 3c eb 42 94 bd 5f da 68 3c
       0.027831102 0.018737422 -0.07239326 0.01421222
000110 72 ff 81 bc 06 2c 9c bc 24 5d 79 bd 23 26 d5 3d
       -0.015868876 -0.01906396 -0.06087984 0.104076646
000120 9e 8c e9 bd 47 0f ef 3d 5d 9f b7 bd 13 7f ca bc
       -0.11403774 0.11672836 -0.08965943 -0.024718797
000130 f5 ec 32 3d e1 da c4 3d cd 71 27 3d 7d 84 f3 3c
       0.04368301 0.0961206 0.040880013 0.029726261
000140 68 a8 e3 3c 4a a7 33 3d a1 2c ed 3d 54 33 a3 bd
       0.027790263 0.04386071 0.11580778 -0.079687744
000150 40 91 ec 3d 27 06 93 bd 23 33 ab 3d 93 d8 fc 3a
       0.11551142 -0.07178908 0.08359363 0.0019290618
000160 60 8d cf 3d bc b1 12 3d b1 f8 15 3d d4 8d e4 bd
       0.10134387 0.035814032 0.036614124 -0.11159864
000170 5d 48 d9 3d 02 5e 93 3d 67 45 e1 3d 84 3b e3 bd
       0.10609505 0.07195665 0.109995656 -0.11095336
000180 23 45 c8 3d 1d ab b9 3d e2 66 26 bd cb 80 54 bd
       0.09778812 0.090658404 -0.04062546 -0.05188064
000190 c5 5a e3 3d d3 b9 56 bd 78 99 70 bc a4 77 b0 3d
       0.11101297 -0.05242331 -0.014685027 0.0861657
0001a0 fc e8 7a bd ae 4f c7 3d 6e 40 df bd 6e 83 b2 bc
       -0.061257347 0.097319946 -0.10900961 -0.021791186
0001b0 da 9f 6e bd 69 1a d2 bb f8 f1 7c bd 09 d0 e9 bd
       -0.058257915 -0.0064118397 -0.061754197 -0.11416633
0001c0 40 d5 de bd 0d 0e 41 3c db 3f 8c bd f1 5a 4c bd
       -0.10880518 0.011783135 -0.06848117 -0.049891416
0001d0 f8 20 42 bd 7b 82 ed 3d 06 69 ac bd aa d2 aa bd
       -0.047394723 0.11597153 -0.08418469 -0.08340962
0001e0 ec e1 0c bd e2 dd dc 3d 56 ec 54 3d 4e c4 1f bd
       -0.034395143 0.10784508 0.0519832 -0.03900557
0001f0 84 5e be bd 75 53 e9 3b 94 05 d9 3d 31 e5 15 3d
       -0.09295371 0.0071205446 0.10596767 0.036595527
000200 26 3e 55 bc 42 53 b4 3d 5a 99 be bd 84 db 52 3d
       -0.013015306 0.08804943 -0.09306593 0.051478878
000210 a2 6c ab 3b d2 2e 50 3c da d9 a5 3c cc 5b 9f bb
       0.005231456 0.012706475 0.020245481 -0.004863238
000220 7f 19 a5 3c 18 30 0c 3d e2 9a 57 3d c7 d9 1d bd
       0.020153759 0.034225553 0.052637942 -0.038537767
000230 15 1a 7c bd 2e ff d6 bd ca 6e a7 3c a9 b4 c5 bd
       -0.06154831 -0.104978904 0.02043857 -0.09653599
000240 d3 c1 a3 ba df c9 bb bd 62 46 1d 3c 79 5a a2 bd
       -0.0012493677 -0.09169363 0.0095993 -0.079274125
000250 6e ce 28 3d d0 0c 69 bd a5 6a 97 3d 00 f3 6d 3d
       0.04121249 -0.056896985 0.07393388 0.05809307
000260 45 22 f2 3c 0d 5e 71 bd ea 81 fc bc 5f 76 aa 3d
       0.029557357 -0.058927584 -0.030823667 0.08323359
000270 c7 a3 b2 bd 4d 90 9d 3d a5 f4 c6 bc cf 98 4d 3d
       -0.08722644 0.07693539 -0.024286577 0.050194558
000280 e8 ef 6e 3d 28 c5 82 3d ce 70 16 bd 3c 60 2b bd
       0.05833426 0.06385261 -0.036728673 -0.041839823
000290 93 6c 03 3d 69 09 78 bc a4 c4 3b bd 28 0a f5 bc
       0.032085966 -0.015138962 -0.045841828 -0.02991207
0002a0 0e 8c 23 3d a1 7f ec bc 60 0a 84 bd 36 56 94 bc
       0.03992849 -0.028869452 -0.064472914 -0.018107515
0002b0 a0 3a db 3d bf e2 6b 3c f1 3b c1 bd fe a5 0b 3d
       0.10704541 0.014397322 -0.09435261 0.03409385
0002c0 45 73 dd 3d 5c 0c 74 3d e5 14 84 3d d6 8a c2 3c
       0.108130015 0.0595821 0.06449298 0.023747843
0002d0 b1 32 87 3c 8b c6 b2 3d 73 15 83 bd e9 5e ed bd
       0.016503664 0.08729275 -0.064005755 -0.11590368
0002e0 3c e8 55 3b 20 a0 06 3c fd 55 a6 3d fa a4 0a bd
       0.0032639643 0.008216888 0.0812187 -0.03384874
0002f0 52 03 95 bd 16 72 ad 3d fc 14 f5 bb 6f 2a 35 bd
       -0.07276024 0.08469026 -0.007479308 -0.04422992
000300 7e 90 5a 3d 40 87 80 3d a8 7e 9c bd f4 fc 05 bd
       0.053360455 0.06275797 -0.07641345 -0.032711938
000310 57 09 83 3d fc 83 fb bc 57 ba de 3b 8a 53 ad 3c
       0.06398266 -0.030702583 0.006797116 0.021157999
000320 e9 cb f8 bb d1 19 49 3d b4 a7 8f 3d 64 34 d9 bd
       -0.0075926674 0.049096886 0.07014409 -0.10605696
000330 81 f6 e5 3c 7e 96 ec 3d 12 8d 86 bd fc fb 9f 3d
       0.028071644 0.115521416 -0.06569876 0.07811734
000340 0b 34 cd bd 90 b9 0f bc 5b ae c1 3d e4 83 d4 3c
       -0.10019692 -0.008772269 0.09457084 0.025941797
000350 70 2a 9f 3d 15 01 b9 bd c1 62 86 3d 47 01 1a 3d
       0.07771766 -0.090334095 0.065618046 0.037598874
000360 c3 9a 9e 3d 72 f7 45 bd 7a 2d d2 3c f2 8b 44 3d
       0.07744362 -0.048331685 0.02565645 0.047985025
000370 46 46 dd 3d f7 5a ee bd 73 6c 26 bd 47 51 85 bd
       0.10804419 -0.11638444 -0.04063077 -0.06509643
000380 1c 95 e7 3d fa 8c 64 bb 72 1e a4 3d 04 fa a8 3d
       0.11307737 -0.0034874068 0.080136195 0.08250812
000390 e4 5f ab 3d df a7 42 bd 77 4b e1 3d 9e b9 a3 bd
       0.08367899 -0.047523376 0.11000722 -0.07994388
0003a0 19 07 e9 bd 11 2c 73 3d 89 a7 db 3d 77 61 bd 3d
       -0.11378307 0.059368197 0.10725314 0.092471056
0003b0 1a b5 9c 3d 62 4d e8 bd 15 97 6a 3d 1f 62 50 3d
       0.0765173 -0.113428846 0.05727299 0.050874826
0003c0 62 b3 aa bc d7 93 24 3c 98 b6 b7 bd 2f 9d 33 bd
       -0.02083749 0.010045013 -0.08970374 -0.043851074
0003d0 02 8e 11 bd fc c8 12 bd c3 3e b2 3d 18 95 39 bd
       -0.03553582 -0.035836205 0.08703377 -0.045308203
0003e0 2f 33 23 3d 6e c5 97 bd bd 64 a9 3d 36 90 40 bd
       0.039843734 -0.074107036 0.082711674 -0.04701253
0003f0 5f d1 b2 3d f4 8e b0 3d 00 71 4d 3c 5c f7 94 bd
       0.087313406 0.08621016 0.012539148 -0.072737426

model_1/dense/BiasAdd/ReadVariableOp f4 [60]
000000 39 69 11 bb ea 9a 71 bc c0 d8 c7 bb fd cd 36 3c
       -0.0022187962 -0.014746407 -0.0060988367 0.01115751
000010 e3 d3 0a 3b e9 ca 54 3c 51 f4 b6 bb 7d 11 98 bb
       0.0021183423 0.012987831 -0.005583324 -0.0046407566
000020 8c c7 32 3c ce c0 bf 37 e6 bb 18 bc d2 bd 5f bc
       0.0109118335 2.2858756e-05 -0.009322142 -0.0136560965
000030 58 79 e2 3b 65 30 8e 3b ca df 0c bb c7 da 43 bc
       0.006911438 0.004339265 -0.0021495693 -0.011954016
000040 c9 68 fb bb 03 13 85 3a d0 47 a2 3b 1a 0a 0e bc
       -0.0076724035 0.0010152761 0.0049524084 -0.008669401
000050 2b 97 dc ba d2 c3 25 3c 8e a3 71 3b 5b 8f 80 3c
       -0.001682972 0.010117488 0.0036871168 0.015693357
000060 76 9b 91 bc 88 ee cc 39 65 ef 04 3c b5 28 5d 3b
       -0.017774325 0.00039087632 0.008113717 0.0033746187
000070 c1 60 d9 bb 35 3e 41 3a b4 bc 40 bb b8 3b a0 3b
       -0.0066338484 0.00073716353 -0.002940935 0.0048899315
000080 78 62 cc 3a d7 b1 77 bc 67 3d 80 3c ab 72 b5 bb
       0.0015593311 -0.015118084 0.015654279 -0.005537351
000090 09 7b 25 3c d9 65 74 bb 3b ba 33 bc 28 b7 76 bc
       0.010100135 -0.0037292151 -0.010969694 -0.015058316
0000a0 df cf ad bb 74 cb f5 3b 10 17 bf 3b 85 cf da 39
       -0.005304321 0.00750106 0.0058316067 0.00041734814
0000b0 34 92 c1 3b b0 00 94 bc 23 6b 67 3c 05 8d a9 ba
       0.0059073213 -0.018066734 0.0141246645 -0.0012935704
0000c0 70 c8 34 bc 31 a3 5d bc f2 f4 89 3b 2f 76 53 3c
       -0.011034116 -0.013527677 0.004210108 0.012906595
0000d0 a3 b1 6b bc f5 9d 9d bb a0 6f b3 3c 2c 39 b8 3b
       -0.014385614 -0.0048100897 0.021903813 0.00562205
0000e0 d9 08 f3 bb f7 1f c5 bb e1 50 c1 3a 7a ca 6c 3c
       -0.007416826 -0.0060157734 0.0014748835 0.014452571

model_1/dense_1/BiasAdd/ReadVariableOp f4 [4]
000000 9d e3 f2 39 1f 66 c5 3c fd 40 07 3d df 9e 16 3d
       0.00046327422 0.024096547 0.033020962 0.036772605

model_1/dense/MatMul f4 [60, 2880]
000000 52 83 1c 3d c0 3d ca 3c 68 a3 92 3c 56 50 5a bc
       0.038211174 0.024687648 0.017900184 -0.013324818
000010 0a bc b7 3c b3 a7 21 3c 7a 99 43 bc a4 08 a4 3c
       0.022428531 0.009866643 -0.011938447 0.020023651
000020 52 4d 0d bd f5 81 81 bc fa 66 24 3c f2 7b db 3c
       -0.034497567 -0.015809039 0.010034317 0.0267925
000030 21 fc 83 bc ba 7b 08 bd 0e 5f 87 3b 44 c6 52 bc
       -0.016111435 -0.03332112 0.0041312044 -0.012864653
000040 52 81 bd bc 56 0c 12 bd 89 14 d9 3b da 88 08 3c
       -0.023132954 -0.035656296 0.0066247624 0.008333409
000050 93 34 97 3c b9 78 6b 3c 45 70 85 bc 49 b2 66 bc
       0.018457687 0.014372044 -0.016288886 -0.014080592
000060 ab 9b d5 3b ef 02 a8 3c 0c 96 1d 3c fd 45 b8 bc
       0.006518801 0.020509211 0.0096182935 -0.02249431
000070 ea 69 34 3d 23 61 f1 3b 33 47 c0 bc bc d4 14 3d
       0.04404632 0.007366316 -0.02347145 0.03633569
000080 8d 8c e3 3c 29 bb b4 3c db da 47 3c 21 ab 86 bc
       0.02777698 0.022061901 0.012198175 -0.016439022
000090 76 62 7d bc 06 38 1b bd 76 cc 10 3d 82 57 d4 3c
       -0.015465369 -0.037895225 0.03535124 0.025920633
0000a0 52 a3 30 bc 85 7a 23 3c e7 34 b7 3b d8 33 a1 bc
       -0.010781126 0.009977941 0.0055910232 -0.019678041
0000b0 22 4c a3 bc ad 89 ee 3c 59 e6 97 3c b6 7a cf ba
       -0.019933764 0.029118383 0.018542456 -0.0015829417
0000c0 25 d3 f4 3b 42 90 35 3d 05 7b 2e bd d3 6e 83 3b
       0.0074714595 0.044327028 -0.04259779 0.004011014
0000d0 38 18 7d 3c 5a 99 04 3d 05 2f a8 3c c8 e7 1c bd
       0.015447669 0.03237281 0.020530233 -0.03830698
0000e0 2d 2c 32 bd ba 21 aa bc 0c 0b 2b bd dc d1 cf 3c
       -0.04349916 -0.020768035 -0.041758582 0.025368623
0000f0 ad 41 a0 3c a8 ac 14 bd 89 ed a7 3c 63 0a 12 3d
       0.019562567 -0.03629747 0.020499008 0.035654437
000100 cf f8 1f 3b e3 39 d2 bc 65 51 d8 3c 9b a7 26 bd
       0.0024409776 -0.025662368 0.026406 -0.040687185
000110 c7 86 ef bc df 8e 40 3c f2 ba cb 3c a9 cf 34 bc
       -0.029239072 0.011752813 0.024869416 -0.011035838
000120 72 41 64 bc a2 bc d3 3c a0 fe 9e bc 4b e2 97 bc
       -0.013931619 0.025846783 -0.019408524 -0.018540522
000130 c0 8e 1c bd e2 43 2b bc 7c 77 d5 3a f3 e5 cb bc
       -0.038222075 -0.010453196 0.001628622 -0.024889922
000140 1a 85 d3 3b e4 97 4a bc e9 9b a8 3c 0d 93 01 3d
       0.006455076 -0.012365315 0.020582156 0.03163438
000150 31 dc c8 3c 6d d4 89 bb 20 cc 07 3d 97 bc 17 3c
       0.024519058 -0.0042062313 0.033153653 0.009261272
000160 30 e0 2d 3c 72 86 17 3d e2 7f 66 ba c6 d6 d6 bc
       0.0106125325 0.03699345 -0.000879286 -0.026225459
000170 76 cb 07 3d f0 35 4f 3c d6 fc a1 bc 1a 52 21 bd
       0.03315302 0.012647137 -0.019773882 -0.03938494
000180 1e 96 02 bd b6 1e 24 bd 0d 15 f1 3c 64 fc c1 3c
       -0.031881444 -0.04006835 0.029428983 0.02367992
000190 b9 1e 1f 3d a6 0e b5 ba fc 4a d5 3c 9c 91 f1 bc
       0.03884766 -0.001381357 0.026036732 -0.029488377
0001a0 be 6a 36 bd 57 72 1a bd dc e6 34 3d d2 e1 c7 3b
       -0.04453539 -0.0377067 0.044165477 0.006099918
0001b0 68 99 03 bd 01 1a a1 3c 7c ee 37 3d f3 fc 84 bc
       -0.03212872 0.01966572 0.04490517 -0.016233897
0001c0 0c 3b 7a bc 79 87 0a 3d 4c ef cb ba 14 9d 37 3d
       -0.015272867 0.033820603 -0.0015558987 0.044827536
0001d0 1b 81 58 3c dc e8 09 3d 78 87 13 bc bb f7 55 3c
       0.013214375 0.033669338 -0.009004466 0.013059552
0001e0 69 6b e8 3c 56 a4 00 bd 90 e3 a2 3b 9d 16 96 bc
       0.02837153 -0.031406723 0.004970975 -0.01832133
0001f0 ed 42 c3 3b 44 e3 39 3c 00 f1 e7 bc 68 60 24 3c
       0.005958906 0.011345688 -0.02831316 0.010032751
000200 c7 df fc 3c ea 52 2c bd c8 92 ba bb 80 06 c7 3c
       0.030868424 -0.04207126 -0.005693767 0.024295092
000210 74 8c 8f bc d8 66 78 bc d0 73 7a bb 39 9a 90 bc
       -0.017523028 -0.015161239 -0.0038216002 -0.017651664
000220 22 0c fb 3c 81 41 62 3c 7f 21 d0 bc c7 01 5e 3c
       0.030645434 0.013809563 -0.025406597 0.013550228
000230 3f ff 26 3b 33 b2 38 3d 40 cb f6 bb dc d1 fb 3c
       0.0025481728 0.04509182 -0.0075315535 0.030739717
000240 fe 79 0a 3b 1f f1 b8 bc cc 35 5c 3c 80 60 02 3d
       0.0021129842 -0.022575913 0.013440561 0.03183031
000250 13 77 06 bd 56 99 aa 3c 9c f6 99 3c 16 7b 0f 3d
       -0.0328284 0.02082507 0.01879435 0.035029493
000260 f4 d0 15 bc ab d4 b2 3c 10 c8 de 3c ec 2e 20 bc
       -0.009144057 0.021829924 0.027195007 -0.009776812
000270 77 fa bc 3b 1c fc c8 3c 6c 2d f1 3c d8 7c 79 3b
       0.0057671624 0.024534278 0.029440604 0.0038068797
000280 c6 ae d0 bc 24 d8 15 3d cd 1e 53 bc d0 78 db bb
       -0.025473963 0.03658308 -0.012885761 -0.0066977516
000290 cd d5 87 bc c0 f0 35 3d 43 2d 00 3d a5 e4 79 bc
       -0.01658144 0.04441905 0.031293165 -0.015252267
0002a0 de 47 81 bc 7e e3 b2 3c 5e a4 d2 bc 91 1c 3b bc
       -0.01578134 0.021836992 -0.025713142 -0.011420385
0002b0 d7 80 2b bd b6 8f 12 3d 86 0d 07 3b 8d 46 3f bc
       -0.041870918 0.035781585 0.0020607426 -0.011674535
0002c0 6e ae 22 bd 86 32 33 bd 45 60 3d 3c 98 43 d8 3c
       -0.03971713 -0.043749355 0.011558597 0.026399419
0002d0 78 30 68 3c e0 e8 07 3c e7 37 ba 3c d3 04 c9 bb
       0.014171712 0.008295268 0.022731734 -0.0061346083
0002e0 3b 98 a8 bc 37 f7 b5 bc 66 a9 23 3d fd 16 69 3c
       -0.020580402 -0.022212608 0.039956473 0.014226672
0002f0 5f 3a 5a bb da 84 72 bb fd 86 a3 bb c6 a0 fa 3a
       -0.0033298952 -0.0037005455 -0.004990457 0.00191214
000300 c6 3b 0d bd da bd 5c bb a3 f5 13 bc f0 d3 0a bc
       -0.034480833 -0.0033682496 -0.009030732 -0.008473381
000310 1e 30 84 bc c2 d4 37 bd 01 cb b4 3c 82 74 0e bd
       -0.016136225 -0.044880636 0.022069456 -0.03477908
000320 f2 a1 c7 bb d0 93 1a 3c 5a 04 84 3b 16 2a ff bc
       -0.0060923034 0.009434655 0.004028839 -0.031147998
000330 12 cc 4d 3c 87 d9 7b bb 16 e6 c5 bc 45 5f 1b 3d
       0.012560861 -0.0038429217 -0.024157565 0.037932653
000340 f5 61 e5 bb 35 b3 2e bc 9e 03 f0 bc 4e 27 00 bd
       -0.007000203 -0.0106628435 -0.0292986 -0.031287484
000350 04 1e 77 3c b5 ef 6b ba 75 82 f2 3c 20 5f 63 3c
       0.01508284 -0.00090002577 0.029603222 0.01387766
000360 d4 88 15 bd 63 23 2b bd 72 7b 57 bc df 4b 56 3c
       -0.036507443 -0.041781794 -0.01315199 0.0130796125
000370 ac b5 94 3c 19 e6 b1 bb a8 d1 e4 bc 35 ec 95 3c
       0.018153034 -0.005429041 -0.027932003 0.018301109
000380 e5 c6 b4 bc 37 ac c8 3b 84 06 e1 3c 33 48 04 bd
       -0.022067497 0.0061240452 0.027468927 -0.032295417
000390 a2 f9 59 3c ad 5a 13 3d c3 8e 2e 3d 0b 0b 0d bd
       0.013304146 0.035975147 0.042616617 -0.03443436
0003a0 84 2f ac bc a5 a6 db bc 04 f2 c1 3c 2c 76 38 bd
       -0.021018751 -0.02681286 0.023674972 -0.045034572
0003b0 17 f0 24 bd c2 82 fb 3b 65 ae d7 bc 6b db 28 bc
       -0.04026803 0.0076754997 -0.026328275 -0.01030622
0003c0 36 0a 31 3c f2 a3 bd bc 40 e4 90 ba ad 8f 43 b9
       0.010805657 -0.023149464 -0.0011054352 -0.00018650173
0003d0 a3 31 6c bc b3 68 cc bb 36 fe 8c 3b 47 8b c7 3c
       -0.014416131 -0.006238067 0.0043027652 0.024358405
0003e0 32 c8 71 3b 76 76 de 3b 79 2b 2b bd 39 41 e8 bc
       0.0036893007 0.006789024 -0.041789506 -0.028351413
0003f0 d1 a2 23 bd 48 21 a6 3c 09 fd 4c 3b ec 7c 13 bc
       -0.039950196 0.020279542 0.003127875 -0.009001952

model_1/dense_1/MatMul f4 [4, 60]
000000 a3 0b 9a 3e 10 8c 6b be 7d 28 0a 3e df ee 88 3e
       0.30087003 -0.23002648 0.13492008 0.26744744
000010 78 6b 31 bc 93 aa 9b 3e 0b 72 ba bd ab 07 50 3e
       -0.010828845 0.30403575 -0.09103783 0.20315425
000020 e1 74 9a 3e 84 de 72 3e fb ed d2 3d 81 2e 8e 3e
       0.30167297 0.23717695 0.102992974 0.27769855
000030 af a6 0e be 26 5e a7 bd 99 22 27 bd c1 b7 28 3e
       -0.13930772 -0.08172254 -0.04080448 0.16476347
000040 13 a5 3d 3e eb 95 07 3e 0f 32 9c be 88 b5 d4 bd
       0.18520002 0.13240783 -0.30506942 -0.10386187
000050 91 8b 4a 3e 58 fb 30 be 98 f2 06 3e 47 6f 63 3e
       0.19779803 -0.1728338 0.1317848 0.22210418
000060 0f 9b 76 3e de b2 6c be 54 e0 81 3e e2 f5 fb bd
       0.24082588 -0.23115107 0.2536646 -0.12302758
000070 06 3d 35 3e 7f ec 48 3e af fe 51 3e c0 38 bb bd
       0.1769906 0.19621466 0.2050731 -0.091416836
000080 db a0 25 be a1 b0 0f 3e cd dd 8c 3e 0e 40 8e 3b
       -0.16174643 0.14032222 0.2751297 0.004341132
000090 7d 81 51 3e f1 ec e6 3d 44 2c 12 be 64 a3 6b 3e
       0.20459552 0.11275662 -0.14274698 0.23011547
0000a0 e6 29 eb 3d d8 23 a6 bd 70 83 18 3e 05 5f 97 3e
       0.11482601 -0.081123054 0.1489389 0.29564682
0000b0 33 e5 bd bd 8e c8 8e be ad 3c 58 3e d8 37 94 bd
       -0.09272232 -0.27887386 0.21116896 -0.07237214
0000c0 bc cf a9 bb bc 24 34 3e 0e c3 07 3e 74 ad f2 bd
       -0.0051822346 0.17592138 0.13258001 -0.1184949
0000d0 c1 70 2c 3e 7e 0c 40 3e 7e 09 1e be 9f f9 ed bb
       0.16839887 0.18754765 -0.15433308 -0.007262423
0000e0 5e 92 74 3e 59 bd b0 bd 46 4b e0 bd 7c 01 35 be
       0.2388396 -0.08629865 -0.10951857 -0.17676347
0000f0 c5 5e 06 3e 2c 15 83 3d b5 26 a4 3d 8a a7 1f 3e
       0.13122089 0.064005226 0.08015195 0.15591255
000100 e6 e4 8e 3e 68 63 1c 3e f3 43 93 3e cf 4f 82 be
       0.2790901 0.15272295 0.2876278 -0.25451514
000110 27 85 2d 3e 43 d1 5e be 6b e4 4d be fa fb 74 be
       0.16945325 -0.21759515 -0.20106666 -0.23924246
000120 b0 d2 72 bd 7a fd d1 bd 6d 66 94 be e7 28 27 3e
       -0.05928296 -0.10253425 -0.28984395 0.16324197
000130 21 3e 28 be 9d 88 ed 3d 02 e3 24 3e cd 02 63 bd
       -0.1642995 0.115983225 0.16102222 -0.055422593
000140 e5 f7 91 be c0 6d 0e be bd 37 31 be 58 e1 09 3e
       -0.2850944 -0.13909054 -0.17306419 0.13464868
000150 dd fc 81 be 10 c3 d8 bd 19 32 34 3e 18 c2 f5 bd
       -0.25388232 -0.1058408 0.17597236 -0.11999911
000160 d9 eb 3a bd 8d 7c 5d 3e f5 3e 6d be 51 61 c3 3c
       -0.045635078 0.21629544 -0.23168547 0.023850115
000170 14 45 14 3e 64 03 35 bc 57 93 49 3e 05 ba 92 3c
       0.14479476 -0.011048172 0.19685112 0.017910967
000180 fa ac 32 be 20 26 1e be e7 d0 36 be 45 87 bf 3c
       -0.17448798 -0.15444231 -0.17853127 0.023379931
000190 98 46 93 be 64 d6 85 3e 63 44 76 3d 51 1a a6 3c
       -0.28764796 0.2614013 0.060123812 0.02027622
0001a0 be 55 81 be 0b 7a 5c be 94 89 70 3d 70 b2 1b bb
       -0.2526073 -0.2153093 0.058724955 -0.002375748
0001b0 51 e3 50 bd 46 6f ae 3d 60 74 79 be 9b 0b e8 3c
       -0.050998036 0.085173175 -0.243608 0.028325846
0001c0 11 e9 c7 bc f7 f1 77 3d ce b6 22 3e eb 88 86 3e
       -0.024403127 0.06053349 0.15890047 0.26276335
0001d0 be 8e 5f 3e 57 00 65 39 22 17 03 be dd 54 9c bd
       0.21831796 0.00021839268 -0.12801793 -0.07633374
0001e0 ac ff e0 3c d6 81 9b be d0 63 67 bc 6a 1b 7d 3e
       0.027465664 -0.30372494 -0.014122918 0.24717489
0001f0 62 69 63 3d 05 fc 26 bd b1 0c 94 be 8a 5c 9a 3b
       0.055520423 -0.04076769 -0.28915933 0.0047107385
000200 d4 c9 22 3e df 69 05 be f2 89 57 be 2d 10 ce 3c
       0.15897304 -0.13028668 -0.21048716 0.025154198
000210 61 f7 09 3e 4b c9 40 3c 51 f8 9b 3d b1 3e 7a be
       0.13473274 0.011766742 0.07615722 -0.24437977
000220 5a 86 2a bd 99 57 07 be 5a 67 13 3e 73 81 3b bc
       -0.041632034 -0.1321701 0.14394894 -0.011444437
000230 73 b7 ed bd 23 45 7e 3e e4 91 cb bd 7e 5c 4d 3e
       -0.11607256 0.24831061 -0.09939936 0.20054814
000240 de 48 61 be 7b b2 4e be a9 df 6d bd 6e 29 07 be
       -0.22000453 -0.20185272 -0.058074627 -0.13199398
000250 38 8e 90 be 43 95 bf 3d 42 99 06 3e af 80 da 3d
       -0.28233504 0.09354641 0.131444 0.10669076
000260 fa cb d6 bd 59 7d 0f be da 3a 75 3e 4a 06 2d bc
       -0.10488124 -0.1401266 0.23948231 -0.010560581
000270 cd 1d 0d 3e b8 90 3e be de 9f 83 be 41 2b 84 be
       0.137809 -0.18609893 -0.25707906 -0.2581425
000280 ae 6c 84 be a3 fb 0f 3e 52 f8 46 ba 4f d0 1f 3e
       -0.25864166 0.14060836 -0.0007590103 0.15606807
000290 cf 1b 96 3d 0b 9e 86 be b3 b7 f5 3d 76 6e 1b bd
       0.07329523 -0.26292452 0.119979285 -0.03794714
0002a0 8b 42 67 be 4c 80 33 be 6c f3 39 3e 21 2e f8 3d
       -0.22583978 -0.1752941 0.18159264 0.121181734
0002b0 6e ae 56 be 06 fa 6d be a3 ef 9b 3e 70 62 09 be
       -0.20964977 -0.23239908 0.30456266 -0.13416457
0002c0 b9 fa 70 be 68 28 51 bc 2e d4 ea bd 80 00 70 3e
       -0.23533143 -0.012765981 -0.11466251 0.2343769
0002d0 97 4f 32 be a0 b0 32 be 9d 68 5a be 9a 10 73 bc
       -0.17413174 -0.1745019 -0.2132897 -0.014835501
0002e0 3f 82 2f be bd c2 95 3e 52 24 aa bd 25 f0 10 3d
       -0.17139529 0.29250136 -0.08307709 0.03538527
0002f0 c9 e6 22 3d 04 60 83 3e 52 c4 87 3d 12 9f 83 be
       0.039770875 0.25659192 0.06629242 -0.257073
000300 e9 80 dd 3d 27 6b 32 3e 4a 85 83 3d 93 c3 5f be
       0.10815603 0.17423688 0.06421907 -0.2185195
000310 4c 23 8b bd 64 d2 91 3d e5 fd c3 bd ce ba 4e be
       -0.06793842 0.07120207 -0.09569911 -0.20188448
000320 de 00 7b 3e f0 f7 12 3e a9 de 9e 3e 8d c6 31 3e
       0.2451205 0.14352393 0.3102925 0.17360897
000330 8e e3 f9 bd 6a 84 86 3e 21 cb 1c 3e 2f 9f 95 3e
       -0.12201606 0.262729 0.15311863 0.2922301
000340 d3 27 c8 3d af a0 52 be 68 bd 49 bd 03 51 d6 3c
       0.09773221 -0.20569108 -0.049252898 0.026161676
000350 fd 7b 30 3d 63 0b 92 be 8d 2b a6 3d 07 dc 23 be
       0.043086994 -0.28524312 0.081137754 -0.16001903
000360 fc 87 87 3e 43 4b 1f 3e e7 aa 2b 3d 4b 3f 50 be
       0.26470935 0.15556054 0.041911032 -0.20336644
000370 22 31 8b 3e 4a 30 9c bd a8 d7 ec 3d 20 30 15 be
       0.27185923 -0.07626398 0.11564571 -0.1456914
000380 68 d3 86 3e ae ce 06 be c0 8f 70 3e 26 c7 89 3b
       0.26333165 -0.1316478 0.23492336 0.0042046485
000390 9c 31 88 bd a5 4b 92 be 5e 7e e7 3d 9a 35 66 3e
       -0.06650087 -0.28573337 0.113033995 0.22481385
0003a0 29 3e 4a be 53 1a 11 3d cb c1 70 3e 14 77 ed 3d
       -0.19750275 0.035425495 0.23511426 0.11594978
0003b0 14 95 10 be f7 c1 22 be e0 56 6f 3e 74 25 78 3e
       -0.14119369 -0.15894304 0.23372984 0.24233037
