firebase_ml_model.tflite (tflite, 717276 bytes, 8 tensors)

model_1/conv2d/BiasAdd/ReadVariableOp f4 [32]
00000000: a9ec 753c 34b1 543c 9f4e f739 336e a03b
00000010: 0911 9b3c c2db 053d fd6a 36bc da35 093c
00000020: d533 23bc 05d0 6f3c ceeb 3abc 587d f73b
00000030: 12bc c3ba 8128 e03a 1c6a fdbb 1856 5cbc
00000040: cae1 613c f64e db3b 8252 a6bc 6011 0abb
00000050: e1b8 8a3a ea61 533c 4c72 793c 98ba 603b
00000060: 8cac 52bc 34b9 f43a d4c1 e53b 3a9d 8b3a
00000070: c145 bfbb 0b4d dfbb 0ac7 0c3c 0af6 243c
0.015010037 0.012981702 0.00047170089 0.0048959493 0.018929021 0.03268028 -0.011133906 0.008374656
-0.009961088 0.014636998 -0.011408759 0.007552784 -0.0014933369 0.0017101915 -0.0077335965 -0.013448261
0.013786742 0.0066927625 -0.020303015 -0.0021067485 0.0010583663 0.0129017625 0.015225004 0.0034290906
-0.012858521 0.0018670917 0.0070116315 0.0010651716 -0.0058371727 -0.006814604 0.0085923765 0.010068426

model_1/conv2d_1/BiasAdd/ReadVariableOp f4 [16]
00000000: 33c1 f73c f03a 283c 311d b73c c91a adbb
00000010: 0e5e d33c ee8d a83b 4ef8 8f3a 80c4 8ebb
00000020: 89d8 d33c 62b2 033d 0214 363c 9f10 28ba
00000030: b2ab 743c 3984 e739 073a a33c f3e1 493d
0.030243492 0.010267958 0.022352787 -0.005282734 0.025801685 0.0051438725 0.0010984035 -0.0043569207
0.025860088 0.03215254 0.011113169 -0.0006411168 0.0149335135 0.00044158267 0.01992513 0.049287748

model_1/conv2d/Conv2D f4 [32, 5, 5, 1]
00000000: 902a 9cbb 3c5e 29bd 13a5 92bd c3ce f93c
00000010: e147 433d a670 ac3c 7a93 0ebd 66f3 efbc
00000020: ed10 803d 9676 e53c 03e7 c0bd 6016 ce3b
00000030: eecd 273d 6284 da3c 9c91 2d3d 1567 c3bc
00000040: 13bd f6bc e1be b4bd 7e96 c3bc a6ad 9fbd
00000050: 5f23 ff3b f8e9 3cbd 6eb4 b7bd fbdb 6bbd
00000060: 6af4 ecbc 882e a03d 8031 a53c e3f3 65bb
00000070: f26c 7a3c b330 c43c 0553 05bd 7acd 913b
00000080: 6b0d a0bd cf13 3b3d 28fc 273d 0c57 aa3d
00000090: 800e 8d3d 25a3 2f3d de0c 57bd f648 e13c
000000a0: cb2e 6b3d c7eb 2e3d 8649 093d 6649 92bd
000000b0: 8f9e 13bd e8e8 ba3c d14d a23d 0437 873d
000000c0: afc7 e7ba 9683 9d3d bea4 b03d 6b32 3ebd
000000d0: e31b 47bd bb9b 893d 6c8b 86bd 60f8 6abd
000000e0: f4c2 2c3d f60d f6bc 3cb3 493c ebc3 6f3c
000000f0: 4d29 5a3d 6af1 693d 0e3f 0dbd 08c8 58bd
00000100: cb44 6e3d 6373 2bbd f72a 3b3c 2567 1d3d
00000110: 6f61 5fbd 99d0 033d d3ed 38bd 6fca 92bd
00000120: 94ff adbd bdf5 47bd eb4e 77bd bbf1 7c3a
00000130: 58d5 483d 96d4 bcbb 5e3d 58bd 6905 d13b
00000140: 7456 833d 7077 0f3c 5dd8 8e3d 95f2 b43d
00000150: 0c4c 433b c27a 223d 90b0 b5bc 36f4 5b3d
00000160: 8f39 093c 5c07 93bd f4d1 253d cc8f be3c
00000170: 5846 a23d eb7d d4bc 7390 713d 5981 9f3c
00000180: 1fee 403d b8d0 a43d 7a04 96bd e0ea d8bc
00000190: f810 0a3d 3ada c2bc bbfa 6e3c 9cd7 e43c
000001a0: b0c5 7ebd 645f b4bd 058f 553d bc8a e6bc
000001b0: 39ce f1bb e66d 963d a011 373b 6b25 fbbc
000001c0: f788 85bd a113 823c 4f68 3c3d 77e4 77bd
000001d0: 88bd 2d3d 57db 3a3c 5f11 703c 7dd8 463d
000001e0: d25f 9cbd 91af 6cbd 3de8 b2bd 4b6f c5bc
000001f0: 36e2 98bd b710 5abc ef42 b4bd 40ef 60bc
00000200: 983d 81bc 091a 82bc d638 6ebd 287e 1dbd
00000210: c0d9 91bd 6887 863d 360d 6dbc a666 9bbd
00000220: 1ed4 4a3d 3dbf 293d be0b 983d 76b4 e43c
00000230: 726e 9b3b 3e86 80bd 74ce b1bb c8c7 c73c
00000240: d9fa 7abd 433c 20bd 317b d73c d46c febb
00000250: 17a3 a03c 8244 a3bd aef3 753d 7141 a9bd
00000260: ff2f b03c 3819 973c 991e f8bc de31 b7bc
00000270: dc1b 0bbc 9953 003d 9ba5 57bd ef9a ae3d
00000280: f264 06bd d111 d2bc cd4a 003d a36b 64bd
00000290: 9046 053d e2f2 2cbd 87dd f7bc c385 3e3d
000002a0: 350c 22bd ec78 5d3d cd3e 15bc 646e f9bc
000002b0: 9aee 04bd 9706 373c 8d98 95bd 6a0d 8e3d
000002c0: a8da 04bd 7649 bcbc 3bf9 8cbd 8cbd a5bd
000002d0: ff21 4f3b 4dd4 a9bd 6f72 4bbc 2129 f33c
000002e0: ef97 683c 56bb 8abd b2f8 4d3d ea0b 32bd
000002f0: f068 10bd 35df 703d 2bbd 5d3d a011 d0bb
00000300: f2e9 a83c 7c37 a1bd d0f4 a5bd 0749 81bd
00000310: c41c d13b febe 623d 75c1 70bd f6ef b1bc
00000320: dc58 f63c 117f 8abd 81aa 5abd fc33 ad3b
00000330: d0c8 b03d 8201 9dbd 7154 45bd fba3 6f3d
00000340: 4cc3 6c3c c7da 73bd 9d8a 40bc 70f7 733c
00000350: 9ad9 913d b6e6 68bd f7f9 f0bc e259 893d
00000360: 3d95 d6bb bf42 593c f17c 41bd 6a6b f83b
00000370: 3d76 fe3c 6592 813d 79d9 0fbd 1f60 e2bc
00000380: 103d 683d 060f 153d 3344 93bd 9a3e 573c
00000390: 3bc7 2c3d 74a4 26bd d47d 32bd e355 073d
000003a0: 27ea bd3c c91f ae3d 457a 723d 9f73 fcbc
000003b0: 0022 493d 2507 083d e7f8 063d 1e54 9a3c
000003c0: f971 fa3c a71c 86bd a4a0 d3bc 5631 7dbc
000003d0: 5b63 ae3d 02f7 99bd 3940 a2bc 335f 353d
000003e0: 363b b23d 2aab 5ebd 28ea 8c3d 472f 36bc
000003f0: 6d35 9fbd 2aaa 9b3d f919 52bd 7615 70bd
-0.004765816 -0.041349635 -0.07160392 0.0304941 0.04767597 0.021049809 -0.034808613 -0.029290866
0.06253228 0.028010648 -0.09419062 0.0062892884 0.040967874 0.026674453 0.042375192 -0.023852864
-0.030119454 -0.0882547 -0.023875471 -0.07796793 0.007786199 -0.046121567 -0.08969961 -0.057582837
-0.02892514 0.07821375 0.020165205 -0.0035087995 0.015284764 0.023949003 -0.032549877 0.0044495435
-0.07815059 0.045673188 0.04101196 0.08317384 0.06887531 0.042880196 -0.052502505 0.02750061
0.057417672 0.042705324 0.033517383 -0.07142906 -0.036039885 0.022816136 0.079249986 0.0660229
-0.0017683412 0.07691114 0.08625172 -0.0464348 -0.04861058 0.06719156 -0.06569561 -0.057365775
0.04217811 -0.030035954 0.012310799 0.014634113 0.053262044 0.057114996 -0.03448396 -0.05292514
0.058171075 -0.04185809 0.011423818 0.038428444 -0.05453628 0.032181356 -0.04514868 -0.071675174
-0.08496013 -0.04881834 -0.060377996 0.0009649058 0.049031585 -0.005762647 -0.0527929 0.006378819
0.06412974 0.008756503 0.06974862 0.08835331 0.0029799966 0.039667852 -0.022178918 0.053699695
0.008375539 -0.07179138 0.04048343 0.023261927 0.07923573 -0.025938949 0.058975648 0.019470857
0.04710209 0.080476224 -0.073250726 -0.026479185 0.03370759 -0.0237857 0.014586146 0.027934842
-0.06220025 -0.08807257 0.052138347 -0.028142326 -0.00737932 0.0734518 0.002793409 -0.03065749
-0.065202646 0.0158785 0.045997914 -0.060520615 0.04241708 0.011404834 0.014652579 0.048546303
-0.07635464 -0.05778462 -0.08735702 -0.02410092 -0.07465021 -0.013309649 -0.08801829 -0.013728917
-0.01577644 -0.015881555 -0.05815967 -0.03845039 -0.07121611 0.065687954 -0.014468482 -0.07587938
0.049518697 0.041442145 0.07424115 0.027918082 0.0047433907 -0.06275605 -0.0054262225 0.024387255
-0.061274383 -0.03911997 0.02630386 -0.007764438 0.019609017 -0.07972051 0.060046844 -0.08264435
0.021507261 0.018444642 -0.030288028 -0.022362646 -0.008490529 0.031329725 -0.052648168 0.08525645
-0.032811113 -0.025643261 0.031321336 -0.055766713 0.032537997 -0.04222382 -0.030257 0.046514284
-0.039562423 0.0540704 -0.009109211 -0.030448146 -0.03245411 0.011171005 -0.073044874 0.06936152
-0.03243509 -0.022984248 -0.068834744 -0.08092794 0.0031605957 -0.08292446 -0.01241742 0.029682698
0.01419638 -0.06774013 0.050286002 -0.043468393 -0.035256326 0.058806617 0.054135483 -0.0063497573
0.020619366 -0.07871911 -0.08103335 -0.06312757 0.006381603 0.055357926 -0.058778245 -0.021720868
0.030071668 -0.06762517 -0.05338526 0.005285738 0.08632052 -0.07666303 -0.048176233 0.058505993
0.014450859 -0.059534814 -0.011751798 0.014890537 0.07121582 -0.056860648 -0.029416068 0.06706597
-0.0065485523 0.013260542 -0.047238294 0.007581164 0.03106224 0.06326751 -0.035119507 -0.027633725
0.05669886 0.03639128 -0.07190742 0.013137484 0.04218219 -0.04068418 -0.04357703 0.033040892
0.023182942 0.08502156 0.059198637 -0.030816851 0.04910469 0.03320994 0.032952216 0.018838938
0.030571925 -0.06548434 -0.025833435 -0.015453657 0.08515044 -0.07517816 -0.019806014 0.044280242
0.087027 -0.054362454 0.06880599 -0.01111967 -0.07773862 0.076008156 -0.0512943 -0.058614217

model_1/conv2d_1/Conv2D f4 [16, 3, 3, 32]
00000000: 316d a53c 4037 ee3d 79ff 80bd f3e3 b7bd
00000010: 4cb3 b1bd bae0 b9bd c59d d1bc bed8 06bd
00000020: 9520 a03d 60cd ca3c 9cc3 94bd 34ac abbd
00000030: d2d1 ba3b 60bd dc3d dd94 58ba 3aaa 993d
00000040: 79c9 9f3d 7f89 ecbd 5b14 d63c 5a5a a03d
00000050: 0b8c a0bc 89a3 193d 859b 963d be37 373c
00000060: 2a07 bcbc 2877 0a3d 6541 4c3d dabb 57bb
00000070: 9d00 9f3d 2b01 b63d 961e 603d f67b 96bd
00000080: c568 65bc 84ba 80bd d846 bd3d b89a 823d
00000090: 2331 0a3d e699 ddbd 8d7b 92bc 1f62 3abc
000000a0: c339 393d 80b2 f93c dc84 c0bd 536c e83d
000000b0: 7c5d c13c c096 a9bd 95d5 d6b9 0885 a6bd
000000c0: 7e2b b6bd 7141 8ebc 1e9b 113d 27db e0bd
000000d0: b5a2 75bd b3f4 b8bd 95b9 ab3d 797d 24bd
000000e0: 96c3 d2bd 1bd3 b23c c779 2b3d 5c67 a4bd
000000f0: f664 d43d 1ba0 dabd 8376 2a3d 6dfe edbd
00000100: 6327 fe3c 9f35 e13d 24e4 01bc 9336 cdbd
00000110: e9ab 88bd b912 d4bc 534e 823d 8f7a dc3b
00000120: d2e1 2fbd eae7 5b3d 25bb b13d 33f2 c3bd
00000130: 1278 b4bc ed04 c73d 8a47 f1bc a188 7b3d
00000140: ddcc 7e3d 8a1a 17bd e1d3 583d 9119 51bd
00000150: f29c a93b 758a 8a3a d81d ec3d 2373 5f3d
00000160: fea3 1b3d 6b75 afbd 44c7 c63d 625f 843d
00000170: a7f6 1abd a71d 21bd c8e5 c83d f33f ffbc
00000180: 9aaa d8bd 4bf4 52bc 7aec c83d 4b8d 303d
00000190: 0e3f 82bd c9d8 bc3d 42a8 e93d bc6f d93d
000001a0: 8f00 723d b70b da3d 7dd5 2ebd 3365 793c
000001b0: 3472 8b3d fe6e 74bd 7a2c 933c 91e2 6cbd
000001c0: bd5f c8bc e250 0bbd a26e 94bd 5add 9a3b
000001d0: 1157 3dbd 47d8 dfba 5cdb 783c 680a 33bd
000001e0: 13ad 92bd c971 303d 0f20 1cbd 9a22 a93c
000001f0: 1ee4 a4bd 9741 ba3d 75f9 8e3d ced7 3bbd
00000200: cc3c e4bb 9ecf b63d e2df 44bc da63 f33d
00000210: 7fc0 22bd d437 bdbc e3ca d7bd 3bda 5dbd
00000220: fd1f dfbd d543 ac3d 0ff4 ee3d be1c 713d
00000230: 899c bc3d bdf5 d0bd 034d d3bc 8d2d 86bd
00000240: 2360 d3bd 33fa 6dbc 0da9 823d faac b5bd
00000250: 7431 61bd 820f a0bd d8aa 763d 9dda cbbd
00000260: f85a aabd 15b3 c63d 5413 233d d8c1 c9bd
00000270: 2355 963d 86ad 813d 0f91 b53d 948c aa3d
00000280: 334b 333d e2af e43d 4d26 ba3d a8fe f13d
00000290: 6e5a 9d39 a3f4 10bd 3c1c cdbd c995 7ebd
000002a0: 1abd febc 6473 ed3d 4987 d7bd 61e7 203a
000002b0: 09c2 0b3d 42e7 ad3d dffc 97bc 031e 233b
000002c0: dc9b 6cbd d15c bcbd 6aa2 ed3d 33b6 ca3d
000002d0: ecf7 6b3c ab60 41bd 32d9 f03d 0353 e8bd
000002e0: 7925 d2bd 056b 6d3b e956 d4bd 2a08 883d
000002f0: 9421 cb3d de02 a7bd 79bf a23c 7b0c c8bc
00000300: db5c 0d3d 6895 c3bd f2fa ccbd 997f 98bd
00000310: 3608 93bc 924c e43d 883f 91bd 5ce1 2b3d
00000320: eb16 c8bd 0cc8 ca3d d355 55bc ad5b 183c
00000330: eb7c bfbd 0a18 b73c 62e6 dabd 0a96 69bd
00000340: bc75 dfbc dda7 d7bc 5df2 9c3d 7db2 d53d
00000350: 8eb8 a0bd 6562 00bd f28b 283c 4c25 c1bc
00000360: d9f8 69bd 3b9d 97bd 862f 44bd fc43 a83d
00000370: e427 183d 3f25 b8bd 018c b93c d90f be3c
00000380: 2276 06bd 614a 533d 22df 5e3d e1e7 d43d
00000390: 5726 d9bd 8710 dd3d d8c3 2d3d 94b3 633d
000003a0: 12d5 a8bd 29c8 a4bd 8556 0ebd e6fe cdbd
000003b0: c415 b93d ba4a b5bd f343 a839 e68b 023d
000003c0: 3175 fe3b e2ad 53bc 1211 dbbd 02a1 fb3c
000003d0: 55c7 cbbd 0286 943d c7a2 c9bd 4cb4 db3d
000003e0: 57bf a03b 4b04 cbbb 0371 dcbd 09fe aa3d
000003f0: f2a2 5dbd f8dd bb3d 7bb2 863d b7ba 1dbd
0.020193668 0.11631632 -0.062987275 -0.08979025 -0.08676776 -0.09076066 -0.025587926 -0.032921545
0.078187145 0.024756134 -0.07263872 -0.083824545 0.005701282 0.10778308 -0.00082619285 0.07503171
0.078021 -0.11549663 0.026132753 0.07829733 -0.019598028 0.037509475 0.07353882 0.011182724
-0.022952635 0.033805043 0.049867053 -0.0032918365 0.07763789 0.088869415 0.05471667 -0.073478624
-0.01400203 -0.06285575 0.09242028 0.063771665 0.033738267 -0.108203694 -0.01788118 -0.011375933
0.0452211 0.030480623 -0.09400341 0.11348786 0.023604147 -0.082807064 -0.00040976392 -0.081308424
-0.08895014 -0.01736519 0.035548322 -0.109793 -0.059969623 -0.09031048 0.08385006 -0.040158723
-0.10291211 0.021829179 0.041864183 -0.08027527 0.10370819 -0.10675069 0.041616928 -0.116207935
0.03102464 0.109965555 -0.007927928 -0.10020175 -0.06673414 -0.025887834 0.063625954 0.0067284773
-0.04293997 0.053687967 0.08678273 -0.0956768 -0.02202991 0.097177364 -0.029453058 0.061409596
0.06220709 -0.036890544 0.05293644 -0.051049773 0.00517618 0.0010569828 0.1152913 0.054553162
0.037998192 -0.085673176 0.09705976 0.06463505 -0.037832882 -0.03933492 0.09809452 -0.031158423
-0.10579415 -0.012875627 0.09810729 0.043103497 -0.06359683 0.09221036 0.11409046 0.10617015
0.059082564 0.10646766 -0.042684067 0.015221882 0.06808892 -0.059676163 0.017965544 -0.057833258
-0.024459714 -0.034012683 -0.07247664 0.004726094 -0.04622561 -0.0017078005 0.015189018 -0.043711096
-0.071619175 0.043077264 -0.03811651 0.020646382 -0.080513224 0.090945415 0.06981174 -0.045860104
-0.0069652554 0.089263186 -0.012016268 0.118842795 -0.03973436 -0.02309791 -0.105367444 -0.0541632
-0.10894773 0.084113754 0.11667644 0.0588653 0.09209544 -0.10203121 -0.025793558 -0.06551657
-0.10321071 -0.014524984 0.063799 -0.08870883 -0.054978803 -0.07815458 0.060221523 -0.099538065
-0.08318132 0.09702126 0.039813355 -0.09851426 0.07340457 0.06331925 0.08865558 0.083275944
0.043772887 0.111663595 0.090893365 0.1181615 0.0003001275 -0.035389554 -0.10015151 -0.062154565
-0.03109603 0.11594275 -0.105238505 0.0006137994 0.034120593 0.084913746 -0.018553196 0.0024889715
-0.057765827 -0.09197391 0.11603244 0.09898033 0.014402371 -0.04721133 0.11760177 -0.11343958
-0.102610536 0.0036227119 -0.10368139 0.06642182 0.09918514 -0.08154844 0.019866692 -0.024420014
0.034512382 -0.09549981 -0.100088015 -0.07446212 -0.017948251 0.11147417 -0.07092196 0.041962966
-0.09769996 0.09901437 -0.01302095 0.009299201 -0.09349998 0.02235033 -0.10688473 -0.057027854
-0.02727782 -0.02632516 0.076634146 0.104344346 -0.07847701 -0.031343836 0.010287272 -0.023577355
-0.057122085 -0.07403036 -0.047896884 0.08216092 0.037147418 -0.08991479 0.022649767 0.023200916
-0.032827504 0.051584605 0.054412015 0.1039579 -0.10603016 0.10794168 0.0424231 0.05559118
-0.08243765 -0.0804599 -0.03475048 -0.10058384 0.090373546 -0.088521436 0.00032094083 0.0318717
0.007765435 -0.012919875 -0.10696615 0.030716423 -0.09950129 0.072521225 -0.098455004 0.10727748
0.004905622 -0.00619558 -0.10763743 0.083492346 -0.054110475 0.091731966 0.06577011 -0.038508143

model_1/dense/BiasAdd/ReadVariableOp f4 [60]
00000000: dfeb 0ebc ecd1 9e3b a08d f7bb ee02 8f38
00000010: a9c5 3c3b 383a 923c b04c 06bc 042c 373c
00000020: baa1 163c 50ab 013c f585 2239 547c a0bb
00000030: 918b 0b3b c255 c5b9 5a1b 76bb 2a7f 73bc
00000040: f08f d43a 3d12 323c c451 913b 01f4 82bb
00000050: fc67 403c e859 25bc 8e52 e23b 97cc 4abc
00000060: 0ef1 07bc c83d 2b3b f3f1 7c3b 4c61 c13b
00000070: ee1c 83b9 da2f cabb 5bbb 473c bb0c 69bc
00000080: cd28 7f39 1cd5 743c 5e91 86bb 3fbc 80ba
00000090: 9d76 fbbb ae95 20bb 40ee 17bb e987 81ba
000000a0: 9407 f53b 0c26 133c 5a7c 83bc 6f14 1abc
000000b0: efc5 1abc 38d7 d0bb 048e 04bc 61ec 013c
000000c0: dd4d 95bb f1c4 9cbb 81da e53b c0c1 a9bb
000000d0: 0bf0 a6b9 a748 35bc b469 5fbb 3f35 963b
000000e0: 9162 613b a6e7 27bc 269f 013c 8a23 d4b9
-0.008723228 0.004846802 -0.007554725 6.819317e-05 0.0028804338 0.017850026 -0.008196995 0.011179928
0.009193832 0.007914379 0.00015499427 -0.0048976336 0.0021292905 -0.00037638663 -0.0037552924 -0.014861861
0.0016217213 0.010868606 0.004434796 -0.0039963727 0.011743542 -0.010092236 0.006906814 -0.01237788
-0.008297218 0.0026129354 0.0038596361 0.0059014913 -0.0002500782 -0.006170255 0.012190665 -0.014224227
0.00024333895 0.014943387 -0.0041066846 -0.0009821727 -0.007674052 -0.0024503279 -0.002318278 -0.0009882423
0.00747771 0.008981239 -0.016050506 -0.009404286 -0.009446605 -0.0063733123 -0.0080905 0.007929892
-0.004556401 -0.0047842194 0.007014573 -0.0051805675 -0.00031840833 -0.011064685 -0.0034090104 0.004583984
0.0034391026 -0.0102481 0.007911479 -0.0004046227

model_1/dense_1/BiasAdd/ReadVariableOp f4 [4]
00000000: aac7 8d3b 70a2 0f3c 8bd3 113d 2fcc ee3c
0.0043267803 0.008766755 0.035602134 0.029150097

model_1/dense/MatMul f4 [60, 2880]
00000000: 12d5 d93a e73d b5bc 331f e4bc 97f1 10bd
00000010: f3d5 0bbd 2c30 ebbc 0d35 2cbd 1898 d43c
00000020: 5341 b83c 2f28 70bc dd6f f7bc ba74 ce3c
00000030: 3986 e43a f4a0 a33c 04e1 6b3c 5fc3 0e3d
00000040: 6bdc dbbc 57b2 17bc 39e3 e3bc f448 80bb
00000050: afc0 0d3d 3262 113d 4bcd 693c 4ba5 bf3c
00000060: 5bc8 02bc 8217 913c 05af 503c 824c 7e3c
00000070: 9925 81bc b11f cebc eee1 00bc 504e ef3c
00000080: e35a a13a ad7a c93c 5afe 5fbc 04da 32ba
00000090: 1f36 0dbd 8551 eabc 3c9b 343d aec6 123c
000000a0: aed0 043d b87f 30bd f250 7c3c d61f 68ba
000000b0: ab09 a0bb bafa 18bd 03e1 d43c 49b9 4e3b
000000c0: e04f 00bb 099a ec3b 7b17 01bd c137 913c
000000d0: 6ed1 c3bc 903a 1c3c 3b84 993c 4ddd 37b8
000000e0: 5911 fabc 1373 debc ed2a e93c 0fa5 083d
000000f0: ac34 803c ca9b 47bb 747a 0d3d 9276 923b
00000100: bdd0 a53c 78b2 9abc 519d 23bd 3f74 893b
00000110: 3111 f93b 1807 7cbc a2bc 31bd 8a21 19bc
00000120: 7e47 c33c 6ee4 25bd 74fb 2dbd e226 38bb
00000130: a378 8bbc f2e3 753c 34b8 1d3d 3720 f2bb
00000140: 4150 313d 5c38 123d 26cf 073d 36c5 913c
00000150: 1673 83bc 558f a7bc 24a2 6c3c 631a b33c
00000160: c84c c83c a29f 9f3b 70d5 713c d502 85ba
00000170: 7f9c 2d3c 289c 08bd 7c1c 84bc c58f be3c
00000180: 154e 8bbc a6c4 6ebc de8f c8bc f0bf 1f3d
00000190: 1fbe c0bc 07f8 883c e4d7 9b3c 0917 153d
000001a0: 37cc 31bc 1b14 383c e409 4439 1b69 98bc
000001b0: cf32 243d cd74 27bc 7794 d03b 1bd9 263c
000001c0: f21e 84bc 71fd 84bb 00f7 0cba 3ff5 67bb
000001d0: 1149 2dbd 5601 a4bc a7fc 9d3c 4619 f73c
000001e0: 7184 83bc 4241 23bd 3578 46bc 84ac f9bc
000001f0: 47bb bd3b 673a 0fbd f9e1 e73c 2fef 02bd
00000200: 424b 33bd 2a9b 57bc 15dc 0dbc 0d5b 39bd
00000210: 2441 97bc e825 fe3c ea56 9abc dce1 8e3b
00000220: 0263 f5bc a20c 023d 96cf 19bc 442d 2b3c
00000230: fe6e 963c b618 18bd b80a 873b 89bc 8e3c
00000240: 6d67 13bd 93e4 7dbc 7c9f bfbc 3305 c7bb
00000250: 1fc8 9ebc 35c6 d6bc 3bda 8abb 25db dabb
00000260: a459 e43c d83d a4ba 153c e2bc 7179 a5bc
00000270: eda3 ecbc 6eb7 363c 86e1 ac3c 244a 303b
00000280: 806d e1bb 387d 273d 6c1b 03bd fadb 31bd
00000290: 0c17 35bd f07b 463c 3ed5 9abc abf2 35bd
000002a0: cc7d 713c 8d05 4b3c 1acc cdba 1696 103d
000002b0: b22f 063c 04c8 12bd e0f1 7ebc 4a6b f03c
000002c0: 567e cfbc ee86 823c 1847 e1bb 94d6 86bc
000002d0: e443 07bd 4066 153d ea97 34bd f3ff a93b
000002e0: 3b83 973c cec0 803c 6533 333c e0b2 bfba
000002f0: 3aa7 7cbc 6882 7c3c 50ef 38bd 1628 c43c
00000300: 984d 39bc fced f43b d746 063c cf39 0c3d
00000310: b177 29bd cc95 eb3c 249e 353d 9482 49bc
00000320: 52dd 323d 004e 3cbc cf2b fabc a5f9 cabc
00000330: 072a 0b3d 222d b4bc 59c4 413c c851 05bd
00000340: f233 373c f187 e73c a75d ba3c 9a96 37bd
00000350: d784 143c 83cb 163c 4ebc 2b3d 074a 26bd
00000360: 1959 2fbb ea6f 383d 146e 43bb 9331 a03c
00000370: 26a3 593c cde6 bf3c 66a6 22bd 1774 4bbc
00000380: 81ef 2d3d 1d47 acbb 67a9 123d f9c4 b6b9
00000390: 45fb a43c dec5 bc3c 83ec f9bc 5759 433c
000003a0: 79af 8dbc 1d3c 33bc 20be 813c 9ff5 133d
000003b0: 93a1 84bc a802 03bd 722b 7b3c 2c5a f9bc
000003c0: d33c dfbc 356b 2fbd 40ea 3d3c 0d50 3c3b
000003d0: 3d22 fb3c a96e 32bd d4ab 143d 0b15 383c
000003e0: d2a6 61bc 3148 243d 4fcb 08bb 4036 e53c
000003f0: ec18 cebc 7476 2ebd 24d8 333c 8313 f03c
0.0016619286 -0.022124244 -0.027846908 -0.035386648 -0.034139585 -0.028709494 -0.04204278 0.02595143
0.022492087 -0.014658018 -0.030204708 0.025202144 0.0017435021 0.01997421 0.01439691 0.03485429
-0.026838502 -0.009258828 -0.02781831 -0.0039149467 0.034607586 0.035494037 0.014270137 0.023394248
-0.007982339 0.017711405 0.01273704 0.015521171 -0.015764998 -0.025161596 -0.007866366 0.029212147
0.0012310412 0.02459463 -0.013671482 -0.0006822648 -0.034475442 -0.028603325 0.044093356 0.008958502
0.032425575 -0.043090552 0.015400158 -0.00088548416 -0.004883965 -0.037348486 0.0259862 0.0031543544
-0.001957886 0.007220511 -0.031516533 0.01772678 -0.023903575 0.009535447 0.01873981 -4.3836702e-05
-0.03052585 -0.027154481 0.028462851 0.033360537 0.015650116 -0.0030457848 0.03454061 0.004469701
0.020241136 -0.018883929 -0.03994495 0.004194766 0.0076009263 -0.015382551 -0.043392785 -0.009346375
0.023837801 -0.04050105 -0.042476133 -0.0028099348 -0.017025298 0.01500796 0.038505748 -0.007389094
0.043289427 0.03569828 0.033156537 0.017794233 -0.016046088 -0.020454088 0.014442954 0.021863168
0.024450675 0.0048713246 0.01476036 -0.0010147939 0.010596394 -0.033352047 -0.016126864 0.023261914
-0.017005006 -0.014573252 -0.024482664 0.039001405 -0.023528157 0.016719831 0.019023843 0.03639892
-0.010851911 0.011235262 0.00018695701 -0.018604806 0.040087517 -0.010220719 0.0063653546 0.010183598
-0.016128037 -0.004058533 -0.0005377382 -0.003539398 -0.04230601 -0.020020168 0.019285513 0.030163419
-0.016054364 -0.039857157 -0.0121136205 -0.03047777 0.0057901475 -0.034967806 0.028305994 -0.031966385
-0.043772943 -0.013159553 -0.008658429 -0.04525285 -0.018463679 0.031023934 -0.018840272 0.0043604206
-0.029954437 0.03175033 -0.009387871 0.010447804 0.018363472 -0.03713294 0.004121151 0.017423885
-0.035987306 -0.015496391 -0.023391478 -0.006073618 -0.019382535 -0.02621756 -0.004237441 -0.006678956
0.027874775 -0.0012530638 -0.02761654 -0.02019951 -0.02888676 0.0111521315 0.021103632 0.002689966
-0.0068795085 0.040890902 -0.032008573 -0.043422677 -0.044211432 0.01211451 -0.01890051 -0.04442088
0.014739465 0.01239146 -0.0015701086 0.035299383 0.008190082 -0.03583528 -0.015560597 0.029348034
-0.025328796 0.01593348 -0.00687493 -0.01645974 -0.03302373 0.036474466 -0.04409019 0.005187982
0.018495193 0.015716936 0.010937546 -0.0014625452 -0.015420729 0.015411951 -0.0451501 0.023944896
-0.011310004 0.007474659 0.0081956005 0.034234818 -0.041373912 0.028757952 0.044340268 -0.012299199
0.0436681 -0.011493206 -0.030538468 -0.024777243 0.033975627 -0.021994177 0.011826598 -0.032548696
0.011181818 0.028263064 0.022749735 -0.04482136 0.009064875 0.009203794 0.04192763 -0.04059794
-0.0026755987 0.045028605 -0.002982025 0.019554889 0.0132835265 0.023425484 -0.03970947 -0.012417815
0.042464737 -0.005257501 0.035806086 -0.000348605 0.020139346 0.02304357 -0.030508285 0.011923156
-0.017295586 -0.010939625 0.015837729 0.036122914 -0.016190326 -0.031984955 0.015330182 -0.030438505
-0.027250683 -0.04282685 0.011591494 0.0028734237 0.030655975 -0.043562565 0.03629668 0.011235486
-0.013772683 0.04010791 -0.0020873134 0.02797997 -0.025158368 -0.042593434 0.010976825 0.029306179

model_1/dense_1/MatMul f4 [4, 60]
00000000: a31f 613e 8d2e 3ebe 3678 e13d d51d 37bc
00000010: ea37 a63d 064a 963e 9d26 693e 1521 0c3d
00000020: 12e4 89bd 0dbf 90be 35a2 033e 7352 38be
00000030: 50e2 2dbe 24b1 993d c1f2 b03d 30b5 613e
00000040: 91cb 3e3e a97c e13d 814f 7abe 1322 903e
00000050: 4130 97be 83a6 91bd f027 85be edfa 903d
00000060: fc8f d3bd ba6f 0d3c a5a1 023e 3aad 933e
00000070: 4ef8 b5bc d5ab 053e fc2d 913d 427b 013e
00000080: 9385 38be 6eb8 9abe 1f6a 9cbe d868 9c3e
00000090: 0639 a13d 544c a93d 26b6 063d 8251 33be
000000a0: 25d6 92be 43c8 8ebd 5cbe d43d 47c8 0ebe
000000b0: 29db 593e 0fdd 163e 7391 863c 8f7b 713d
000000c0: 736d 8e3e 6bc7 5fbd 3b33 663e 7e10 88bd
000000d0: 3d45 143e 1401 633e d474 bf3d 211c 203e
000000e0: 192e 8b3e 011b 64bd 92be 5f3e 7d65 703e
000000f0: b676 663e 662f 4fbe 6901 463e 9d00 1cbe
00000100: d47e a0bd bbd8 393d 91e4 7d3d 4dc5 903e
00000110: ecc4 e2bd eadc 57bd 45d2 2c3d 5f83 d93d
00000120: 861b 843e 6be2 cd3d 5a02 c4bd cf77 4dbe
00000130: 939b 6bbe ade3 393e 438e 73be b11d 7e3e
00000140: e8c2 8e3e ffe0 41bd 467a f33d eaa3 f8bd
00000150: d001 02bd 1f08 973e 8d15 9fbd b6df 3f3e
00000160: c41d 6ebe ab0f 993e cc14 193d 567b 90be
00000170: d490 46be 4b0e 4d3e 3193 98be 6f1a 763e
00000180: 950f 67be 2f71 38bd a068 723e 26e9 8cbe
00000190: 9491 e2bd 58e5 8d3e e422 8e3a 7ce8 88be
000001a0: 7541 4dbe 31a6 2c3e fc4a 95be 3801 78bd
000001b0: afa9 4bbd 1351 e7bd 5ecf 393e c41e 963e
000001c0: 380a 1ebe 433a 88be a333 aebc eb34 c03d
000001d0: 554b 5c3e 1c75 13be 3fdf 0a3e c7e5 813e
000001e0: 74f9 71be 55fc 3f3c 00fe bdbd 8869 83bd
000001f0: b376 4abd 128f 9b3e 55a6 83be 47a4 733e
00000200: d7f9 a43d 132b 8f3e 0a22 b53d b2e8 93bd
00000210: e47a c33d fc99 a53b 787e 893d 34cb 26be
00000220: dff1 15bd 5513 4a3d 4c37 9a3e 1596 8abc
00000230: c51a 5c3e 9380 e6bd e188 9b3e 88f7 5cbe
00000240: b91c 9ebe ab98 b5bd 187e bbb9 99dc eebd
00000250: 4de0 82bd 22d3 3bbe 0fb9 003e dea6 05be
00000260: 0b9c 323d c30c 403e 7dcf 493e 6788 d53c
00000270: e525 9cbe 15cb fd3c 1feb 39be 1026 0dbe
00000280: e150 3b3d 3cee 0f3e 0c8b 6dbe c7f8 d3bd
00000290: 2915 79be 801b 25be 40b5 973d 97ac fa3d
000002a0: e0d3 f43c 5f24 d83d abf3 3e3e 3193 e83c
000002b0: 04bf 383e ac8e 85be 62ef 9bbd a09f f03d
000002c0: b99f 9d3d 6bb9 5dbe 2c42 f43d 3001 d4bd
000002d0: cfe7 e3bd 9689 783e 6ba4 6abe e205 033e
000002e0: 08c5 303e efa3 453e 5cdf c9bc 57b1 e43c
000002f0: 3cb4 853e f3aa c23b d650 0bbe 6549 b1bd
00000300: 8188 cfbd 70bc 86bd bd2f 4ebe 15ba 9cbe
00000310: 21a5 153e ccfe 813e 2c41 e0bd 717f 6fbe
00000320: aca0 cc3d f106 4dbe ae2d 07be 89cd 0cbe
00000330: 2a50 c13d 5354 dd3d 612f 0e3e d025 803e
00000340: c334 113e e795 c9bd 4669 7a3e bdda 8ebe
00000350: 08ce 313d b41b 8f3e 1c8c 80be 007a 3dbe
00000360: b78a 273e 0d35 ffbd c101 803d eacc 7a3e
00000370: cf88 8c3e 42a2 843d 7f68 90be 1137 cfbd
00000380: ac57 2bbc 544e c1bd 3803 92be 724c 0e3e
00000390: 3965 60be cbaf 82be dbc7 93bd 072e 94be
000003a0: b56a 55be 2767 cabc 4887 ffbc 3966 d7bc
000003b0: bed7 94bd e63b 21bd 5856 673d c30e 0f3b
0.21984725 -0.18572445 0.110092565 -0.011176546 0.081161335 0.2935335 0.22768636 0.034211237
-0.06732954 -0.2827076 0.12854846 -0.18000202 -0.16980863 0.0750449 0.08640052 0.22041774
0.18632342 0.11010105 -0.24444391 0.28150997 -0.29529002 -0.07111838 -0.26007032 0.0707911
-0.10330197 0.008632595 0.12756975 0.288431 -0.022213127 0.1305383 0.07088849 0.12644675
-0.18019705 -0.30218834 -0.30549714 0.3054874 0.078722045 0.082665116 0.032888554 -0.17511562
-0.28679004 -0.06971791 0.10387871 -0.13943587 0.21275009 0.14732765 0.016426777 0.058955725
0.27817878 -0.05463354 0.2248048 -0.06643771 0.14479537 0.2216838 0.09348455 0.1563573
0.27183607 -0.055689815 0.2185004 0.23476215 0.22506222 -0.20232925 0.19336475 -0.15234609
-0.078366905 0.045372706 0.061985556 0.2827553 -0.11072716 -0.052700914 0.042192716 0.1062076
0.2580225 0.100529514 -0.09570761 -0.20065235 -0.23008566 0.18153258 -0.23784737 0.24816014
0.27883077 -0.047333714 0.11888556 -0.12140639 -0.03174001 0.29498383 -0.07767782 0.18737683
-0.23253542 0.29894766 0.03737335 -0.28219098 -0.19391185 0.20024984 -0.29799798 0.24033521
-0.22564538 -0.045029815 0.23672724 -0.27521628 -0.11062923 0.27714038 0.0010844138 -0.26739872
-0.20044501 0.16860272 -0.2915877 -0.060548037 -0.04972237 -0.112947606 0.1814551 0.29320347
-0.15433586 -0.2660695 -0.021264857 0.09385093 0.21513112 -0.14400142 0.13561724 0.2537062
-0.23630315 0.0117178755 -0.09276962 -0.06416613 -0.049429607 0.3038259 -0.2571284 0.23793136
0.08055466 0.2796255 0.08844383 -0.072221175 0.09544924 0.0050537568 0.06713575 -0.16288453
-0.03660762 0.049334843 0.30120313 -0.016917268 0.21494587 -0.11254992 0.30377868 -0.215788
-0.3088129 -0.0886701 -0.00035761367 -0.116631694 -0.06390438 -0.1834226 0.12570594 -0.13051936
0.043605845 0.18754868 0.19708057 0.026066018 -0.3049766 0.030980626 -0.18156098 -0.13784051
0.04573143 0.14055723 -0.23197573 -0.10350185 -0.24324478 -0.16123772 0.074076176 0.1223995
0.029886186 0.10553812 0.1864764 0.028390499 0.18041617 -0.26085413 -0.07614018 0.11749196
0.0769648 -0.21652763 0.11926684 -0.10351789 -0.11128198 0.24271235 -0.22914283 0.12795213
0.17262661 0.19300817 -0.024642639 0.027916593 0.2611407 0.005940789 -0.13605055 -0.08656577
-0.10133458 -0.0657891 -0.20135398 -0.3061072 0.14613773 0.25389707 -0.109499305 -0.23388459
0.09991583 -0.20022179 -0.13201019 -0.1375028 0.09439118 0.10807099 0.13885261 0.2502885
0.14180283 -0.09843045 0.24454221 -0.2790126 0.043409377 0.27950823 -0.25106895 -0.1850357
0.1636151 -0.124612905 0.062503345 0.24492231 0.27448127 0.06476261 -0.28204724 -0.10117925
-0.010457914 -0.09438768 -0.2851808 0.13896349 -0.21913613 -0.25524744 -0.07215854 -0.28941366
-0.20841487 -0.02470739 -0.031192437 -0.02629386 -0.07267712 -0.039363764 0.05647883 0.0021828867
