firebase_ml_model.tflite (tflite, 971212 bytes, 12 tensors)

model_2/conv2d_2/BiasAdd/ReadVariableOp f4 [32]
000000 d6 bb b0 b9 47 7e 0f bb 2e 4c 87 3b 60 80 c0 bb
       -0.00033709285 -0.0021895336 0.0041289544 -0.0058746785
000010 f3 6f a9 3a c0 a8 09 bb 17 2b a6 ba 27 6f 96 3b
       0.001292704 -0.0021005124 -0.0012677637 0.004590887
000020 e6 62 c5 3b 94 83 39 b8 32 9c c2 ba 0f 77 2f bb
       0.0060237525 -4.422998e-05 -0.0014847575 -0.0026773845
000030 c5 67 15 bc ba 5a d7 3a a9 34 1a bb 21 9b e1 bb
       -0.009118979 0.0016430237 -0.0023529923 -0.006884948
000040 6c 07 c7 ba db 44 05 3b 2a 05 53 bb 41 71 e3 bb
       -0.0015184707 0.002033523 -0.0032199123 -0.006940991
000050 2b 27 da b9 2f 94 24 ba 56 35 2d ba cf 6d 2a 3b
       -0.00041609383 -0.00062781846 -0.0006607374 0.0026005392
000060 40 a0 09 bc d3 97 cc b9 86 9e 9d 3a 82 81 36 3b
       -0.008400023 -0.0003902303 0.0012025393 0.0027848189
000070 11 75 a7 ba 7d 73 d3 3a 91 ef af bb 50 78 1c bb
       -0.0012775977 0.0016132441 -0.0053691347 -0.0023875423

model_2/conv2d_3/BiasAdd/ReadVariableOp f4 [16]
000000 bd 9c 52 bc 5b b5 8d 3b e2 b8 89 3b 22 9c a3 3b
       -0.012854752 0.004324598 0.004202948 0.0049929777
000010 76 70 e0 3b ba e7 8c bb 4b 9c 06 bb 8e 6f 63 bc
       0.006849344 -0.004300085 -0.0020539935 -0.013881577
000020 78 b9 c1 3b 13 da 29 bc 52 03 09 bb 1f 87 ae ba
       0.005912002 -0.010366934 -0.002090652 -0.0013315416
000030 9f 9b 1e bc 65 c3 53 3c 1d c2 13 bb 74 f4 cf bb
       -0.009680658 0.012925004 -0.002254612 -0.0063462798

model_2/conv2d/BiasAdd/ReadVariableOp f4 [32]
000000 e5 21 f7 bb 91 b8 7a 3b 6c d0 a6 bc b0 ae 1b 3c
       -0.0075418823 0.0038256983 -0.020363055 0.009502098
000010 d6 bb 0e bc 2d 0b a7 ba b1 15 71 3c 36 f0 4a 3c
       -0.008711776 -0.001274442 0.014714644 0.012386372
000020 30 25 a4 3b b4 fe a9 3c 7e 46 5b bb 04 04 fc 3a
       0.005009316 0.020751335 -0.0033458765 0.0019227271
000030 43 ac 6d 3b 63 94 88 bc 67 54 59 3b 1f 91 b6 3b
       0.0036266006 -0.016672319 0.003316188 0.005571499
000040 b1 a7 cf 3b 14 2a ef 3b 03 93 29 3c 66 ea 83 3c
       0.006337129 0.0072987173 0.010349992 0.01610298
000050 7d 1b 7d 3c 59 0b ed bb c7 0b 5a 3b 08 73 84 3a
       0.015448448 -0.0072340188 0.003327118 0.0010105083
000060 28 ab 74 3c 7e be ac 3c 58 54 ff bb e0 b3 78 3c
       0.014933385 0.021086928 -0.007792037 0.015179604
000070 66 c0 98 bb ff 06 3a 3b ce f1 d5 3c 29 5d e2 bb
       -0.0046616076 0.0028385518 0.026116278 -0.006908078

model_2/conv2d_1/BiasAdd/ReadVariableOp f4 [16]
000000 c3 18 03 3d 97 c5 1b ba 7e 7c 8a 3c e6 80 a5 3b
       0.032006036 -0.0005942224 0.016905066 0.0050507663
000010 37 f7 df 3c 29 be 84 b9 7c 94 a2 3c 15 92 76 3b
       0.02733956 -0.00025318682 0.019846193 0.0037623693
000020 ff fe 45 3b 2c fa 58 3c 23 76 46 3d 9a 42 88 3b
       0.0030211804 0.013243239 0.048452508 0.00415833
000030 95 15 2e 3b 78 8b 5f 3c 34 8c 1c 3c 05 e3 a3 3c
       0.0026563157 0.013644092 0.009554911 0.020005712

model_2/conv2d_2/Conv2D f4 [32, 5, 5, 1]
000000 1a 2c 9e bd 52 bf f4 bc 48 a2 02 bd e9 8e df bc
       -0.077232555 -0.029876385 -0.031893045 -0.027289825
000010 39 41 a4 b9 21 7f 89 bd bb ba 47 3c 62 2a 01 3b
       -0.00031329112 -0.06713701 0.012190516 0.00197091
000020 64 47 ac 3d 9e 26 89 3d ff f5 26 3c b2 b2 8d 3d
       0.08412054 0.06696819 0.010190486 0.06918849
000030 a3 74 9a bd 59 6f fa bc 51 6c 67 bd 6c a2 9f 3d
       -0.07541778 -0.030570673 -0.056499783 0.077946514
000040 56 ca 16 bc d2 d6 a7 bc 02 81 a9 bd aa 1d 77 3d
       -0.009203514 -0.020488176 -0.082765594 0.060331024
000050 68 8e ff bc 5b d7 1f bc c6 9e 2a bd aa 09 8b 3d
       -0.031195834 -0.009755935 -0.041655324 0.06788953
000060 0d 4a cf 3c e8 6f 2d 3d ae 3a 8d 3c 78 dc 49 bd
       0.025303865 0.04234305 0.017239895 -0.04928252
000070 57 75 ac bd c6 20 ba ba 16 58 2f bd e1 71 98 3a
       -0.08420818 -0.0014200441 -0.042808615 0.0011630618
000080 d7 d0 25 bd aa 41 8a 3d 51 0f 61 bb 2f 12 2d bd
       -0.04048237 0.06750806 -0.0034341405 -0.04225367
000090 42 49 e2 3c d3 1c aa bd 1a 09 a3 bb 83 87 87 3c
       0.027622823 -0.08306279 -0.00497545 0.01654411
0000a0 68 e1 a3 3c 09 27 84 3b 18 95 9e 3d 9a 2f e0 bb
       0.020004943 0.0040329737 0.07743281 -0.006841612
0000b0 83 3d 8b bd 1a 0f 06 bd 0e ec 2e 3d 44 3e 7d bc
       -0.06798842 -0.032729246 0.042705588 -0.01545674
0000c0 f5 64 a4 3d d4 ad 62 bb 7a 03 6f bc e9 9f ab 3d
       0.080270685 -0.0034588473 -0.014588231 0.0838011
0000d0 2a b0 2c bd 11 cf 76 bd aa d9 84 3d 57 3f af bd
       -0.04216019 -0.060256068 0.064868286 -0.08557003
0000e0 52 80 69 bd 66 8f 3e bd 21 89 be bc a2 ab 52 3d
       -0.05700714 -0.046523474 -0.023258748 0.051433213
0000f0 a0 f6 5d 3d 16 79 d7 bc d9 24 8a bb 16 24 ad 3d
       0.054190278 -0.026302855 -0.0042158184 0.084541485
000100 68 63 95 bd 4d 3e 2a 3c bd 4c 87 3d a8 24 9e 3d
       -0.07294351 0.01039083 0.066064335 0.077218354
000110 45 d3 d7 bc c8 b5 37 3d 2a 91 8b bd 01 a8 98 bd
       -0.026345858 0.044851094 -0.06814797 -0.07453919
000120 ae ad 9b bd 6a 5c b6 bc ad 46 dd 3b 78 99 a3 bd
       -0.07601486 -0.022260863 0.00675281 -0.07988256
000130 14 fe 0c bc e4 da f6 bc d4 e6 12 3d 94 7e 33 3d
       -0.008605499 -0.030133672 0.035864666 0.043821886
000140 20 6d 9f bd 8d 3f 5d 3d 08 9e a2 bd 6b ff 6c bb
       -0.07784486 0.054015685 -0.07940298 -0.0036162983
000150 46 ab e8 bc 63 0b d3 bc ec bc b0 3c 8b 10 8d bd
       -0.028401982 -0.025762266 0.02157446 -0.06887921
000160 6b 53 7f bd a5 40 2c bc db 3e 97 bd 33 db 8a bd
       -0.062335413 -0.010513459 -0.073850356 -0.0678009
000170 3c 47 82 bd a4 bc 9b bd 1e 8d 92 bd 3c f7 99 bc
       -0.06361243 -0.0760434 -0.07155822 -0.018794648
000180 5b aa 7b bd 72 f0 0e bd 09 c5 40 3d ff bc 56 bd
       -0.06144176 -0.034897275 0.047062907 -0.052426334
000190 07 3e a9 3c b5 ed 75 bb 01 9a 14 3d 54 67 80 bd
       0.02065946 -0.0037525718 0.036279682 -0.06269708
0001a0 11 c8 a7 3c 41 ba 1b bd 08 f9 56 bd b0 dd ea bc
       0.020481141 -0.038019422 -0.05248359 -0.028670162
0001b0 96 ea 7e 3d 7a e6 44 bd b2 1a a2 bd 2b 71 6e 3d
       0.062235437 -0.048071362 -0.07915248 0.058213394
0001c0 09 94 9a bc b8 ba 28 bd 2b 39 86 bc 2d 4e 0c bd
       -0.018869417 -0.041193694 -0.016384682 -0.03425424
0001d0 ac 97 3c 3d b2 44 4d 3c 84 ec 7b 3d 61 a7 95 bd
       0.046043083 0.012528585 0.061504856 -0.073073156
0001e0 6e 23 60 bd 24 9c a3 3d c3 2d fb bc 41 10 9b bc
       -0.05472129 0.07988766 -0.03066147 -0.018928649
0001f0 a2 2a 72 3d 7d 55 18 bd 06 69 7b 3d b1 09 88 bb
       0.05912269 -0.037190903 0.061379455 -0.004151546
000200 a2 2a 78 bd dc bb 9e bd 2d a9 95 bc c5 4d 2c 3d
       -0.060587533 -0.07750675 -0.018269146 0.042066354
000210 72 3a 8c bd bf 7c 3e 3d 0a 97 5b bd 6c 63 4f 3d
       -0.06847085 0.046505686 -0.05361084 0.050631925
000220 da 87 ad 3c 5c b0 e1 3c 03 0a 34 bd e7 66 9e 3d
       0.021182943 0.027549915 -0.04395486 0.07734471
000230 ff 9e 0d bc 85 91 16 3a b1 fe a7 bc 85 21 2b bd
       -0.008643865 0.000574373 -0.020507189 -0.041780014
000240 2b 1a e6 bc c9 58 15 bd 69 71 96 3d 10 0f 04 3d
       -0.02808865 -0.036461625 0.0734585 0.032240927
000250 b3 47 00 bd 6e 51 3e bd 61 48 78 bd 64 43 27 bd
       -0.031318378 -0.046464376 -0.0606159 -0.040835753
000260 e6 47 54 3c 39 2f d8 bc ee 9a d3 bc be 29 ab bd
       0.012956595 -0.026389705 -0.025830712 -0.08357571
000270 78 58 4f bd cd b2 9e 3d a0 ba 17 3c 96 06 39 bd
       -0.05062148 0.07748947 0.009260803 -0.045172296
000280 aa c7 10 3c 83 67 99 3d ce 75 7a 3d ac 41 37 3c
       0.008836666 0.074904464 0.061147504 0.011185091
000290 1b cd 8f bd a0 3b 8e bd 29 97 9c 3d 59 bc 4d 3c
       -0.07021543 -0.06944966 0.07646019 0.012557113
0002a0 6c 44 85 3d e1 13 97 3d b3 b5 0f 3b 62 d7 6b bd
       0.06507191 0.073768385 0.002192837 -0.057578452
0002b0 59 1c 80 3d 0e 16 7f bd 71 8e 93 bb 51 f1 6e 3d
       0.06255407 -0.062276892 -0.0045030643 0.058335606
0002c0 f5 15 a7 3d ce be 12 3d 48 27 5f 3d 9f df 4d bd
       0.08158485 0.035826497 0.05448082 -0.05026209
0002d0 e3 77 8c 3c 91 a9 9e bd b1 7b 62 bc b3 8e 91 bd
       0.01714701 -0.07747186 -0.013823436 -0.07107296
0002e0 7e 4e ac 3d 14 ac 92 bd f5 c8 72 3d 74 51 c0 bb
       0.08413409 -0.071617275 0.05927368 -0.005869085
0002f0 9a 71 8d bd b6 8a 30 3d 13 1c 90 3d 09 e9 e0 bc
       -0.069064334 0.043101035 0.07036605 -0.02745487
000300 80 c8 5b bd 7c 39 66 bd 40 fb 7c bd 37 8d ba 3c
       -0.05365801 -0.056207165 -0.06176305 0.022772415
000310 7b eb 00 3d a6 62 d7 3c 0a 9e a3 bc 16 95 85 bd
       0.03147457 0.026292156 -0.01997282 -0.065225765
000320 63 b3 27 3d 8a 51 cf 3c 36 fc 49 3d 52 e0 a3 bd
       0.04094256 0.025307436 0.049312793 -0.0800177
000330 d1 b2 21 bc e2 17 7f bd 25 14 9e bd eb af f6 b9
       -0.009869293 -0.062278636 -0.07718686 -0.00047051845
000340 fc 0a 4a bb 7e 30 b7 3c 17 a8 35 3d 97 f0 ef 3c
       -0.00308293 0.02236199 0.044349756 0.029289527
000350 2e 8b 02 3d d0 14 9d bd 97 e2 89 3d 62 74 ae bd
       0.031871013 -0.07669985 0.06732672 -0.08518292
000360 1a 09 81 bb 66 e3 61 bd 6b 83 c5 bc 5e d5 a4 ba
       -0.0039378526 -0.055148505 -0.024110517 -0.0012575795
000370 06 25 4e bd be d0 4d 3d a9 a7 a1 bd 6a 60 cc 39
       -0.050328277 0.0502479 -0.07893307 0.00038981746
000380 a6 45 81 3c 67 f3 8e 3d 6e 58 d0 3c fa fb 91 3d
       0.015780281 0.06980019 0.025432792 0.07128139
000390 b5 67 06 3c 66 9c a3 3d 35 27 40 bd a5 8c 80 bd
       0.008203437 0.07988815 -0.04691239 -0.06276826
0003a0 64 98 73 3c c1 1e 91 3c 87 01 2e 3c 54 d8 8b bd
       0.014867876 0.01771486 0.010620481 -0.06828371
0003b0 97 10 da 3c 41 df 89 3d 87 7a 32 bd f3 89 94 bc
       0.026619239 0.067320354 -0.043573882 -0.018132186
0003c0 96 b3 25 bc b6 20 de bc 0c cb 8a 3d ce 87 36 3d
       -0.010113617 -0.027115207 0.06777009 0.044563107
0003d0 89 86 b5 3b dc bc 04 bd 2b 43 21 bd d5 63 aa 3d
       0.0055397195 -0.032406673 -0.039370697 0.08319823
0003e0 44 93 87 bd b1 51 d2 bc 13 1f 82 3d 6a 02 93 3d
       -0.066198856 -0.02567372 0.06353583 0.07178195
0003f0 56 d3 5f 3d 49 48 b1 3c 42 71 8d 3d e5 1f 8d bc
       0.054644905 0.021640914 0.06906368 -0.017227123

model_2/conv2d_3/Conv2D f4 [16, 3, 3, 32]
000000 01 94 c8 bd f1 ab 6e bd 49 9e e7 3d f1 89 f7 bc
       -0.097938545 -0.058269445 0.113094874 -0.030217143
000010 b3 7c b9 bd 12 78 54 3d 05 ad bc 3d c9 58 85 bd
       -0.090569876 0.05187232 0.09212688 -0.06511075
000020 0f aa 92 bc a9 ea 84 bd 18 ce d8 3d ae e4 bf bd
       -0.017903356 -0.064900704 0.10586184 -0.09369789
000030 b9 fb 8b 3d 4c 49 df 3a 9e 12 46 3d 0c 3c 94 3d
       0.06835122 0.0017035394 0.0483576 0.072380155
000040 e3 5e 89 3d fb dd 98 3d dc 05 8f 3d 18 e4 25 bd
       0.06707551 0.074642144 0.069835395 -0.04050073
000050 59 46 90 3d f7 08 e9 bd 8f 0c e8 bd c4 e1 91 bd
       0.07044668 -0.11378663 -0.1133052 -0.071231395
000060 bb af 99 3d 60 c4 f5 3b 7f ff ed bd 6a c3 21 bd
       0.07504221 0.0075002164 -0.11620998 -0.039493002
000070 60 4f a5 bd 25 97 9f 3d 3a 87 df 3c 10 51 25 bc
       -0.0807178 0.077925004 0.02728616 -0.010090128
000080 8f 9e 53 bd ef be ad 3b 96 47 32 3c 30 f6 e2 3d
       -0.051664885 0.005302302 0.010881325 0.11082113
000090 4c 2e cf bd ef f4 bc bc 93 ed 26 bd 0c 42 a9 3d
       -0.10116252 -0.023066012 -0.040753912 0.082645506
0000a0 97 4c 25 bc f4 c1 b8 bb 9d 9d 01 3d 4f 1f 42 bc
       -0.010089061 -0.0056383554 0.031644452 -0.011848285
0000b0 8e fe ca 3d 09 c1 af bd 08 be f5 3c dd 28 9e 3d
       0.09911834 -0.085817404 0.02999784 0.07722638
0000c0 54 43 dc bd ad 53 a3 bd 01 75 d3 bd a4 29 cb 3d
       -0.10755029 -0.07974944 -0.10325051 0.09920052
0000d0 ca c4 e7 3d d3 66 26 3d b5 c6 8f 3d f2 b3 8a bc
       0.113168314 0.040625405 0.07020322 -0.016931508
0000e0 c5 00 80 3c 6e 09 a3 bd 07 6a 80 bd 6c f7 cb ba
       0.015625367 -0.07960783 -0.06270223 -0.0015561408
0000f0 8e c1 4b bd d9 46 a2 bd 09 2c 8c bd 28 f4 a0 3d
       -0.049745135 -0.07923669 -0.068443365 0.07859069
000100 df 9a ae bd 51 68 9e bc d0 89 90 bd 5e ee 88 3c
       -0.08525633 -0.019336851 -0.07057536 0.016715225
000110 12 04 b3 bd 54 1d 33 3b 3b 1f 0b 3d 61 e5 2a 3d
       -0.08741011 0.0027330713 0.03396533 0.04172266
000120 6b 01 c4 bd 50 75 0f bd 89 88 c3 3d 19 21 e5 bd
       -0.09570583 -0.035023987 0.095475264 -0.111879535
000130 4b 3f 7c 3d 98 f2 d7 bd 3c e2 7a 3d f2 58 bf 3d
       0.0615838 -0.10544318 0.06125091 0.09343137
000140 39 17 5c 3c 53 28 a8 bc 54 cb 5b bd 80 d6 13 3d
       0.013433271 -0.02052704 -0.053660706 0.036093235
000150 5f 37 ab bc 40 d7 a3 bd 89 ba c1 bb 16 85 a2 bd
       -0.020900426 -0.0800004 -0.0059121293 -0.079355404
000160 63 00 61 bd 44 ba e5 3d 8e 2b 3e bc 0a 1a d0 3d
       -0.05493201 0.11217168 -0.011607064 0.101612166
000170 5f db e7 3c 8b 90 3a 3d 1d 22 6c bc ca 99 b3 3d
       0.028302846 0.045548003 -0.01441243 0.08769567
000180 81 21 37 3c 09 98 9b bd c9 c6 ec bd 1f 46 e1 3d
       0.011177422 -0.07597358 -0.11561353 0.10999703
000190 a0 ad 53 bd 1b d6 ec 3d 2e 92 9f bb 54 21 c0 3d
       -0.051679254 0.11564275 -0.004869721 0.09381357
0001a0 94 fc c0 3d 3b a6 c5 bd b1 c0 ce 3d 8d 23 ce bd
       0.094231755 -0.096508466 0.10095347 -0.100653745
0001b0 79 c3 0d 3d 74 bd 53 3d 29 26 9e 3d d3 bf ed 3d
       0.034610245 0.05169435 0.07722122 0.11608853
0001c0 a1 af 56 bc a8 56 03 3d 25 4f 1b bc 44 76 81 3d
       -0.013103397 0.032065064 -0.009479319 0.063213855
0001d0 7d ce c7 3d 0f 4f 99 3d 96 88 11 3d 2d 34 b0 bd
       0.097561814 0.07485782 0.03553065 -0.08603702
0001e0 b3 8d 83 3c ad 03 ff bc 8e 2b 0c bd 90 b6 98 3c
       0.016058778 -0.031129682 -0.034221224 0.01864174
0001f0 29 bb d5 3d c3 f0 c3 bd f0 3c bf 3d 1e 94 b1 bd
       0.104360886 -0.09567406 0.09337795 -0.08670829
000200 2a d5 24 bd f5 cc d4 3b a9 0c 3f 3d 40 cf bf 39
       -0.04024235 0.0064941593 0.046642933 0.00036584772
000210 c4 a5 b1 bc 27 b4 89 3d 28 ae e4 bd bb ae 79 bd
       -0.021685489 0.067238145 -0.1116603 -0.06095765
000220 ec 47 40 3d 3f 40 11 bd d0 c1 0e bd c9 a8 74 3d
       0.04694359 -0.03546166 -0.034852803 0.05973128
000230 b8 4f ee 3d a2 a1 11 bd 0d 47 1d bd 2d 2a b3 bd
       0.11636299 -0.035554536 -0.038397837 -0.08748279
000240 0f 6f 8a bd 29 4f c7 bd c5 d9 91 bd 6c 59 38 3c
       -0.06759464 -0.097318955 -0.07121614 0.011251789
000250 35 e7 17 bc 06 e9 11 3d 1e ec ef 3d 9b fc 5a bc
       -0.009271433 0.03562262 0.11714958 -0.01336589
000260 88 77 a7 3d 3f 47 35 3d 74 e6 4b 3d 7f 05 c3 3d
       0.08177096 0.0442574 0.049780324 0.09522533
000270 cd b3 5d 3d fc 00 ea bc 3b 6e d3 3c ed d9 e4 bd
       0.05412655 -0.028564923 0.025809398 -0.111743785
000280 2a 0d b2 3d 5d 87 de 3d 85 0d 96 bd 36 88 74 3d
       0.08693917 0.10865662 -0.073267974 0.059700213
000290 20 81 ec 3d c0 6e 91 3d 1d 99 98 3d a4 07 a9 bd
       0.11548066 0.07101202 0.07451079 -0.082534105
0002a0 ea 29 25 bd 40 41 06 bd 8e 57 be 3d 47 80 ca 3d
       -0.040323175 -0.03277707 0.092940435 0.09887748
0002b0 ed 83 97 bc 17 c1 da 3d d8 c0 ed bd 83 18 e1 3d
       -0.018495524 0.1068136 -0.11609048 0.10991003
0002c0 4f 0c 06 3d a1 bb 3a 3b 89 37 e1 bd 89 4a a1 3d
       0.032726582 0.0028493183 -0.109969206 0.078755446
0002d0 50 14 f0 bc 9c 4a 52 bd 2a 97 9a bd 58 66 81 bc
       -0.02930656 -0.051340684 -0.075483635 -0.015795872
0002e0 fa 18 d4 bc 43 76 ad 3d 66 c1 b4 3d ef 20 fe 3c
       -0.025890816 0.08469822 0.0882595 0.031021563
0002f0 e7 a5 ed bd 52 bd ed bd e7 59 ef 3d 11 14 b2 3b
       -0.11603909 -0.116083756 0.116870694 0.005434521
000300 02 25 cb bd 75 cc 97 bc c3 dd bc bd 32 cd 91 bd
       -0.09919168 -0.01853011 -0.09221985 -0.07119216
000310 b0 7d 79 3d 9b 96 34 3c 55 ff b2 bd fc 31 73 3d
       0.06091088 0.011022235 -0.08740107 0.05937384
000320 4b 7c dd bd 1e 91 d7 3d 7e d0 07 3d a8 97 b4 3d
       -0.108147226 0.10525726 0.033157818 0.08817989
000330 af 57 aa bd dd ac 11 bd e6 81 a2 bd cb 58 c7 bc
       -0.083175056 -0.035565246 -0.079349324 -0.024334332
000340 f1 77 78 3c 46 0f a4 bd d7 c7 b1 bd d4 6c b1 3d
       0.015165315 -0.08010726 -0.086806946 0.086633354
000350 33 3d cc bd cb c9 dd bd ab 8f 8f 3a 12 70 8c 3b
       -0.0997261 -0.108295046 0.001095285 0.0042858208
000360 24 e4 87 3d 57 4e d3 3d 08 71 62 bd 5d 16 9c bd
       0.06635311 0.103176765 -0.055283576 -0.07621453
000370 c6 0d 9a bd f3 aa 28 3c 8c d6 92 bd 85 82 ba bd
       -0.07522158 0.010294664 -0.07169828 -0.09106926
000380 57 38 47 3d 6f 89 1e bd 23 3a c9 3d e5 fc ea 3d
       0.048637714 -0.038705286 0.09825542 0.11474017
000390 0e bf 46 3d ac c0 58 3d 1a b8 ef 3d cf db 9c 3d
       0.048522048 0.05291812 0.117050365 0.07659113
0003a0 56 7d 39 3d 18 dd ae bd 08 6d c7 bd 1d fe 25 3d
       0.045285545 -0.08538264 -0.09737593 0.040525544
0003b0 a8 96 93 3b c7 7f cf 3d d3 39 94 3d 5c cd ce 3c
       0.0045040436 0.101317935 0.072375916 0.025244407
0003c0 b8 ff 8e 3d 23 39 80 3d d1 82 c0 3d ae 24 95 bb
       0.06982368 0.06260898 0.09399951 -0.0045514917
0003d0 e1 ba 84 3d 02 27 f0 3d 99 15 77 bc b5 35 67 b9
       0.06480957 0.1172619 -0.015080833 -0.00022049884
0003e0 b6 92 5e bd 0f cb c0 3c f7 f8 e3 bd c1 09 c9 bb
       -0.054339133 0.023534326 -0.11131471 -0.006135196
0003f0 24 e7 96 3d 53 19 83 bc 69 39 81 3c 19 07 8a 3d
       0.07368305 -0.016003286 0.015774446 0.06739635

model_2/conv2d/Conv2D f4 [32, 5, 5, 1]
000000 b2 50 41 bd c1 b1 f2 39 63 01 c0 3c 9c 1e 4f bd
       -0.047196098 0.00046290274 0.023438161 -0.0505663
000010 70 4d 3a bd ee 7e 56 bd 32 ff 0e bc 54 41 4b 3c
       -0.045484006 -0.052367143 -0.0087278355 0.012405712
000020 be 40 7b bc 8d 57 d4 3c 3c d8 2b 3c e5 82 b0 3d
       -0.01533526 0.025920654 0.010488566 0.08618716
000030 62 2c 8b 3d 31 05 98 3d cf a6 20 bc 97 d7 a0 bc
       0.06795575 0.07422865 -0.009805395 -0.019634051
000040 dc 70 3b 3d 24 ed a5 bc fa f8 a9 3c 3f 73 29 bd
       0.045761928 -0.020254679 0.020748604 -0.041369673
000050 ba 74 87 bd 73 44 8f bd 31 87 9a bd 61 2a 64 3d
       -0.06614061 -0.069954775 -0.07545317 0.05570448
000060 3c f1 26 3d ec b7 43 bd db 9d 17 3d a4 32 7d bd
       0.040757403 -0.047782823 0.037015777 -0.061815873
000070 e6 72 07 3d 7e 96 34 bd d4 5c 92 bd 44 6c 88 3d
       0.03306856 -0.044088833 -0.07146612 0.06661275
000080 14 20 57 bd 9f a7 66 bb 41 40 c8 bb e0 4b 8f 3c
       -0.052520826 -0.0035195125 -0.0061111753 0.017492235
000090 5b fa 17 3d f9 f4 28 3d c0 dc 68 3c c3 fb 06 3d
       0.037103992 0.04124925 0.014212787 0.032954942
0000a0 4d e4 a7 3d af 20 8e 39 30 14 62 bd bc ea b3 3a
       0.08197842 0.00027108702 -0.055195034 0.0013726573
0000b0 e3 c1 2c 3d f6 75 7e 3d e9 39 9e 3d a9 a1 16 3d
       0.042177092 0.062124215 0.07725889 0.036775265
0000c0 9d 3f 85 bd 56 f2 67 bd 7c 28 94 bd 12 71 38 3d
       -0.06506274 -0.056627594 -0.07234284 0.045029707
0000d0 c6 8e 64 bd 20 c5 24 3d da c8 a0 3c 32 a4 8f bd
       -0.05580022 0.040227056 0.019627023 -0.0701374
0000e0 45 7c f4 bc 88 b2 68 3d 13 5f 84 bd 0a 1f 96 bd
       -0.029844413 0.056810886 -0.064634465 -0.07330139
0000f0 42 65 30 bd b5 9c 77 bd 76 3b a8 bd 8d 02 87 3a
       -0.043065317 -0.06045218 -0.08214466 0.0010300443
000100 f0 13 97 bd 2c 06 3c bd 73 7b d8 3b 97 1b 46 bd
       -0.0737685 -0.045904323 0.006606513 -0.048366155
000110 d6 c7 f1 bc 6e b2 60 3d c1 d0 a0 bd be 58 99 bd
       -0.029514235 0.054857664 -0.07852317 -0.07487629
000120 51 48 5a 3a 91 2d 2c bd f6 bb ed bb c2 8c 24 bd
       0.0008326816 -0.042035643 -0.0072550727 -0.0401733
000130 de 59 16 3d cd 52 9b 3c ca c1 53 bd 54 2c ae bd
       0.036706798 0.01896038 -0.051698484 -0.08504549
000140 55 b8 6e 3c f0 4f 6d 3d a6 2a 0b bd 66 a5 62 3d
       0.014570315 0.057937562 -0.03397622 0.055333517
000150 09 93 81 bd 9e 1c a1 3d 7c 17 56 bd 11 68 50 3d
       -0.06326873 0.078667864 -0.05226849 0.050880495
000160 67 8c 9c 3d 42 16 45 3d 3b c1 32 3d 2b 9f 96 bd
       0.07643967 0.04811693 0.04364131 -0.07354578
000170 04 ff 01 bb 38 8c 31 bd 17 d1 30 bd 9b 2a f5 3c
       -0.001983584 -0.043346614 -0.043168154 0.029927542
000180 17 ad 97 3b 32 b4 6d 3d 99 f2 53 bc f1 7a de bc
       0.004628788 0.058033176 -0.012936258 -0.027158232
000190 7e 2e 58 3d d2 9f a2 bd 5d 1d 8d bd 2c 62 03 bc
       0.052778713 -0.079406396 -0.06890366 -0.0080190115
0001a0 ae 8d 52 3a a6 34 49 bd 58 54 92 bb fb dc 0f 3a
       0.0008031976 -0.049122475 -0.004465621 0.0005487946
0001b0 b1 ba 9f 3c 25 5e 0e bb 85 ac 03 3c 27 38 20 3d
       0.019498201 -0.0021723595 0.008036737 0.03911605
0001c0 3a c1 ae 3d a4 1c ae 3b 6f 9b 78 bd 7d 11 9e bc
       0.08532949 0.005313473 -0.060695108 -0.019295448
0001d0 44 04 a2 bd f7 5d 92 bd 2c d3 ff 3c c8 79 9c 3b
       -0.0791097 -0.071468286 0.031228624 0.0047752596
0001e0 41 99 98 bd 9d 2c 4e 3c d3 a0 8f 3d 17 ee aa bb
       -0.07451106 0.012583879 0.07013097 -0.005216371
0001f0 90 dd 16 3d 4b f9 8e bd bb c4 91 bd 4d 06 a3 3d
       0.036832392 -0.069811426 -0.071176015 0.07960186
000200 c4 18 22 3c ee 13 3d bd 4b ac 91 bd b4 ed 26 3c
       0.0098936 -0.046161585 -0.071129404 0.010188509
000210 0f 42 78 3d c6 ab 7f bc c3 fd c2 3c 95 f1 03 bc
       0.060609873 -0.015604919 0.023802644 -0.008053203
000220 f0 50 b1 3d 73 01 df 3c 09 aa 55 bd d6 04 35 bd
       0.08658016 0.02722237 -0.05216411 -0.044194065
000230 00 cc a8 3b 49 ee e0 3c 17 5a 90 3d bf 17 3a 3c
       0.005151272 0.027457373 0.07048433 0.011358201
000240 a1 aa 0a 3c fd 7b 48 bd 11 4b aa 3d 81 37 92 bd
       0.008463533 -0.04894637 0.08315099 -0.07139493
000250 63 46 4c bd 26 54 3d 3d e5 ca e7 3c 12 8a 89 bd
       -0.049871814 0.04622283 0.02829499 -0.06715788
000260 0f ba a1 bc c6 77 39 bd a6 3e bd 3c 6c dd 33 bd
       -0.01974204 -0.04528024 0.023101162 -0.043912336
000270 a4 e1 43 3d de 23 a6 bd 29 dd 83 bc f0 07 81 3d
       0.04782261 -0.0811231 -0.016096668 0.06300342
000280 ed e2 83 bb 9a cb 98 3d 8f a1 67 bd 62 de 17 bd
       -0.0040248544 0.07460709 -0.05655056 -0.037077315
000290 46 ae 09 bd 12 5b 9c 3d d2 ff 42 3d 43 67 6d 3c
       -0.033613466 0.07634558 0.04760725 0.014489952
0002a0 4f 50 1c bd a7 f9 95 3d 27 80 47 3c 5e ed 0c bd
       -0.038162526 0.07323008 0.01217655 -0.03440606
0002b0 b0 33 2a bd 0e 21 a5 bd 58 30 9b bd 1b 46 82 bd
       -0.0415532 -0.08062945 -0.0757758 -0.06361028
0002c0 ff bc e4 bc a0 b8 e8 3c 6c 29 63 3d a3 72 9e bd
       -0.027922152 0.028408349 0.055459425 -0.07736709
0002d0 d7 e9 b5 bd 06 5b 03 3d ef 05 2c 3d 37 02 50 bd
       -0.08882492 0.03206923 0.041997846 -0.050783362
0002e0 aa 38 71 3d 3d 66 63 bd fa 83 89 3c 70 6c f8 bc
       0.05889193 -0.055517424 0.016786564 -0.030325145
0002f0 d5 3a 85 bd b2 ea 40 3d 22 35 2a bd 67 f7 4b 3d
       -0.06505362 0.047098823 -0.041554578 0.049796488
000300 21 17 3f 3d 7d 28 af bd f7 cc b1 bd bb 18 5c 3d
       0.046652917 -0.085526444 -0.08681672 0.053734522
000310 d9 49 d9 bc 9e 2b bc 3b 94 1f 36 bd 18 06 63 bd
       -0.026524471 0.0057425043 -0.04446371 -0.055425733
000320 49 ee 72 3c 98 e8 fe 3c 31 b6 5f 3c d4 0e 9b bd
       0.014827319 0.031116769 0.013654278 -0.075711876
000330 9a da 6d 3d a4 05 35 3c f0 9f 7f bd 2e 44 80 bc
       0.058069803 0.011048708 -0.062408388 -0.01565751
000340 0f d9 8d 3d 92 4b 9e 3d b1 9b 52 3d af b7 2b bd
       0.06926166 0.07729258 0.05141801 -0.04192322
000350 6d 5b e4 3c 41 a4 94 bc f2 32 08 3c 48 86 ca bc
       0.027875626 -0.018144729 0.008312928 -0.024722233
000360 6a b9 18 bd fb 7b 1c bc 0d 93 0c bd 30 15 b2 bd
       -0.0372862 -0.009551044 -0.034319926 -0.086954474
000370 84 58 98 bd 93 25 37 bd 31 0f 07 bd 43 5e 3d bd
       -0.07438758 -0.044713568 -0.032973472 -0.046232473
000380 77 32 03 bd df ac 98 bd 76 3e 3a 3d f9 43 7b bd
       -0.03203055 -0.074548475 0.045469724 -0.06134412
000390 35 22 29 3d 12 1c 6e 3d b4 b9 c0 3c f4 5b d2 3b
       0.041292388 0.05813224 0.02352605 0.006419653
0003a0 df 0c 9a bd aa 15 8e 3d c1 04 eb bb 4e be 37 3d
       -0.07521986 0.06937726 -0.0071721976 0.044859223
0003b0 a2 ae 65 bd b7 34 96 bd 0e dc a9 3c 8b ac 1a 3d
       -0.056074746 -0.07334273 0.020734813 0.037762206
0003c0 84 e1 2c bd f1 27 45 bc 8b a3 bb bc d1 86 b3 bd
       -0.042207256 -0.012033449 -0.022905132 -0.087659486
0003d0 b8 64 8c bd 80 d1 8e bd dd 56 31 bd 7e 24 52 3d
       -0.06855148 -0.06973553 -0.04329573 0.051304333
0003e0 6b a2 4b 3c 90 ee 0e bd 21 c2 87 3d c7 13 83 3d
       0.01242886 -0.03489548 0.06628824 0.064002566
0003f0 cf 76 10 bd 17 50 98 bd 85 9b a4 bd 71 9b eb bb
       -0.035269555 -0.07437151 -0.080374755 -0.007190161

model_2/conv2d_1/Conv2D f4 [16, 3, 3, 32]
000000 13 d1 89 3c 47 87 d8 3d ea 35 58 bd fe 84 86 bb
       0.016823327 0.10572677 -0.05278579 -0.0041052094
000010 f9 db 8f bd 36 fd d0 3c 43 f8 e8 3c 6f f5 33 3d
       -0.07024378 0.025511365 0.028438693 0.043935236
000020 b9 dc ed 3d fa e7 6c 3d 9a 38 49 3c 92 a9 ed 3d
       0.11614365 0.057838418 0.012281561 0.116046086
000030 12 9a 48 bd 24 c0 ce 3b 9b 07 76 38 31 68 e1 3d
       -0.048975058 0.006309526 5.8658054e-05 0.11006201
000040 d9 dc 86 3d c8 ae 83 bd a6 5d cc 3d 5c aa 39 3d
       0.06585092 -0.06429821 0.099787995 0.045328483
000050 ad 47 e1 bd 68 dc 00 bd f7 58 bd 37 70 ce 99 3b
       -0.10999999 -0.031460196 2.2571983e-05 0.0046937987
000060 1a a3 ed bb 63 22 81 bd 41 7c 20 bd e2 19 1a bd
       -0.0072521092 -0.06305387 -0.039180998 -0.03762234
000070 1f 79 7d bd 0e 68 e5 b8 c7 12 e5 3d 61 c0 c2 bd
       -0.06188309 -0.000109389526 0.11185222 -0.095093496
000080 58 04 1b bd 1d 30 dc bd 7d 1a 8e bd 76 fd 42 3d
       -0.03784594 -0.107513644 -0.06938646 0.047605
000090 e7 83 95 3d c9 fb 43 bd 1e e2 8a 3d 9e 49 32 bb
       0.07300549 -0.047847543 0.0678141 -0.0027204524
0000a0 9b 02 2a 3d 4b 3a f6 bc 00 ec 74 3d ab 25 c9 3d
       0.04150639 -0.030057093 0.05979538 0.09821638
0000b0 57 e5 a7 3d bd c8 0b 3d c7 79 91 3a 61 57 96 bd
       0.0819804 0.034126986 0.0011098915 -0.07340885
0000c0 c9 c6 d2 3d 52 09 4b bd 87 19 c3 bd 13 ca 21 bc
       0.102918215 -0.049569435 -0.09526353 -0.009874838
0000d0 6d dc 73 bd 45 9d ee bd b3 15 e7 bd 13 a7 1b bd
       -0.059536386 -0.116510905 -0.11283436 -0.03800113
0000e0 31 a1 e2 3c fe fe f6 3d 41 22 b4 bd 3d 8d 85 bd
       0.027664753 0.12060355 -0.08795596 -0.0652108
0000f0 f9 47 df 3b 8a 48 42 bd e2 64 c6 ba 2a ab b5 3d
       0.0068139997 -0.04743246 -0.0015136267 0.088705376
000100 c6 f0 dd bd be 1c be bc 80 e6 50 bd 04 99 60 bc
       -0.108369395 -0.023207065 -0.051001072 -0.013708357
000110 1a 99 99 bd ec 1b 81 bc e2 50 8a 3d b0 1e 86 bd
       -0.07499905 -0.015760385 0.067537084 -0.06548822
000120 26 00 3f 3d a1 d1 50 bd 2a a9 ab bb fb 43 9c ba
       0.046631 -0.050981168 -0.005238672 -0.0011922115
000130 db b8 97 bd 54 2f d5 bd 36 15 9a 3d 32 44 1c 3d
       -0.07408305 -0.10409418 0.07523577 0.038150974
000140 f4 7e b1 3d a7 c7 36 3c 11 7d ff bc 86 40 47 3d
       0.086667925 0.011155999 -0.031187566 0.04864552
000150 fe 7a 60 3d 8c c9 9a 3d 9a 31 9e bc 59 26 8d bd
       0.054804794 0.07557973 -0.019310761 -0.0689208
000160 f3 15 9c bc 85 11 1b bd a6 af 49 3d 4e 3c 61 3c
       -0.019053435 -0.037858505 0.049239777 0.013747288
000170 c7 eb be bd f2 81 64 bc 86 14 67 3d 63 d8 e8 3c
       -0.09322315 -0.013946997 0.056416057 0.028423494
000180 61 cf 10 3c 5a ab 3a 3b ab a1 97 bd a5 d8 9e bd
       0.0088385055 0.002848348 -0.074038826 -0.077561654
000190 90 82 5b 3d ad 97 55 3a 20 53 32 3d d6 83 91 3d
       0.05359131 0.00081479066 0.043536305 0.07105224
0001a0 d3 92 96 3c 18 94 9b bd 14 97 46 3d 6e 49 a2 3d
       0.018380558 -0.07596606 0.048483923 0.07924162
0001b0 a2 4e b5 3d e8 d3 85 bd 67 80 7b 3d 92 78 cf 3d
       0.08852889 -0.065345585 0.06140175 0.10130419
0001c0 bd d0 80 3d 94 18 88 3d 98 30 d2 3d 1e e8 88 3d
       0.06289814 0.06645313 0.10263175 0.06684898
0001d0 ac dc cc 3d 94 4a e1 bd e6 49 a2 3d b4 82 e1 3d
       0.10003027 -0.11000553 0.07924251 0.11011258
0001e0 b8 8a 81 3d e7 e9 85 bc bb 9d c6 bb a7 a4 e0 bd
       0.063252866 -0.016346885 -0.0060612834 -0.10968905
0001f0 83 b3 f6 3b c7 c3 e6 3d 5f ab c5 3d 63 57 9c bc
       0.0075287237 0.1126781 0.09651827 -0.019084638
000200 17 f5 d9 bd 1f 11 94 3d 43 64 59 bd 3d fd a9 3d
       -0.1064245 0.07229828 -0.053074133 0.083002545
000210 fa ee db 3d 01 f2 43 3b 53 5f 3a 3d 25 23 5b 3d
       0.107389405 0.0029898884 0.045501065 0.053500313
000220 9b c6 28 3d 1d 98 cd 3d 42 92 e9 bd 0f d2 98 bd
       0.04120503 0.10038779 -0.114048496 -0.074619405
000230 bd 9a 4a 3c 5b ed 0e bd 05 3a 98 3d 68 23 0e 3d
       0.012365994 -0.03489433 0.07432941 0.034701735
000240 8b 73 0b bd 1f b6 d4 bd f3 93 7e 3a 9d 46 2b 3d
       -0.034045737 -0.10386299 0.0009711377 0.04181539
000250 87 3b eb 3d a4 33 cb 3c 82 e5 a3 3d 23 20 ce bd
       0.11485963 0.024804898 0.080027595 -0.10064723
000260 e1 21 19 bd 31 a7 af 3d a3 06 55 bd 21 0a 9d 3a
       -0.037385825 0.08576811 -0.052008282 0.0011981168
000270 4f 98 b5 3d 3d 20 24 3d 01 d9 da 3d 83 95 88 3d
       0.08866941 0.040069807 0.106859215 0.06669142
000280 a6 3a bd bc 6f fe 98 3c 06 70 ef 3d e4 5c 9e bd
       -0.023099255 0.01867601 0.11691289 -0.07732561
000290 52 24 e9 bd f3 f7 8d bc 47 e9 0c bd 65 39 ed bd
       -0.11383881 -0.017330145 -0.034402158 -0.11583213
0002a0 40 95 f2 3d 04 f6 ad 3d 79 19 6b bc cb fc b6 bd
       0.118448734 0.084941894 -0.014349335 -0.08934935
0002b0 d7 10 a9 bd 5a 01 a8 3d 5e 8d bd bd c2 f6 35 bd
       -0.08255165 0.08203383 -0.09255479 -0.04442478
0002c0 a8 ad e9 bd e9 a2 01 bd 40 6d 15 bd fb 85 95 bd
       -0.114100754 -0.031649504 -0.036481142 -0.07300945
0002d0 76 27 d8 3d 42 30 d9 bd 71 20 61 3b 69 f0 04 3d
       0.105544016 -0.106049076 0.0034351612 0.032455835
0002e0 b1 13 c7 3d 50 9e 01 3d 07 a8 24 3d 58 6a 61 3d
       0.09720553 0.03164512 0.040199306 0.055033058
0002f0 51 a5 ed bd e1 8d 3f 3d 12 7f f5 3d c8 87 57 bd
       -0.11603797 0.046766166 0.11987127 -0.052619725
000300 a0 c4 77 bc f7 f2 dd 3c 0b 83 ae bc 0e db 1f bb
       -0.015122563 0.027093394 -0.02130272 -0.0024392041
000310 1b d7 8d bd d5 14 d0 3d 08 b5 00 3d c9 07 80 3c
       -0.06925794 0.101602234 0.031422645 0.015628712
000320 6c ac b4 3d 74 2c b2 bd 78 9e de bd 57 2b df 3d
       0.08821949 -0.08699885 -0.10870069 0.10896938
000330 19 00 d8 bd eb 61 b4 bd 6f 8a bd bc ba 9d e7 bd
       -0.105468936 -0.08807739 -0.0231373 -0.11309381
000340 7f e1 be 3d f3 01 9d 3c 53 17 dd bd b3 79 8c bd
       0.09320354 0.019165969 -0.10795464 -0.0685915
000350 de 5f 21 3d b7 99 55 3d f9 40 aa 3d 78 71 bd 3d
       0.039398067 0.052148547 0.08313174 0.09250158
000360 67 b0 aa 3d f3 83 c4 3c 54 46 84 bd 62 62 68 bd
       0.08334427 0.0239887 -0.064587265 -0.05673445
000370 8f 09 c9 3c eb 81 a2 3d 9c aa b5 3d c4 cb 2b bd
       0.02454069 0.07934936 0.08870432 -0.041942373
000380 43 56 13 3c bf ef fb 3a 9a 98 ab 3c b5 7d 5a bd
       0.008992734 0.001922123 0.02094679 -0.05334254
000390 6e 7a 8f 3d 71 65 94 3d 0a d0 3d 3d 85 61 34 3d
       0.070057735 0.07245911 0.04634098 0.044038314
0003a0 32 13 c9 3d b0 60 ab 3d ed f3 ba 3d 1a 23 dc 3d
       0.09818114 0.08368051 0.091285564 0.107488826
0003b0 91 d1 42 bc 83 4a a3 bc 7b 04 ba bd 8d 2d ad bd
       -0.011890785 -0.01993299 -0.09082886 -0.08455954
0003c0 7e be 43 bd f2 77 5d bc 18 f2 a6 bd 0e da c6 3d
       -0.04778909 -0.013517367 -0.081516445 0.097095594
0003d0 d0 c2 04 3d ed 8c 66 bd a4 19 ea 3d f4 7c 9c 3d
       0.03241235 -0.05628674 0.11430672 0.076410204
0003e0 eb 32 f1 bc 48 96 6a bd 4b 2a 64 bd 52 71 cf bd
       -0.029443225 -0.057272226 -0.055704396 -0.10129036
0003f0 db 1a a8 bd 2a dc b8 3d 29 0b 21 bd 14 2b 86 bc
       -0.08208247 0.09026368 -0.039317284 -0.016377963

model_2/dense/BiasAdd/ReadVariableOp f4 [60]
000000 94 5b 49 3c 71 48 13 3c 47 ef 00 3c e2 09 3a b8
       0.0122899 0.008989439 0.007869548 -4.435506e-05
000010 ed aa 3e 3c 5e a4 93 3b 83 8d 92 b9 12 ea 5f ba
       0.011637432 0.004505678 -0.00027952724 -0.0008541654
000020 b2 2d 2f 3b 18 c5 1e 3b 90 76 08 bc bf 68 1f 39
       0.0026730117 0.0024226364 -0.008329049 0.00015202443
000030 52 c9 d6 3b 38 f8 68 3b 1f 91 c8 3b 1c 84 17 bc
       0.006554761 0.003554834 0.0061208154 -0.009247806
000040 cd 87 98 bc df af f2 bb 20 8f 8c bb 6d 56 03 3c
       -0.018619442 -0.0074062194 -0.0042895228 0.008016211
000050 cb fd 2e ba ba de b5 ba 4e bb 9d 3b 66 58 cf 39
       -0.00066753913 -0.0013875582 0.004813588 0.0003954798
000060 52 a8 a1 bb ef 4a 04 3c 36 aa 5b 3a 58 64 41 bc
       -0.0049333954 0.008074506 0.00083795504 -0.011803709
000070 85 ae 0a bc 56 c3 0d 3a cc 9f 52 3c ac fa 2f ba
       -0.00846446 0.00054078305 0.012855481 -0.0006713073
000080 1e 7e eb 3b 66 fd 27 3c 5d d9 2f 3c 54 f4 75 3b
       0.007186665 0.010253286 0.010732976 0.0037529664
000090 ba 9c 18 bb bd 25 c4 3b ee 0c 2e bb dc 1a 35 bb
       -0.0023286776 0.005985944 -0.0026558 -0.0027634418
0000a0 2f c7 42 3c 9e 4d da bb a9 3f 5b 39 a8 2e 9a bb
       0.011888309 -0.0066620847 0.00020909183 -0.004705269
0000b0 e7 d4 cb 3c 99 e9 81 bc e3 c3 5e ba 83 2e 8a bb
       0.024881793 -0.015858458 -0.00084978173 -0.0042169704
0000c0 3b 62 97 3b f2 5c 30 3b 31 05 ba 3b 5e 86 62 3b
       0.0046198643 0.0026910868 0.0056768884 0.0034564952
0000d0 48 f1 9d bb e5 ed 7f 3b 1b 90 21 3b cd 0c 39 bc
       -0.0048200227 0.0039051708 0.0024652544 -0.011294556
0000e0 4a 07 a7 3b c9 1f 43 bc 98 eb 74 bb 18 41 7b bb
       0.0050973045 -0.011909434 -0.003737187 -0.003833836

model_2/dense_1/BiasAdd/ReadVariableOp f4 [4]
000000 f6 54 3f bc 49 ab b2 3c 1b c4 ed 3c ad 61 07 3d
       -0.011677971 0.02181019 0.029024174 0.033052135

model_2/dense/MatMul f4 [60, 3840]
000000 f8 20 be bb 32 78 e3 bc 15 62 88 bc 49 a3 05 bc
       -0.00580227 -0.027767275 -0.016648332 -0.008156606
000010 a2 25 9c 3c bc 9b 0a 3c 21 ec 19 bd f7 f4 5e bc
       0.019060913 0.0084599815 -0.037578706 -0.013608209
000020 41 e5 cc 3b cd b2 a5 bc f0 7d 1a bd 5c 24 19 bd
       0.006252915 -0.02022686 -0.03771776 -0.03738819
000030 c2 6f 50 3c 37 a5 b1 3c ac d9 75 3c 2a 7f 07 3d
       0.012721958 0.021685226 0.01500551 0.033080257
000040 19 c8 86 3c a8 a7 ba bc 3c fb be bc 28 d6 0e bd
       0.016452836 -0.022785023 -0.023313157 -0.034872204
000050 a7 a1 e5 3a 6d 36 18 bd 31 10 0c 3d 06 49 d7 3c
       0.001751949 -0.03716128 0.03419513 0.026279937
000060 e9 e2 0a bd 5d 72 08 3d e4 bf 01 3d 80 73 19 bd
       -0.033907805 0.03331219 0.03167714 -0.037463665
000070 01 0b ed bc 25 f5 ff 3c 2e a5 b3 3c 47 4c 07 bd
       -0.028935911 0.031244824 0.02192935 -0.033031728
000080 ab 64 b8 3c 88 b7 94 3b c3 0a 01 bd 32 c4 9d 3c
       0.02250894 0.00453848 -0.031504404 0.019258592
000090 ab fa 0d 3d 40 5e c2 ba ae 7c c9 bc e1 ad 0c 3d
       0.034662884 -0.0014829114 -0.024595585 0.03434551
0000a0 44 3c d4 bb 23 d5 b6 3c b8 a1 e1 3c 88 b1 18 bc
       -0.006476911 0.022318428 0.027542934 -0.0093196705
0000b0 3c 28 04 3d 77 e5 88 3c b5 cd fb bc 9e d0 85 3c
       0.032264933 0.01671098 -0.030737737 0.016334828
0000c0 28 26 20 3d 92 5a 2b bc 2e 6a 20 3d d0 8e dd bc
       0.03909889 -0.010458605 0.03916376 -0.027045637
0000d0 e4 d7 ca 3c 9d 02 9e 3c c3 f4 0c bd 1c 2a 79 3c
       0.024761148 0.019288355 -0.03441311 0.015207794
0000e0 1c 87 94 bb 4a 79 1e 3d 35 22 9b bc c2 d6 62 bc
       -0.004532708 0.03868989 -0.01893721 -0.013845148
0000f0 8f 52 39 bc 93 0c 03 bd 8e 3c 63 bc d6 d6 4c bc
       -0.011311187 -0.031994414 -0.013869418 -0.012502393
000100 d0 36 e6 bc 2c 5f b8 bc 09 25 9b bc 6c 1b 04 3d
       -0.028102309 -0.022506319 -0.018938558 0.032252714
000110 ec f6 d1 bc 8d d1 0f bd e2 ff d6 3c 02 4a f4 3c
       -0.025630437 -0.035111953 0.026245061 0.029820446
000120 08 c5 88 3c 29 92 de 3c ec a2 ad bb a1 2f f8 bb
       0.016695514 0.027169304 -0.005298963 -0.007574037
000130 40 73 f9 bc 97 3c f9 bc 7d 86 14 bd f9 d8 1a bd
       -0.030450463 -0.0304244 -0.03626107 -0.037804577
000140 e6 fd 38 bc ab 82 05 bd a3 2c 43 bb 8e 56 e0 bc
       -0.011291003 -0.032595318 -0.0029781244 -0.027385022
000150 84 42 d9 bc bc 7e 0c 3d 14 a8 1a 3c d4 c6 b3 bc
       -0.026520975 0.03430055 0.009439487 -0.021945395
000160 f3 a6 cc bb 6c ac 92 ba ae f5 c3 bc e9 86 2e b9
       -0.006245488 -0.0011190302 -0.02392086 -0.00016644191
000170 45 b2 19 3d 95 2c 87 3c 28 38 89 bb bf b5 00 bd
       0.037523527 0.01650075 -0.0041876025 -0.031423327
000180 8e 9b 6a 3c 6f e2 1f 3b 28 fa 03 bb 99 3b 9e bc
       0.014319314 0.002439644 -0.0020138118 -0.019315528
000190 9d b2 12 3d f0 48 b8 3c 76 5a b5 bc 60 b6 64 bb
       0.03581487 0.022495717 -0.022137862 -0.0034898743
0001a0 e8 6e 5d 3a d1 35 7e 3c dc 15 8b 3c 68 74 1a bd
       0.0008447007 0.0155157605 0.016978197 -0.03770867
0001b0 35 b6 0c bd d9 10 eb bb d2 16 e2 3c 52 75 af bb
       -0.034353454 -0.0071736393 0.027598772 -0.005354562
0001c0 4b 45 1c bb 58 c2 4a 3c c6 8c e6 bc be 04 4f bc
       -0.0023845013 0.012375437 -0.028143298 -0.012635408
0001d0 b4 86 9a bc 94 e5 0b bd 4c 92 e7 3c 74 ad da 3c
       -0.01886306 -0.03415449 0.028268002 0.026694037
0001e0 80 5b 54 bc 84 bc f5 bc a1 10 09 3c 1c e4 e1 3c
       -0.012961268 -0.029997118 0.008365781 0.027574591
0001f0 49 38 4a 3c d2 5f 5f bc a9 f1 04 3d d3 77 e5 3c
       0.012342521 -0.013633685 0.032457028 0.028011238
000200 6d cc ed bb 9b 5f c2 3c f0 33 b9 bc 94 79 02 3d
       -0.0072570355 0.023727229 -0.022607774 0.031854227
000210 58 a0 91 3b 6a bb 1d 3d 2e e7 c2 3c 4b 03 87 bb
       0.0044441633 0.03850881 0.023791876 -0.0041202656
000220 c2 c2 13 bc c8 f3 a5 bb af e7 9e 3c 51 c0 cb bb
       -0.009018602 -0.0050644614 0.019397585 -0.0062179943
000230 4b 26 ec 3c 22 35 07 bc 30 36 59 3c e4 19 9b bc
       0.028826853 -0.008252414 0.013257548 -0.018933244
000240 d8 cf 6b 3b 9e a2 e7 3c 7d 4e 86 bc f0 47 cc 3b
       0.0035982039 0.028275784 -0.016394848 0.0062341616
000250 9b 68 06 3d d6 b7 14 bd 22 3e dc bc 8e ed 0f bd
       0.032814603 -0.036308132 -0.026885096 -0.03513866
000260 58 5e 1a bd e1 83 86 3c e3 31 27 3d 94 94 1f 3d
       -0.03768763 0.016420307 0.04081906 0.038960055
000270 e3 9d 93 3c 8e f4 c4 bc b9 cc 06 3d 76 f6 c0 3c
       0.018019622 -0.024042394 0.032910082 0.023555022
000280 b8 04 fd bc 76 43 c2 3c 38 22 96 bc e2 16 3a bc
       -0.03088604 0.023713809 -0.018326864 -0.011357995
000290 40 8d 0c 3a f3 41 a0 3a f2 55 29 bc 70 09 b3 3b
       0.0005361624 0.0012226686 -0.010335432 0.0054637715
0002a0 86 c0 b0 3c 85 18 f8 bc b0 14 b5 bc b4 b2 b3 bc
       0.021576177 -0.03028513 -0.022104591 -0.021935798
0002b0 16 f3 1d 3d f4 0e 1c 3d 9a a9 8f 3c 2f 31 8f bc
       0.038561903 0.038100198 0.017536927 -0.017479507
0002c0 83 fc 59 3c bc 81 a5 bc 6a 43 96 bc 98 df e1 bb
       0.013304832 -0.020203464 -0.018342692 -0.0068931095
0002d0 b4 83 1b bd 9e 8d ef 3b 1a ed a4 3c 9b 4e 1c bd
       -0.0379674 0.0073105833 0.02013259 -0.0381609
0002e0 81 50 09 3d d8 af c9 b9 07 06 7b bb d4 3b 13 bd
       0.03352404 -0.0003846872 -0.0038303153 -0.03594573
0002f0 11 7f 1d bd ca 71 b7 3c 14 91 67 3c 00 a8 83 38
       -0.038451258 0.022393126 0.01413371 6.277859e-05
000300 7e e1 fa 3c c1 01 8a bc df 80 86 bc ad 80 10 3d
       0.030625101 -0.01684654 -0.016418872 0.035278965
000310 9c 6f 17 bc f7 55 e1 3c 75 b7 98 bc af 86 c5 bc
       -0.009242918 0.027506812 -0.018642167 -0.024112074
000320 81 86 cb ba 07 0d a2 bc 09 1c 31 bb 50 de d1 bc
       -0.0015527756 -0.019781603 -0.0027024767 -0.025618702
000330 7b a8 be 3b fd 6c 55 bc 1d f5 04 bd 40 02 1e 3c
       0.0058184243 -0.013026473 -0.03246032 0.009644091
000340 c9 19 df 3b 20 c2 60 bb 8d b8 1a 3c 91 9f c9 39
       0.0068084938 -0.0034295395 0.009443414 0.00038456594
000350 c1 58 f0 bc b8 d7 ad bc c0 81 f6 ba d0 c0 19 bd
       -0.029339196 -0.021221027 -0.0018806979 -0.037537396
000360 a0 5b 39 3c 96 4a b1 bc ec fc 95 3c 6d 27 16 bc
       0.011313349 -0.02164201 0.01830908 -0.009164673
000370 ed f4 fa 3c 00 f9 09 bd fb 1c fc bc d3 72 f5 bc
       0.030634368 -0.03368473 -0.030775538 -0.029961979
000380 77 2b 03 3d 08 e1 31 bc d1 51 03 bc 68 ed 94 bc
       0.032023873 -0.010856874 -0.008015112 -0.01817961
000390 d6 75 de bc bc bf 7b bc 5b 6e ab bc 25 2a fa 3c
       -0.027155798 -0.015365537 -0.020926645 0.030537674
0003a0 4f 63 ac 3c b1 0c 2a 3b b0 87 f2 3b 10 3d ae bc
       0.021043448 0.0025947506 0.007401429 -0.021269351
0003b0 63 d8 c7 3c a4 93 1d bc af 83 0f bc 37 f1 06 3d
       0.024395173 -0.00961772 -0.008759423 0.032944884
0003c0 3e 1b a1 3c 23 e3 13 3d eb 09 06 3d cf bd 34 bb
       0.01966631 0.036105286 0.032724302 -0.0027578955
0003d0 33 93 91 bc c4 c2 82 3c 4a c3 c7 3c aa 8a dc bc
       -0.017770385 0.015962012 0.024385113 -0.026921589
0003e0 bf eb 71 bb cd e3 eb ba 13 6a 88 ba 38 e1 dc 3c
       -0.0036914197 -0.0017996967 -0.0010407589 0.026962861
0003f0 8c f0 a0 3c 16 27 47 3b 34 fb eb 3b fe 05 7e 3c
       0.019645952 0.0030388287 0.0072015766 0.015504358

model_2/dense_1/MatMul f4 [4, 60]
000000 a9 be 94 3e 0e 72 7c bd 2b 39 a7 bc 42 a3 c7 bd
       0.29051712 -0.06163221 -0.020413002 -0.09747936
000010 99 ed 24 be 0d 25 03 3e e9 40 12 be a0 45 c4 bd
       -0.16106261 0.12807103 -0.14282574 -0.095835924
000020 53 ba 5e be a3 53 e2 3a ca 49 1f 3e b7 b5 88 bd
       -0.21750765 0.0017267357 0.15555492 -0.06675284
000030 f4 cc 09 3e da 6a b5 3d 7c 17 4a be a7 91 86 be
       0.1345709 0.08858271 -0.19735521 -0.26283
000040 94 6b 9c 3e 87 da 4c be d9 31 4e 3e 53 b2 6b be
       0.30550826 -0.20005237 0.20136203 -0.23017244
000050 89 1b 91 be 44 06 22 3d eb e0 ae bd a9 62 47 be
       -0.2834132 0.039556757 -0.085389934 -0.1947123
000060 56 4a 99 3e 12 ed 7e be da 75 87 bc 42 86 87 be
       0.29939526 -0.24895123 -0.016535688 -0.26469618
000070 6d 1d 7f be 54 ea 7e be 66 84 89 3e f4 5a 83 3e
       -0.24913569 -0.24894077 0.26858824 0.2565533
000080 4f 3b c2 bd be 63 6e be dd e4 29 3e 40 a6 19 3e
       -0.094839685 -0.23280236 0.1659121 0.15004826
000090 3b 5d 9b 3e 3c 19 5b be 67 10 92 3e 93 f7 31 3e
       0.30344567 -0.21396345 0.2852814 0.17379598
0000a0 e1 b2 7b be 0a 21 93 3e ba 39 8e 3e 66 90 46 bd
       -0.24579956 0.28736144 0.27778417 -0.048477553
0000b0 9c 04 88 be 86 3c 8b be cc 0c 33 3e 00 50 0d 3d
       -0.26566017 -0.27194613 0.1748535 0.034500122
0000c0 97 f1 21 be 25 48 50 be 2d 8b 7c be f3 a5 99 3e
       -0.15814815 -0.20340021 -0.24662466 0.30009422
0000d0 36 63 0e 3d ea ca 9a 3d 5d c6 14 3b 71 55 92 be
       0.034762584 0.07558234 0.0022701242 -0.28580812
0000e0 15 ef 90 be 71 17 69 be ee a3 3d 3e 30 9d 00 bd
       -0.28307405 -0.22762848 0.18519565 -0.031399906
0000f0 b0 19 a9 3d f5 48 71 be cc ba 8f bc 16 0a 6c be
       0.082568526 -0.23562987 -0.017545126 -0.23050722
000100 c6 8b d2 bc c3 be 4b 3e 7a ee e2 bd 1e 42 74 be
       -0.025701415 0.19896989 -0.11080642 -0.23853347
000110 ec be 91 be 9c 43 94 3d fd 06 86 be 20 e2 4f be
       -0.28465974 0.07239458 -0.26177207 -0.20301104
000120 9e fc ca 3b a9 b1 48 be 0b 47 86 3c ca 33 26 be
       0.006194665 -0.19599022 0.016391298 -0.16230693
000130 3a 52 b9 bd 42 78 34 be 38 95 1b 3e cf 2b 91 be
       -0.090488866 -0.17624 0.15193641 -0.28353736
000140 65 7e 8e be ad a0 57 be 7c aa b4 3b c7 ab 00 3e
       -0.27830806 -0.21057387 0.0055134874 0.12565528
000150 18 2f 29 bd 40 66 59 3e fb 13 50 3e e3 a2 1f bd
       -0.041304678 0.21230412 0.20320122 -0.0389737
000160 19 7b 81 bd f5 56 02 3e 6c 28 8c 3e 13 c8 34 be
       -0.06322307 0.12728484 0.2737459 -0.17654447
000170 dd 62 c9 bd df 61 df 3d ef 55 f9 bd 7b 02 8d be
       -0.0983331 0.10907339 -0.12174594 -0.27540955
000180 7f 35 9a 3c bc cd 32 be 89 0b 3c bd 55 c7 95 3e
       0.018824337 -0.17461294 -0.04590944 0.2925364
000190 f9 7e 60 3e 57 00 99 be 88 54 34 3d 6c 50 39 3e
       0.21923436 -0.29883072 0.044025928 0.18097085
0001a0 45 bb 2f 3e 53 93 9e be 53 11 28 bd 71 7c 00 be
       0.17161281 -0.30971774 -0.041032147 -0.1254747
0001b0 2f cd 02 be 6a 76 23 bd 4a b3 0b 3e 90 fa 5c bd
       -0.12773584 -0.03990785 0.13642612 -0.053949893
0001c0 3e 37 d3 bd 2a d0 92 3d 0a b9 7b be 4d 43 0d 3e
       -0.10313271 0.071686104 -0.24582306 0.13795204
0001d0 a6 bb 53 3e f6 07 24 be e5 42 10 be a3 e0 88 be
       0.20677051 -0.16018662 -0.14088018 -0.26733884
0001e0 52 83 90 3e d6 a1 85 3e 92 67 3f bb 13 3d 2c 3e
       0.2822519 0.26100034 -0.002920602 0.16820173
0001f0 17 41 24 3e 26 c1 86 be c3 7d 83 be e3 37 b8 3d
       0.16040455 -0.26319236 -0.25681886 0.089950345
000200 1f bb 5b 3e f0 f0 2f 3d 11 e5 0f 3c a5 6d 22 be
       0.214581 0.042954385 0.008782641 -0.15862139
000210 ae 6c 95 3e 95 46 d1 3d 74 50 08 be f3 3d 26 be
       0.2918448 0.102185406 -0.1331194 -0.16234569
000220 f4 75 1a be 1d ea 6e be d8 a8 9a be b7 aa e4 3d
       -0.15084058 -0.23331495 -0.30206943 0.11165374
000230 37 d6 53 bd 85 55 f3 3d e3 b5 43 3e f4 67 1f be
       -0.051717963 0.11881546 0.19112353 -0.15566999
000240 ed d4 84 3c 63 48 29 3e ab 91 3f bd b2 6c 26 be
       0.016214812 0.1653152 -0.04676978 -0.16252401
000250 d5 eb 65 be 85 3d 90 be a0 2c 30 3e e2 80 9a 3e
       -0.22453244 -0.28171936 0.17204523 0.30176455
000260 cc d9 fc 3c d8 75 0d bd a7 ee 45 3e 56 e2 88 3e
       0.030865572 -0.034536213 0.1932932 0.2673518
000270 ba ff 00 3e 63 a8 97 3e 0b 94 2e bc ce 8f 43 be
       0.12597552 0.29620656 -0.010655413 -0.19097826
000280 57 7a 8e 3d ae ed ac 3b 45 cf 94 3d a4 10 e1 bd
       0.06956928 0.005277357 0.07266096 -0.10989502
000290 53 88 9b 3e c4 6a 5f be 81 3e 47 3e 29 20 1a 3e
       0.30377445 -0.21818072 0.19457437 0.1505133
0002a0 80 99 16 3c ec 0d b4 3d 12 10 62 3e 21 7a 18 3e
       0.009191871 0.08791718 0.22076443 0.14890338
0002b0 0a 70 2e be e9 be 85 bd 9b cd 19 bd 00 45 96 be
       -0.17034927 -0.06530554 -0.037549596 -0.29349518
0002c0 3a d6 81 3d c6 ad cd bd 99 61 94 3e 66 81 14 3e
       0.063396886 -0.1004291 0.2898071 0.14502487
0002d0 a7 4a 2d 3e d9 64 3a 3e 73 16 80 3e eb 90 0e bd
       0.16923009 0.18202533 0.25017127 -0.034806173
0002e0 0b da 30 3e 11 35 8f 3e 4c e7 71 3e 6b 2e 90 3c
       0.17270677 0.27970174 0.23623389 0.017600259
0002f0 9d 3b 47 3b 25 10 5a bc 15 8e f3 bc 5f 31 81 3e
       0.0030400523 -0.013309513 -0.029730836 0.2523298
000300 5c da 75 bc 9d f2 32 3e e2 84 61 3e bf ca 0b be
       -0.015005674 0.17475362 0.22023347 -0.1365156
000310 36 d9 93 be f5 d6 a8 3c 4a 2e d8 3d 9f 8b 80 3e
       -0.28876656 0.020610312 0.10555704 0.25106522
000320 4f e2 e2 3d 04 b5 e3 3b 9c a3 58 bd b2 3b a4 bb
       0.11078321 0.006949069 -0.052890405 -0.005011999
000330 5d 7c 10 bd 39 01 f8 bd 58 ff 8e bd 88 54 97 be
       -0.035274852 -0.12109608 -0.06982297 -0.2955668
000340 01 8b db bd 84 9c c2 3d c2 3d 20 3e 30 9a 98 bd
       -0.10719872 0.09502509 0.15648559 -0.07451284
000350 34 0f 69 3e e9 59 4f 3e 46 09 99 3e 6f fc e2 3d
       0.22759706 0.20249142 0.29889888 0.11083304
000360 38 d0 a6 bd b9 9a 19 bd 8f e2 7e 3d ae 49 56 bd
       -0.08145183 -0.03750107 0.06222778 -0.05231636
000370 b3 1b c8 3d da e6 b8 3d 31 af 40 3c 99 27 3c be
       0.09770908 0.090284064 0.011760519 -0.1837448
000380 fe d8 99 3e 2b e2 51 be d4 00 d8 bd bd c1 2c be
       0.30048364 -0.20496432 -0.10547033 -0.1687078
000390 3f d2 26 3e 5e 0e 06 bd 0d 0d 4d be c4 87 fc 3d
       0.1629114 -0.032728545 -0.2002451 0.12330583
0003a0 b7 81 af 3d 79 57 1f 3e 9c e2 89 3e e5 59 94 be
       0.08569663 0.15560712 0.26930702 -0.28974834
0003b0 73 5f 0d be cd fc 81 be c3 ee 58 be 01 9f 9a bd
       -0.13805942 -0.25388184 -0.2118483 -0.07549859
