firebase_ml_model.tflite (tflite, 20396 bytes, 6 tensors)

sequential/dense_2/BiasAdd/ReadVariableOp/resource f4 [2]
000000 ea 9b 92 bc 80 9d 92 3c
       -0.017896611 0.017897367

sequential/dense_1/BiasAdd/ReadVariableOp/resource f4 [60]
000000 17 4c 91 bc 50 83 98 3d e0 16 0e 3d 81 fb 03 3e
       -0.017736478 0.07446921 0.034689784 0.1288891
000010 ea 63 62 bc 77 42 62 bd b4 f0 44 3b 9f 96 71 bd
       -0.013817767 -0.055239167 0.0030050697 -0.058981534
000020 21 2c c0 3d 0f d6 dd 3d fd 26 f6 3c f4 a2 be bd
       0.09383417 0.10831844 0.030047888 -0.093084246
000030 d9 bc 9c 3b 32 52 06 3e 8a 50 c2 bd b7 86 a3 bd
       0.0047832546 0.13117293 -0.09488018 -0.07984679
000040 77 cc a9 3c 1a 01 21 be 51 81 9c 3c be 83 dc 3c
       0.02072738 -0.15723076 0.019104632 0.026918288
000050 aa 05 81 3d 5c 96 f8 bd c0 44 de 3d f4 5f bb 3c
       0.062999085 -0.12138054 0.10852957 0.022872902
000060 21 64 06 be d7 1f 00 3e 18 1a 83 bd 28 5b 33 bd
       -0.13124134 0.12512146 -0.06401461 -0.043788105
000070 48 ba 56 3e ad f1 34 bd 12 64 2b 3e dd 67 21 bc
       0.20969498 -0.044175792 0.16737393 -0.009851423
000080 f8 42 1b 3d 06 ca 17 bc f4 ba df 3a 16 c0 75 bb
       0.037905663 -0.009264475 0.0017069266 -0.0037498525
000090 7c d3 4b 3e f2 97 3e bd 6d 6c bf 3d 34 b7 aa bd
       0.19904894 -0.046531625 0.093468525 -0.083357245
0000a0 ae ba 95 bd f6 f6 20 3d f2 85 0f bd 4b 43 8f 3b
       -0.07310997 0.03929802 -0.03503985 0.0043720356
0000b0 bd 65 14 3c 33 60 28 bc 65 b8 6c bd 25 42 ad 3c
       0.009057459 -0.010276842 -0.05779304 0.021149704
0000c0 0f 16 35 3d c9 9f 63 3d ef 15 f8 3c f3 19 10 3d
       0.04421049 0.055572305 0.030283896 0.035180997
0000d0 4b e3 b6 3d 04 70 28 3c d1 c9 9c bd cb 74 78 be
       0.089300714 0.010280613 -0.07655681 -0.24263303
0000e0 50 67 7f bc 37 92 82 3d 52 12 18 3d b8 93 0b 3d
       -0.015588596 0.063755445 0.037126847 0.034076422

sequential/dense/BiasAdd/ReadVariableOp/resource f4 [20]
000000 ad 42 ef bd d0 3d cd 3d 4e f7 bd 3d 4c bf 0c 3e
       -0.11682639 0.100215554 0.09275685 0.13744849
000010 c3 9b f1 3d aa 32 e8 bd 31 8a df 3d 22 e0 03 be
       0.11797287 -0.113377884 0.1091503 -0.12878469
000020 1a 9a 02 be b2 6c 77 3d 1c c0 e4 3d a3 ef a5 3d
       -0.12754098 0.060406394 0.111694545 0.08102348
000030 1d 2f 93 3d c6 9a e1 bd 2c 77 f4 3d 78 1a e4 bd
       0.071867205 -0.11015849 0.11936793 -0.11137861
000040 d8 6a 93 3d e6 e7 ba 3d 01 d9 f5 3c 87 cc 07 3e
       0.07198113 0.09126262 0.030010702 0.13261615

sequential/dense/MatMul f4 [20, 160]
000000 e1 6c 16 bf 2f 5e 59 3e 49 67 23 3d 81 bb 68 3e
       -0.58759886 0.21227334 0.039893422 0.22727777
000010 9d bd bd be 33 51 5e 3e 67 21 02 3e da b3 4f 3e
       -0.37058726 0.21710663 0.12708054 0.20283452
000020 50 4b 53 be 7c fa 45 3e 46 50 f5 3d ce ae 40 3e
       -0.20634198 0.19333833 0.119782016 0.18816683
000030 f2 b5 84 be c1 fe 88 3e 2f 1a 63 3e 40 47 59 bd
       -0.25920063 0.26756862 0.22177957 -0.053046465
000040 0a ad e4 be f0 5c 23 bc 76 8c 35 3e c2 8b 98 3d
       -0.44663268 -0.0099708885 0.17729363 0.07448532
000050 ff 7a e1 be 1d 71 b7 3d ca 57 97 3e aa 5b 95 3d
       -0.4403915 0.089571215 0.29559165 0.07292874
000060 89 0f 87 be 53 7e 95 3e 94 60 b0 3e fe 7e 4d 3e
       -0.2637904 0.2919794 0.34448683 0.20067975
000070 ce e7 1b be 50 92 8d 3e 36 ae af 3e 22 a3 92 3e
       -0.15225145 0.2765069 0.343126 0.28640085
000080 78 8b 7c be eb 14 23 bd 61 c6 c2 3e 36 9c 98 3e
       -0.24662578 -0.03981487 0.38041976 0.2980668
000090 ab 8a 4b be 6d 89 b8 3d a3 a1 7d 3e 23 cb 29 3e
       -0.19877116 0.09010587 0.24768691 0.16581397
0000a0 28 01 bd bd 83 1d 32 3e a1 1f a5 3e 11 17 b3 3d
       -0.09228736 0.1739407 0.32250693 0.08744634
0000b0 53 8a 6e be e4 39 6e 3d f8 d9 cb 3e 69 7a 37 3e
       -0.23294954 0.058160678 0.39814734 0.1791779
0000c0 77 57 a7 bd 1b e3 ca 3d 53 33 d1 3e bb 79 67 3d
       -0.081709795 0.09906598 0.4085947 0.056512576
0000d0 6e 3c 69 be fe 83 86 3e a6 16 f9 3e a4 9a 05 3e
       -0.22776958 0.26272577 0.48650092 0.13047272
0000e0 f7 2e a3 3d fa ca 19 bd 4d 26 b6 3e f7 c6 79 3e
       0.07967942 -0.03754709 0.35576096 0.24392305
0000f0 0a 66 f4 bd c5 5b 2f 3d fd d9 bb 3e 63 6c a8 3d
       -0.11933525 0.042812128 0.3668975 0.08223798
000100 78 17 54 bd 56 e0 42 3e e0 c8 7f 3e f0 42 4d 3e
       -0.051780194 0.1903089 0.24978971 0.20045066
000110 6f 78 16 3e a7 fc e3 3d d8 77 e2 3e 9b 05 2a bd
       0.1469438 0.11132174 0.4423206 -0.041509252
000120 0e 6d 24 3d 5e d3 8c 3e 2b 45 c4 3e f4 11 e2 3c
       0.040143065 0.2750501 0.3833402 0.027596451
000130 34 6f c6 3c 1e 2a 18 3e 58 a2 b6 3e 41 f6 6b 3e
       0.024222948 0.14859816 0.35670733 0.23043157
000140 4a b6 8e bd e8 ec a4 bc 24 82 76 3e 24 e1 af bc
       -0.06968363 -0.020132497 0.24073082 -0.02146966
000150 cf 40 03 3e 09 ea 91 3d 79 14 81 3e 2f f4 7f bd
       0.12817691 0.07124717 0.25210932 -0.06248873
000160 ba c7 62 3e 07 e4 96 3e be 5c 3d 3e 85 f7 7b bd
       0.22146502 0.29470846 0.1849241 -0.06151535
000170 9d 6b a0 3e b6 2b 86 3e 80 08 c9 3e b2 ec b0 bc
       0.31332102 0.26205224 0.39264297 -0.02159724
000180 15 9e e3 bc 72 8f a0 bc f3 9c df 3e b7 2a 79 3e
       -0.02778534 -0.01959965 0.4367443 0.243327
000190 5c 7d 45 bd 4b 12 cb 3d 9f 3a 8f 3e b0 77 9b bc
       -0.048215255 0.099155985 0.27974412 -0.01897797
0001a0 96 a7 a7 bd e2 80 86 3d de fb 09 3f 36 26 58 3d
       -0.08186261 0.06567551 0.53899944 0.052770816
0001b0 96 03 ec bd 4f 0a 75 3e 5e 4b 00 3f c6 12 e5 bc
       -0.115241215 0.23929714 0.50115 -0.027963053
0001c0 03 be 7b 3c d3 64 09 bd 1d 9b b4 3e 1e 06 0d 3e
       0.015365127 -0.03354342 0.35274592 0.13771865
0001d0 95 7b 73 3d 74 d9 1f 3e 5b 3f f6 3e 86 fe 06 3c
       0.05944403 0.15610296 0.4809521 0.008239394
0001e0 f0 31 d3 bd a6 24 ef 3c bb 70 f0 3e b5 2c 01 bd
       -0.10312259 0.02919228 0.46961007 -0.031536777
0001f0 95 7e 08 3e 05 8d 97 3e a4 8c 05 3f 14 2b 2d 3e
       0.13329537 0.29599777 0.52167726 0.16910964
000200 04 92 8a bd 37 f8 e2 3d e9 31 cf 3e d5 8f 51 3e
       -0.067661315 0.110824995 0.40467766 0.20465024
000210 75 56 82 bd 5d 4f 82 3e e2 c4 eb 3e bf 5d 8b 3e
       -0.063641466 0.25451174 0.46048647 0.2721996
000220 6e 23 0a be a8 b9 97 3e 30 45 ec 3e ff da 22 bd
       -0.13490078 0.29633832 0.46146536 -0.039759632
000230 58 a5 b4 be 5e 57 97 3d 44 dd 12 3f a6 84 09 bc
       -0.35282397 0.07389711 0.57368875 -0.008393442
000240 38 fa 67 bd 0a 09 6a 3d 63 f4 9f 3e 4a a5 4e 3b
       -0.05663511 0.057137527 0.3124114 0.0031531625
000250 b2 f8 d8 bd fd 2f b4 3d 1e 91 b9 3e e8 20 76 3d
       -0.1059431 0.087982155 0.36243528 0.060089976
000260 c9 6f 34 be 02 67 88 3e f0 a1 10 3f f3 e0 d3 bc
       -0.17620768 0.2664109 0.56497097 -0.0258641
000270 d6 f8 90 3a ae b5 8b 3e 45 73 a4 3e ea 97 48 3e
       0.0011060487 0.27287048 0.32119194 0.195892
000280 a5 34 a6 3e 87 b6 8e 3d 88 90 c0 bc 4c 17 f7 3a
       0.3246204 0.06968408 -0.023506418 0.0018851548
000290 6f 92 5a 3e af 28 95 3d 8b ed 96 3d 28 15 83 be
       0.21344922 0.072831504 0.073695265 -0.25602078
0002a0 68 19 b3 3e 30 63 18 be f0 00 5d bd 8a 59 c2 3c
       0.3498032 -0.14881587 -0.053955972 0.023724336
0002b0 fe c1 b6 3e 6e e5 7f be 8d 1a 1d bd 5d e1 59 bd
       0.3569488 -0.24989864 -0.0383554 -0.05319344
0002c0 d8 02 ee 3e cc ba 8c be 84 f4 85 be 88 6c 6e 3d
       0.46486545 -0.27486265 -0.26163113 0.058208972
0002d0 eb 13 34 3e 10 31 05 be 4b b0 86 bb ca 35 12 bc
       0.17585723 -0.13006997 -0.004110371 -0.008923957
0002e0 05 d1 a6 3e 84 9c 63 be 15 02 72 bd ee 29 03 be
       0.32581344 -0.22227675 -0.059084017 -0.12808964
0002f0 36 2d ee 3d 1a 27 1c be a3 ac dd bd 51 d1 a6 3d
       0.11629717 -0.15249291 -0.108239435 0.08145393
000300 c8 8a 28 3e ba de 54 bc dd 93 25 be 91 dc fe bd
       0.16459191 -0.012992555 -0.16169687 -0.124444135
000310 64 d4 03 be 8b bf 0b bc ec 36 0a be 6a c8 29 be
       -0.1287399 -0.008529554 -0.13497514 -0.16580358
000320 7e 1e 04 3e 29 5e a6 bd 71 8f 8a be 7a 7c c9 3c
       0.12902257 -0.081234284 -0.27062562 0.024595488
000330 d0 e3 13 bd 88 e9 08 3d 51 86 b7 be 61 d5 8b be
       -0.03610593 0.033425838 -0.35844663 -0.27311233
000340 40 52 13 3e 6a 07 83 be dd 82 da bd 72 1c 23 be
       0.14386845 -0.25591594 -0.106694914 -0.1592882
000350 6f de 46 bd 0e ad 6c be ad a3 e6 be b7 fe 28 bc
       -0.048551973 -0.2311289 -0.4504675 -0.010314635
000360 6c df 88 bc 00 58 2c be ee b5 de be b2 51 fb 3b
       -0.016708098 -0.16830444 -0.43498176 0.007669651
000370 be 5c ab bd 55 65 c4 bd 61 22 e4 be a8 73 6b be
       -0.083672985 -0.0958964 -0.4455748 -0.22993338
000380 f4 af a4 bd 6d 28 a4 bd 4c c5 01 bf d8 99 c4 3c
       -0.08041373 -0.08015523 -0.50691676 0.02399914
000390 9d cb ff 3d 2e ec 49 3d 23 c1 da be 90 0f 6b be
       0.12490008 0.049297504 -0.42725477 -0.22955155
0003a0 22 b0 6f bd d4 5d 83 be 79 91 33 be 30 a4 1f be
       -0.058517583 -0.25657523 -0.17535962 -0.15589976
0003b0 c0 4d fd 3d cf 28 9e bd 82 bc 64 be 12 34 18 3d
       0.12368345 -0.07722627 -0.22337535 0.037159033
0003c0 6f b9 c7 bc 7a e9 8a be 57 e2 99 be dd 5b f9 bd
       -0.024380414 -0.27131253 -0.30055496 -0.12175725
0003d0 2c 1f 7a be 5b 3c c0 bd cd ae ee be 13 a9 93 3d
       -0.24425954 -0.09386512 -0.46617737 0.07209983
0003e0 80 d6 1c be 45 73 a0 3d fe 56 ff be 6c a1 0f be
       -0.153162 0.07834486 -0.49871057 -0.14026421
0003f0 4a a1 a4 be 8d 6d f3 bd 2f 09 cf be 1e 8f 50 be
       -0.32154304 -0.118861295 -0.40436694 -0.20367095

sequential/dense_1/MatMul f4 [60, 20]
000000 5a 84 55 ba e3 7f c2 3b cf ce f5 3e 28 eb 36 3e
       -0.0008145027 0.0059356554 0.48009345 0.17863142
000010 3f c4 3b 3d 1f 25 cd be c9 a2 5f 3e ea 8c 03 be
       0.04584145 -0.40067384 0.21839441 -0.12846723
000020 bc 9d c3 be 5e 83 2f 3e 96 f8 30 3e b8 4c 1f bc
       -0.3820628 0.17139956 0.17282328 -0.009722881
000030 fa 1d f0 3e 44 96 79 3c 2b b9 77 3e de 08 ba be
       0.4689787 0.01523358 0.2419173 -0.3633489
000040 4e 90 8c 3e c2 78 0a 3c 5d e7 94 3e 4c 92 47 3e
       0.27453846 0.0084516425 0.29082766 0.19489402
000050 ff ff e5 3e 84 db 58 be bc 13 9d be e4 47 a1 bd
       0.44921872 -0.21177489 -0.3067912 -0.0787504
000060 ce 4c ad be 52 39 8a 3e 25 f4 c8 be 02 3c c5 3d
       -0.3384766 0.26996857 -0.39248767 0.09630586
000070 c8 7d fb 3e 0e 89 cd be 29 49 7f bd 72 e4 08 b9
       0.491194 -0.40143627 -0.06232563 -0.00013055073
000080 cb 6b 99 be 3e 6c 43 3e cb df c9 be 5b 7d bf 3e
       -0.29965052 0.1908426 -0.39428553 0.37400326
000090 b8 48 da be 60 16 c8 be 9f ac 82 be 43 62 31 be
       -0.42633605 -0.3907957 -0.25522324 -0.1732264
0000a0 4b ac 55 3e 7a 23 73 3b e7 ef 15 be 74 86 96 be
       0.20866506 0.0037100003 -0.14642297 -0.29399455
0000b0 15 b4 ba be 4b d4 43 3e 21 fa db be 4c 3a 8d 3d
       -0.36465517 0.19123952 -0.4296427 0.06895885
0000c0 c8 51 9a 3e 93 95 8c bc 91 b5 c1 be 46 06 17 bd
       0.3014052 -0.017161166 -0.37833837 -0.036871217
0000d0 0c c8 4f be cf 96 d1 3d a4 53 97 be 17 57 b3 3e
       -0.20291156 0.102338426 -0.29556 0.35027382
0000e0 34 3b 31 be b1 42 59 be 43 9f bb bc eb 12 72 be
       -0.1730774 -0.21216847 -0.02290309 -0.23640029
0000f0 c3 f2 2e 3f 35 91 11 bf 00 e5 b7 be 63 0c cb be
       0.68339175 -0.56862193 -0.359169 -0.39657888
000100 3e e2 3b be 98 69 c9 3e 3b e7 81 be 53 69 ac 3e
       -0.18348023 0.39338374 -0.25371727 0.33674106
000110 31 89 2c 3f 46 da f6 be f3 d1 10 be c4 2f b2 be
       0.6739684 -0.48213404 -0.1414259 -0.34802067
000120 c8 0c e2 be 14 62 2a 3f 38 46 e5 be 27 4c 72 3e
       -0.44150376 0.66555905 -0.44780135 0.23661862
000130 8d b0 dc be a2 2d eb bd f1 32 c0 be 5c 0a f8 be
       -0.43103448 -0.11483313 -0.37538865 -0.48445404
000140 d6 da c2 be e2 47 ca 3d 63 cc 37 bd fb 89 ac 3d
       -0.38057584 0.09876992 -0.044872653 0.08424755
000150 98 cf a3 3e dc 98 c2 be 03 c8 d3 3e 07 a5 d2 be
       0.3199432 -0.38007247 0.41363534 -0.4114153
000160 93 2b 30 be c2 be 8f bd 10 30 a2 3e a8 f2 da 3e
       -0.17204122 -0.07018806 0.31677294 0.42763257
000170 fc 59 77 3e 20 36 e0 bd 7a 9a 5b 3d 87 23 89 be
       0.2415542 -0.109478235 0.053614117 -0.26784918
000180 5d b8 ca 3e 86 a4 36 3e 88 cb c2 3e 05 8b 92 3e
       0.39593783 0.17836198 0.38045907 0.28621688
000190 67 d0 9d be 85 44 c2 3c cb 97 ae 3e e9 97 85 3e
       -0.3082306 0.023714313 0.34100184 0.2609246
0001a0 7c 20 66 3e 07 96 80 be c4 93 cf 3e e5 15 c7 bd
       0.2247333 -0.25114462 0.40542424 -0.09720973
0001b0 91 0b 83 be dc ce 93 bd 52 11 ba 3e 70 94 e8 3e
       -0.25594762 -0.0721719 0.3634134 0.4542575
0001c0 fd e9 a6 3e f4 1d 8a be 0f 97 97 3e 20 b2 1d be
       0.32600394 -0.26975977 0.29607436 -0.1539998
0001d0 f6 b9 9a bd 93 00 ba 3e 33 dc 00 bd 8a 1a 14 3e
       -0.075550005 0.36328563 -0.03146 0.14463249
0001e0 93 34 f6 be 5f 22 c6 3e ad 77 e3 3d fb a0 8e 3d
       -0.48086986 0.38698098 0.11106811 0.06964298
0001f0 f5 1a 90 3e 33 8c ab be b6 2f 02 3f 04 87 d7 be
       0.28145567 -0.335054 0.5085405 -0.42095196
000200 13 2c 42 be ca e3 e6 3e 82 50 e1 3c 11 dc 0c 3e
       -0.18962125 0.45095664 0.02750421 0.13755824
000210 b7 9e f1 3e 7c 5e 83 be ac c1 84 3e 98 43 4d be
       0.47191402 -0.25658023 0.2592901 -0.20045316
000220 ab 3c 1c bd 87 38 fd 3e 10 0c ba bd bf ca 8d 3c
       -0.038143795 0.4945719 -0.09084332 0.017308591
000230 42 04 87 bd 4e c4 cc 3d b5 72 b5 3e 67 57 fa 3d
       -0.06592609 0.0999838 0.35439077 0.12223702
000240 b0 d3 83 3e b3 ff 3a be 6b 6b 01 3e 1a 2c c3 bd
       0.25747442 -0.18261604 0.12638633 -0.09529896
000250 93 6f 91 be ee 8a c8 3e 7c f3 00 3f 6c 6e 74 3e
       -0.28405437 0.39168495 0.5037153 0.23870248
000260 b4 a0 dd 3e 83 96 cc bd 45 a2 03 3c ff 7c c2 be
       0.4328667 -0.09989645 0.008034294 -0.3798599
000270 7b ee bc 3e 16 fe 0b 3d de 7a 16 be 0f 8a 8d 3e
       0.36900696 0.034177862 -0.14695308 0.27644393
000280 26 f0 2d 3e 29 49 1a bd 90 88 c0 be 97 a9 bb be
       0.1698614 -0.037667427 -0.3760419 -0.36652824
000290 e5 db 8e 3c 80 60 a3 3d a7 1f 84 be 20 c7 cf 3e
       0.017438838 0.0797739 -0.258054 0.40581608
0002a0 ba dc 7d 3e 03 a6 08 be bb 7b fc be ea 63 dd be
       0.24791232 -0.13344578 -0.4931315 -0.4324029
0002b0 15 f3 af be 3f 60 a6 3e 02 4b 45 be 6c 94 5c 3e
       -0.34365144 0.32495305 -0.19266894 0.21540993
0002c0 7a f1 83 be 75 7f bf be 62 2e e7 bd 9b 3c 29 be
       -0.2577017 -0.3740193 -0.11288144 -0.16527025
0002d0 1c 4f e8 3e 77 f8 ee be cc 30 f2 be 5c 5a 3d be
       0.45372856 -0.4667394 -0.47302854 -0.184915
0002e0 cf e6 98 be 87 37 08 3f 28 cd 07 bf b1 22 d5 3e
       -0.29863593 0.5320973 -0.5304742 0.4162803
0002f0 f8 97 40 3e 93 75 c5 be ee 1e 6d be 82 19 9f be
       0.18807971 -0.38566265 -0.2315633 -0.31074148
000300 71 f1 d4 3b 50 79 ab 3e 87 01 9f be ff 33 81 3e
       0.0064985086 0.33490992 -0.31055853 0.25234982
000310 87 d7 ca be 92 c7 27 be a4 4e d1 bd 63 aa 94 be
       -0.3961756 -0.16384724 -0.10220078 -0.29036245
000320 9d 74 97 3e 24 73 97 be 6f f5 a2 be 68 bf 5e bd
       0.29581156 -0.29580033 -0.31827876 -0.054381758
000330 2b ea b7 be fe a9 0d 3f 72 c3 c4 be cc 9b 8d 3c
       -0.35920843 0.5533751 -0.38430363 0.017286204
000340 cc e4 c8 3e d2 a7 7b 3d 8d 37 0f bd ba 78 76 be
       0.39237058 0.061439343 -0.034965087 -0.24069491
000350 58 94 e4 bd f0 7b d5 3e ff 1e d2 be 68 20 97 3e
       -0.11161107 0.4169612 -0.41039273 0.29516912
000360 a5 fb b6 be f7 de 65 bd 57 ac c7 be 31 e3 08 bf
       -0.35738865 -0.05612084 -0.38998672 -0.53471667
000370 4b 30 10 bf 59 01 49 3e bd be 20 3f 7a 90 4e 3e
       -0.5632369 0.1962942 0.62791044 0.20172301
000380 6e 2a a9 3e 0a 16 37 bf 0c 34 c3 3e 28 9a a7 be
       0.33040184 -0.71518004 0.38125646 -0.327348
000390 86 95 5c be a7 86 c8 3d 76 c7 03 3f a2 d3 b4 3e
       -0.21541414 0.09791308 0.5147623 0.35317713
0003a0 1c 14 be 3e 0c a4 86 be 04 7b 86 3e 3e bb f8 be
       0.37124717 -0.26297033 0.26265728 -0.48580354
0003b0 8a 79 50 3d 89 fa 10 3f f4 5d 92 3a 47 5a c6 3e
       0.05089716 0.56632286 0.0011166916 0.3874075
0003c0 33 77 8c 3e e0 15 6f be 6e 28 60 be 42 13 af bd
       0.27434692 -0.23348188 -0.21890423 -0.08548595
0003d0 d9 0d bc bd 23 15 7a 3e e7 1d b9 be 85 15 cf 3e
       -0.09182329 0.24422126 -0.36155626 0.40446106
0003e0 10 ac 86 3e 92 40 ae be 50 b0 03 bf f9 f6 ff bc
       0.26303148 -0.34033638 -0.51440907 -0.031245695
0003f0 ca aa b9 bd 25 1e 56 3d 0a c0 86 bd eb 61 f9 3d
       -0.090657786 0.05227484 -0.06579597 0.121768795

sequential/dense_2/MatMul f4 [2, 60]
000000 0a f2 ba be 24 63 01 3e 25 b8 ae 3e 73 88 f5 3e
       -0.36512786 0.12635475 0.34124866 0.47955665
000010 f6 24 a0 be a1 16 d7 be c0 7a f2 be 9f dd 58 bd
       -0.312782 -0.42009452 -0.47359276 -0.05294573
000020 cf c1 e3 3e 3e c8 0e 3e ad cc 21 3e 79 ed 34 3d
       0.44483802 0.13943574 0.15800734 0.044171784
000030 73 7d 5a 3e 14 67 cd 3e 70 61 b1 be 0a 50 a8 be
       0.21336918 0.40117705 -0.3464465 -0.32873565
000040 42 a7 de be ac 86 8b be c6 24 7b be 0c a5 7a 3e
       -0.43486983 -0.27251184 -0.24525747 0.24477023
000050 9c 22 1a 3e e4 c8 b6 be ea 7f df 3d d0 a1 0e 3e
       0.15052265 -0.35700142 0.109130695 0.13928914
000060 66 24 d8 be 26 c8 7f 3e ea 2d 3b be b6 15 b9 be
       -0.4221527 0.24978694 -0.18279234 -0.36149377
000070 55 ca b6 3e 9f 0d bb be 4a 54 93 b9 6e c1 b9 bd
       0.35701242 -0.3653383 -0.00028100825 -0.09070097
000080 14 41 0c 3e f9 16 cb bd 95 d7 aa 3d 02 e4 71 3e
       0.136967 -0.09916491 0.083419 0.23622134
000090 14 c7 22 bc 51 61 7c be bb 67 9e 3e 3f 40 a9 be
       -0.009935159 -0.24646498 0.30938515 -0.33056828
0000a0 10 34 94 bd f7 73 5b 3e 34 48 1e be c4 9a bf 3e
       -0.07236493 0.21430956 -0.15457231 0.37422764
0000b0 6d 3b c3 be 06 12 cd 3e 29 4b da be a1 e5 f1 3c
       -0.38131276 0.40052813 -0.42635468 0.02952844
0000c0 46 b7 5f 3e 1f ba a7 3e 07 42 13 3e a9 25 e9 3e
       0.21847257 0.32759187 0.14380656 0.45536545
0000d0 67 00 4b 3d 1a 33 6a be d1 cc 94 be a1 b2 9e be
       0.04956093 -0.22871056 -0.29062513 -0.30995658
0000e0 a9 d0 9f 3d 84 5a 51 3e 61 97 24 3d 15 94 7c 3e
       0.07803471 0.20444685 0.04018343 0.24665864
0000f0 c1 a7 94 bd cb f3 d7 be 2e de ad be 60 7c 88 3d
       -0.07258559 -0.42178187 -0.33958572 0.06664348
000100 3a e8 99 3e 07 57 f0 3d 10 43 08 3e 05 26 91 3e
       0.30059987 0.11735349 0.13306832 0.2834932
000110 bb ac 94 be 8d 40 c6 be f7 30 17 be 05 85 b8 3e
       -0.29038033 -0.38721123 -0.14764772 0.36038986
000120 40 69 b6 bc 30 a1 fd be 96 05 80 3c f8 ef 24 bc
       -0.022266984 -0.4953704 0.015627664 -0.010066979
000130 0e 7a 99 3e 6f ad 97 3d 55 d4 dc 3e 43 b5 a2 bd
       0.29975933 0.07406127 0.43130746 -0.07944729
000140 44 5d 2e be 9f 6b 81 3d 95 3c 98 be 7e 90 7e be
       -0.17027766 0.06319355 -0.2973372 -0.24859807
000150 38 54 b9 bd 41 83 85 be 50 3c 64 3e 4c c9 8b 3e
       -0.090492666 -0.260767 0.22288632 0.27302015
000160 00 f1 f1 bd c7 4d 38 3d 37 fc 8b be f4 10 5b 3e
       -0.11813545 0.04499605 -0.27340862 0.21393186
000170 25 1b d7 be b2 de fd 3e 00 0c b9 be 5d 00 71 be
       -0.42012897 0.49583966 -0.36141968 -0.23535295
000180 60 b3 8a be 6b 4a 2b 3e 6c 47 89 be a4 06 ba 3d
       -0.27089977 0.16727607 -0.26812303 0.09083298
000190 8c 89 ac 3e 64 b1 a1 bd 70 12 92 3e b1 10 26 be
       0.3369869 -0.07895163 0.28529692 -0.16217305
0001a0 db 7f 70 3e 5b 80 3f be bf 50 c2 3e 03 e0 71 be
       0.23486273 -0.18701307 0.3795223 -0.2362061
0001b0 ec 5a 8d be e0 85 88 be da 8d d5 be ca 9c 86 be
       -0.2760843 -0.2666464 -0.41709787 -0.26291496
0001c0 09 22 b7 be 01 9d 3c 3e fa 3f 00 3e 1d e4 9d 3c
       -0.35768154 0.18419267 0.12524405 0.019273812
0001d0 f0 8c 84 bd 54 3e d8 be b0 a1 b6 be 2f a8 f2 be
       -0.06472194 -0.42235053 -0.35670233 -0.4739394
