firebase_ml_model.tflite (tflite, 256232 bytes, 8 tensors)

model_1/conv2d/BiasAdd/ReadVariableOp f4 [32]
000000 33 28 6a 3d f3 a4 7b bc 98 36 9c 3c 32 8d 21 bc
       0.057167243 -0.015359151 0.019069001 -0.009860324
000010 00 96 ba bc ef 17 4e 39 2f b2 f6 3b c0 74 d4 b6
       -0.022776604 0.00019654607 0.0075285654 -6.331684e-06
000020 1d 4e 67 3c 77 9d 24 3d e4 cf 09 3d b3 fd f4 bb
       0.014117745 0.040189233 0.033645526 -0.0074765324
000030 ac f8 16 3a 40 0d 0f 3b aa c2 0e bd bf 0f 87 bb
       0.0005759101 0.0021827966 -0.034853615 -0.00412175
000040 61 dd 14 3a 95 82 95 3c e9 25 dc 3b d5 db 26 3d
       0.000567874 0.018250743 0.0067183864 0.040736992
000050 66 3b 32 3c d0 b9 c0 3b 8b b9 a5 3c 16 cf 98 bb
       0.0108784195 0.0058815256 0.020230075 -0.0046633584
000060 c1 10 36 bc a8 e9 b6 3b 81 1c 1a 3d af 65 d3 ba
       -0.011112393 0.005582053 0.03762484 -0.0016128327
000070 17 29 d9 bb c3 f6 8e 3c 4c 7c 74 3c fd 6e e1 3c
       -0.0066272127 0.01745165 0.014922213 0.027518744

model_1/conv2d_1/BiasAdd/ReadVariableOp f4 [16]
000000 b8 4b c3 b9 a5 8f ed 3b 39 a0 ef 3b c1 ae 32 3d
       -0.00037249713 0.00724979 0.007312801 0.04362369
000010 a4 09 f6 39 07 4e 6d bb 1e 64 43 3c ba f6 59 3d
       0.0004692796 -0.0036209838 0.011925725 0.053213812
000020 6d 76 fe 3c 90 79 65 3c 61 7a e7 bc 23 fa 0b bd
       0.03106233 0.014006034 -0.028256597 -0.034174096
000030 67 c5 46 3d c7 a6 86 3c d8 54 89 3c 1f 16 86 3b
       0.0485281 0.016436948 0.01676409 0.0040919925

model_1/conv2d/Conv2D f4 [32, 5, 5, 1]
000000 d4 8c 9c 3c ad 5f b3 bd fa 0c 7f 3c 98 32 a4 bd
       0.01911012 -0.08758483 0.015567059 -0.080174625
000010 ab 08 28 3d 05 97 c1 3d 0a f8 39 3c 74 13 8b 3d
       0.04102389 0.09452633 0.011350641 0.0679082
000020 9b d8 89 bd e6 59 07 bd 4a 8f 94 bb d1 21 7e 3d
       -0.06730767 -0.03304472 -0.004533683 0.06204397
000030 a9 2e 80 bc 5f e1 b3 bd eb da 57 3c ff 3f a3 3d
       -0.01564725 -0.087832205 0.013174753 0.07971191
000040 b7 00 84 3d bc 44 9c 3d da d6 68 bc f9 ef 36 3c
       0.06445449 0.076302975 -0.014211381 0.011165612
000050 3c 71 ae 3d 6c b3 8b bd ae d9 8c 3d 61 8f 20 bd
       0.085176915 -0.068213314 0.068774566 -0.039199237
000060 98 a7 58 3c 12 1a 8a bc 32 15 91 bd ff e7 29 bd
       0.013223551 -0.016858134 -0.07084121 -0.041481014
000070 f1 97 e5 3c e0 f0 48 3c 87 33 0a bd e8 f5 27 bd
       0.028026553 0.01226446 -0.033740547 -0.041006
000080 fb 7c 97 3c 6c 34 08 bc c6 bf a1 bc 3b 0a a5 3d
       0.018492213 -0.00831328 -0.019744765 0.08058592
000090 c1 1f 93 bd e7 fe 83 bd f2 da 63 bc b5 e0 0d bd
       -0.07183791 -0.06445103 -0.013907181 -0.034638125
0000a0 ed bb 36 bc 0f 17 80 3c 82 ef a0 bc 05 59 c7 3d
       -0.011153203 0.015635995 -0.019645456 0.09733776
0000b0 a9 22 62 bd 65 62 be bc 5c 91 7d bd 65 07 27 bd
       -0.055208836 -0.023240278 -0.061906204 -0.040778536
0000c0 02 98 7a 3d d6 23 fc 3c 50 42 9e bd 47 ab ab bd
       0.061180122 0.030778807 -0.07727492 -0.08382278
0000d0 1d 5b 4f 3d d1 a3 53 3d 5e 3e a8 bd 58 41 2b bc
       0.050624 0.0516699 -0.082150206 -0.010452591
0000e0 8a 94 5e bd 7f c3 32 3d ab 31 c3 3b ae 43 51 bd
       -0.054340877 0.04364347 0.0059568486 -0.051089935
0000f0 8c f6 ed 3b ca be 8c 3d cd 36 96 bd 1d 0d 8e 3d
       0.0072620567 0.068723276 -0.07334671 0.06936095
000100 df 40 8b bc 5c df a7 bd 15 6c 93 bd 93 f0 8a 3d
       -0.016998706 -0.08196899 -0.071983494 0.06784167
000110 f8 d4 62 3d 05 32 cb 3c b6 53 50 bd f2 ca b3 3d
       0.055378884 0.024804125 -0.050861083 0.08778943
000120 94 30 a4 3d e7 33 d8 3c 90 f8 3a bc 03 7e 9f bd
       0.08017078 0.026391936 -0.011411801 -0.07787707
000130 65 b7 69 bd 6a bf ae bc 1e 1a 93 bd b6 80 65 bc
       -0.057059664 -0.021331508 -0.07182716 -0.014007738
000140 39 46 80 3c 4c 30 00 bc 0d 44 0e bc d8 c8 2f 3c
       0.015658485 -0.007824015 -0.008683217 0.010729037
000150 7f 3e a9 bd b8 c9 fa bc 8d 9d 06 3c 7f da 85 3c
       -0.08263873 -0.030613765 0.008216274 0.016339539
000160 ef ca 5a 3d b8 b0 32 bd da 98 0b bd 09 a1 a3 3c
       0.05341619 -0.043625563 -0.034081317 0.019974248
000170 fb 55 a5 bd 3e 2a 10 bd 14 a8 a6 bc 8b 53 68 bd
       -0.0807304 -0.035196535 -0.020343818 -0.056720298
000180 6b 73 de bc 6c cb 1e 3d fd 36 d6 bb eb 42 af 3d
       -0.027154645 0.038768217 -0.006537317 0.085576855
000190 e6 d3 05 bd ae fc 8a 3d 43 bd 3b bb 5e 5a 2a 3c
       -0.032672785 0.06786476 -0.0028646744 0.010397522
0001a0 d2 15 8d bd b3 df a3 bc 6d bf ae bc 46 4f 9d bd
       -0.068889275 -0.020004129 -0.021331513 -0.07681136
0001b0 7c b5 b5 bc 1b fa 41 bd 28 3b 20 3d cf a1 cc 3c
       -0.022181265 -0.04735766 0.039118916 0.0249795
0001c0 bb 7b 4d 3c 47 e6 10 3d a5 51 9a bd 57 62 50 3d
       0.012541707 0.03537586 -0.07535104 0.050875034
0001d0 b6 1d a7 3d b4 3e 03 3d 6f 0c a5 bd f1 a1 a5 3d
       0.08159964 0.03204222 -0.08059012 0.080875285
0001e0 ec 6b dc 3c 59 81 9c bc 41 32 d6 bc 1f 44 8e bd
       0.02690693 -0.019104647 -0.02614701 -0.06946587
0001f0 b3 07 24 bd c5 b9 8f bd 26 5c a7 bb 43 74 80 bd
       -0.040046405 -0.070178546 -0.0051074205 -0.06272175
000200 db ed 97 bc 8a cb 96 3d d4 bf 83 3d 07 8b b1 bd
       -0.018546036 0.07363041 0.06433073 -0.086690955
000210 57 07 8a bd ef 9e 57 3d 0b 58 a2 3d 31 de 3f bc
       -0.06739681 0.052641805 0.07926949 -0.011710689
000220 65 57 10 bb a7 24 a2 bb a0 fc 1e 3d 28 ec 1d bd
       -0.0022024747 -0.004948217 0.03881514 -0.038555294
000230 75 16 b7 bd fc 7c f2 3c 11 e3 01 bc 16 93 6e bd
       -0.0893983 0.029600613 -0.007927672 -0.05824574
000240 37 62 bd bb ed f3 b0 3c ec 08 27 3d c3 db c4 bd
       -0.0057795304 0.021600688 0.040779993 -0.09612229
000250 12 cf 94 bd 89 14 d6 3b ab 0d ca bb 91 65 e2 3c
       -0.07266058 0.0065332097 -0.00616618 0.027636321
000260 20 b7 ac 3c 66 dc 9d bd 24 8d 9b bb a9 d4 f5 bc
       0.021083415 -0.07708053 -0.00474705 -0.03000863
000270 10 f0 bb bd 2f b3 53 bd 35 90 84 3d d8 64 58 3c
       -0.09176648 -0.051684555 0.06472818 0.013207637
000280 71 91 4b bc fd 77 91 bb 00 1c 56 3d 74 30 82 bd
       -0.012424813 -0.0044393525 0.052272797 -0.06356898
000290 fa 40 40 3a dd c6 ca bc 61 69 8d bd 81 e9 49 3d
       0.0007333901 -0.024753029 -0.06904865 0.049294952
0002a0 5e fa 29 3d 52 c6 d9 bc 4c d1 20 3c 13 94 a6 bd
       0.041498534 -0.026583824 0.009815525 -0.08133712
0002b0 43 cb 79 3c cd c7 91 bd 33 36 e6 bb 06 80 f5 bc
       0.015246215 -0.07118187 -0.007025504 -0.029968273
0002c0 a3 dc a3 bd 9f 1b 11 bc 2d 67 a7 3c d3 55 ad 3c
       -0.080010675 -0.008856683 0.02043494 0.021159088
0002d0 bb 22 86 3d 89 60 bb bb 64 60 83 3c 02 61 ab bb
       0.06549593 -0.005718295 0.016037174 -0.00523007
0002e0 c0 68 82 3b af 2b 1a bd 23 87 36 bd 90 e2 69 bd
       0.0039797723 -0.037639316 -0.04456247 -0.057100832
0002f0 97 d5 a0 3a 8d 11 38 bd 57 02 34 3d 42 dd 2c bd
       0.0012270686 -0.044938613 0.043947544 -0.042203195
000300 fe fb 23 3d fe a7 50 3c 8c 25 62 3d a5 7d 74 3d
       0.04003524 0.012735365 0.05521159 0.059690136
000310 f8 88 6d bd 87 dd 92 bd 23 b3 60 bc 28 cd c6 bc
       -0.05799195 -0.07171159 -0.0137145845 -0.024267748
000320 20 68 4a 3a b0 93 99 3d 37 4c de bb 7c 4c 88 bc
       0.00077212043 0.07498872 -0.006783988 -0.016638033
000330 08 ec 70 bd e0 5a 26 bd 66 f9 72 3b 13 f1 79 3c
       -0.058818847 -0.04061401 0.0037074923 0.0152552305
000340 3f 44 1a bd 33 a8 44 bc 71 70 86 3c e4 61 a2 bc
       -0.03766274 -0.012002992 0.016411038 -0.019822069
000350 53 3b e5 bb fc ea 65 3d 4a 4c be 3c 0f f1 2e 3d
       -0.0069955974 0.0561323 0.023229737 0.04271036
000360 27 08 a8 bc 35 a0 89 bd 33 a2 94 bd b1 ca 4c bd
       -0.0205117 -0.0672001 -0.072574995 -0.04999799
000370 b2 41 1b bd da 43 2c bc 89 c5 8b bc c6 17 ff 3b
       -0.03790445 -0.010514224 -0.017061966 0.0077848164
000380 b9 19 32 3d 9e 66 e1 bc ea f6 12 bd 7e 33 a0 3d
       0.043481562 -0.027514752 -0.035880007 0.07822321
000390 34 37 7a bc 88 6f 8f bd 9e ab 01 ba b7 65 49 3d
       -0.0152719505 -0.07003695 -0.00049465324 0.04916927
0003a0 0a e0 e5 bb a7 5e 10 bd 40 6d 47 3d 3b fd 8b bc
       -0.007015233 -0.035246518 0.048688173 -0.017088523
0003b0 aa 8e 3d bd 55 25 b1 3d 95 04 75 bc d8 b7 53 3d
       -0.046278633 0.08649699 -0.014954706 0.051689
0003c0 47 a5 c8 3c 69 02 9c bc fc 6a 13 3d 93 88 b6 3b
       0.024492873 -0.019044118 0.0359907 0.00557048
0003d0 72 8c a6 bb 72 d8 60 ba 49 12 c3 3c bc 22 9c bb
       -0.0050826604 -0.0008577175 0.02381243 -0.004764883
0003e0 3d c0 00 bd e7 98 93 3d d8 f4 b0 bd 6e 27 79 3c
       -0.031433333 0.07206898 -0.0864045 0.015207155
0003f0 04 58 58 3d 7d 57 76 bd de 20 51 3d d6 ad a8 bd
       0.052818313 -0.06014203 0.051056735 -0.082362816

model_1/conv2d_1/Conv2D f4 [16, 3, 3, 32]
000000 d7 80 87 3d 97 75 e7 3d 5b 25 a3 3b 50 ce 8f 3d
       0.06616371 0.11301725 0.0049788184 0.07021773
000010 3f 77 1f 3c b2 04 80 bc ab aa d9 bd aa b3 b2 bd
       0.00973302 -0.015627239 -0.106282555 -0.087256745
000020 6f 37 90 3d 2e e7 48 3d 74 a3 74 bd 31 a6 e9 bd
       0.07041823 0.049048595 -0.059726194 -0.114086516
000030 1e b5 64 bd a5 3b a7 3d 9b 48 74 3d 5f f2 91 bd
       -0.05583679 0.08165673 0.059639554 -0.07126307
000040 56 34 c4 3d 14 5c 2f bd 0e 63 81 bc 05 4d f1 bd
       0.09580295 -0.042812422 -0.015794303 -0.117822684
000050 c3 f3 6c 3d 41 c8 c7 3d 02 66 81 3d 32 00 ea bd
       0.057849657 0.09754992 0.063182846 -0.114258185
000060 8c 88 0f 3c 56 75 c2 3d 91 77 9f bc 2b fc 26 bd
       0.008760583 0.09495036 -0.019466193 -0.04076783
000070 8d 5b d7 bd d8 f1 b9 3d 5f 48 5e bd 8a ff c6 bd
       -0.10515509 0.09079331 -0.054268237 -0.09716709
000080 85 fc 8c 3c d8 5e 9a 3d 3a 23 f3 3c 00 18 9e 3c
       0.017210254 0.07537621 0.029679883 0.019298553
000090 3f fc 66 bb 94 9e e2 bd 0a be 20 bd 32 18 80 39
       -0.0035245565 -0.110654026 -0.039243735 0.0002443209
0000a0 8d 02 24 3c 63 f8 af 3d 59 e3 c5 bc f8 2b 7e 3d
       0.010010374 0.08592298 -0.02415626 0.06205365
0000b0 6c 81 1d 3c 37 71 c2 bd f6 02 b4 bd 9f ac 67 bd
       0.009613376 -0.0949425 -0.08789627 -0.05656111
0000c0 de 85 ba bd cc ce 33 3d 44 6a f5 bb d8 35 15 3d
       -0.091075644 0.04389839 -0.0074894745 0.036428303
0000d0 30 0b f0 bb 4d 30 d7 3d 06 ec a4 bd 86 63 a7 3c
       -0.0073255524 0.105072595 -0.080528304 0.020433199
0000e0 e7 a0 e3 bd 5d cd b7 3d 3e a8 09 3c 35 c9 c2 bd
       -0.11114674 0.08974717 0.0084019285 -0.095110334
0000f0 3e 67 51 bd 22 78 ba 3b 75 56 f3 bd 09 79 e7 3d
       -0.05112385 0.0056905905 -0.11881725 0.113023825
000100 c8 34 70 3d 3f e0 a0 3d 9f 08 77 3c 6f 1a 9e bd
       0.058644086 0.078552715 0.015077739 -0.077198856
000110 b5 14 85 bd 77 c2 c3 3d 18 77 4e 3d da db 1a 3c
       -0.0649809 0.095585756 0.050406545 0.009451831
000120 e7 7b ec bb 26 8b 43 bd a2 88 05 bd 7c c0 a9 3d
       -0.0072169187 -0.047740124 -0.032601006 0.082886666
000130 51 8b dd bb 80 87 d2 bd b3 11 eb 3c d3 09 a1 bd
       -0.0067609926 -0.10279751 0.028694963 -0.07863202
000140 a4 2d d6 bd 3a e0 98 bc ce 59 a0 3d e0 49 6b 3c
       -0.10457924 -0.018661607 0.07829629 0.014360875
000150 56 b9 82 3d f1 6f ca 3d 33 70 dd bd 6c 40 39 bb
       0.06383006 0.098846324 -0.10812416 -0.0028267158
000160 4d ba 8f bd 4a 03 38 3c e6 08 59 3d c7 d4 da 3d
       -0.07017956 0.011231253 0.052987 0.10685115
000170 77 01 15 3d 44 7a af bb 9d b8 56 3d c1 92 7b bd
       0.03637835 -0.0053551514 0.052422155 -0.061419252
000180 d8 d0 76 bd 1a 41 bd bb 13 76 ac 3b 26 87 70 bd
       -0.060257763 -0.005775583 0.005263099 -0.058722638
000190 b0 6c 5e bd ba 69 05 bd 6c f3 d0 3c 0b 26 8b 3d
       -0.05430287 -0.03257153 0.025506698 0.067943655
0001a0 f4 33 ea 3d 62 c1 84 bd ca dc bf 3d 8c a9 2d 3c
       0.114356905 -0.06482197 0.09368284 0.010599505
0001b0 5a d2 f4 3c 34 a4 32 bd ce 36 7f bb 14 34 8a 3d
       0.02988546 -0.043613628 -0.0038942578 0.06748214
0001c0 da 85 10 bb ee ed c3 3d ad 08 8a bd 84 c7 7d 3d
       -0.0022052438 0.09566866 -0.06739936 0.06195785
0001d0 0d c4 32 3d e2 b6 cf 3d e5 19 a9 3c 85 b8 78 3d
       0.043644 0.10142304 0.02064223 0.060722847
0001e0 b5 5c 09 bd 85 d6 51 bd b0 a6 4b bd 9d 79 0b 3c
       -0.033535678 -0.051229972 -0.049719512 0.008512882
0001f0 5c c3 69 bd 4c d4 17 bd 17 07 de bc 31 03 74 3d
       -0.057071075 -0.037067696 -0.02710299 0.059573356
000200 51 2c 0b 3d 87 28 28 3c 07 a7 b9 bd 24 d2 e6 3c
       0.03397781 0.010263569 -0.09065061 0.028176375
000210 ff 82 ca bc c9 2e 02 bd 50 f0 af 3c cb 63 ba bd
       -0.024720667 -0.0317829 0.021476895 -0.09101065
000220 dc 95 e2 3d 2d 54 8f bd 83 f5 73 bd 74 42 49 bc
       0.1106374 -0.06998477 -0.05956031 -0.01228391
000230 4a 42 ee bc a6 d1 97 bc 6f 66 fd b9 d1 ca 9c bd
       -0.029084343 -0.018532585 -0.0004833224 -0.07655872
000240 f1 8e c2 3d f5 86 b6 bd a6 95 b8 bd 06 e8 17 bd
       0.0949992 -0.0891246 -0.09012918 -0.03708651
000250 dc 0d 56 bd cd ed f0 bc 4a c3 58 bd 4a 2f eb 3d
       -0.05225931 -0.029410267 -0.052920617 0.11483629
000260 ac 37 9b bd 77 06 13 bd 81 d3 b3 3d f4 99 05 3c
       -0.07578978 -0.035894837 0.087805755 0.008154381
000270 05 28 74 bd 53 25 bb bc 65 21 b9 3d 58 9d 64 bd
       -0.059608478 -0.022844946 0.090395726 -0.055814117
000280 37 60 9f bd 00 54 e7 bd 53 04 60 bd 5b 3c 57 3d
       -0.077820234 -0.112953186 -0.054691624 0.052547794
000290 61 1d 43 bb b5 5d a5 bd bc 39 b0 3d 65 e2 74 3d
       -0.002977215 -0.08074514 0.08604762 0.05978622
0002a0 d9 8e dc bd 13 98 cc bd a3 b9 42 bd 9d 8b a8 bd
       -0.107694335 -0.09989943 -0.04754032 -0.08229754
0002b0 6e ce ce 3d e6 2d a0 bd 29 02 eb bd d9 8a a5 bd
       0.10097967 -0.078212544 -0.114750214 -0.08083124
0002c0 49 0f 4e 3c 1f 4f 71 bb 0f 90 8e 3d f9 b0 4f 3b
       0.012576886 -0.0036820841 0.06961071 0.0031691177
0002d0 fa 49 69 bd 72 dd 34 3d 98 d1 9e bd c6 92 52 bb
       -0.056955315 0.0441565 -0.077548206 -0.003213094
0002e0 a2 e9 c8 3d ca aa 42 3b 02 23 86 3d 46 a7 d9 bd
       0.09810187 0.002970385 0.06549646 -0.10627608
0002f0 22 e1 d7 3c d0 36 c7 3d cb 97 0a 3d f9 3f 9f bd
       0.026352469 0.097272515 0.033836167 -0.07775874
000300 cc 0d 51 bd 52 20 06 bc 70 ef 85 3c 4e 54 3c bd
       -0.05103855 -0.008186417 0.016349524 -0.045978837
000310 c4 10 3c bd 43 52 90 bd 03 1d e8 3d d8 d2 47 bb
       -0.045914426 -0.0704694 0.113336585 -0.0030490663
000320 1e 69 33 3d 99 4e c9 3d ac cf 6c 3c 09 03 73 bd
       0.04380142 0.098294444 0.01445381 -0.059329066
000330 67 5c 15 bd 9a bd 29 bd 27 2d 1f 3c b9 6c e8 bc
       -0.036465075 -0.041440584 0.009715355 -0.028372156
000340 61 a0 75 bd 63 b0 97 3d c5 67 9f 3d c0 72 c1 bc
       -0.059967402 0.0740669 0.07783464 -0.023614287
000350 9a b6 de 3d 0f 32 99 bd e0 de d8 3d e5 0d 88 bd
       0.10874672 -0.07480251 0.10589385 -0.06643275
000360 27 aa 64 bd 9c 3a a8 3d 28 36 37 bd 0c eb 93 bc
       -0.055826332 0.08214304 -0.04472938 -0.018056415
000370 01 44 b0 ba d8 4d d6 bd 40 6d dc 3d b8 80 2f bd
       -0.0013448001 -0.10464066 0.10763025 -0.042847365
000380 73 aa d4 3d c3 b5 e4 3d 55 95 72 bd a1 72 3c 3c
       0.10384073 0.11167481 -0.059224445 0.011501939
000390 db b7 4c 3d 3e c3 fa bc 6f 71 49 bd 60 50 3a bc
       0.049980026 -0.030610677 -0.049180444 -0.011371702
0003a0 04 b7 d1 b9 c7 ad 01 3d 35 07 9a bd 8c 45 1d bd
       -0.00039999944 0.031659868 -0.07520906 -0.038396403
0003b0 b6 be b6 3c ce ba df 3d 50 62 31 bd 19 f2 cf 3d
       0.022307735 0.10924302 -0.04330665 0.10153598
0003c0 02 15 ba bd 05 86 31 3d f0 d5 b6 3d cf 9f be bd
       -0.09086038 0.0433407 0.08927524 -0.09307825
0003d0 00 79 a8 3d f2 87 d7 bd c2 6f e0 bd 6f 49 3c bd
       0.08226204 -0.105239764 -0.10958816 -0.04596847
0003e0 a2 88 5e 3c ed d3 f1 3c 2e 22 39 bd 1c d9 10 bd
       0.0135823805 0.02952 -0.045198612 -0.0353633
0003f0 12 ac 99 bd 8b 96 b9 bd 75 4c 81 bd c0 7d 8b 3d
       -0.07503523 -0.09061917 -0.06313411 0.06811094

model_1/dense/BiasAdd/ReadVariableOp f4 [60]
000000 5b c2 06 bc e0 28 96 3c 76 af 36 bc 56 b1 98 3b
       -0.008225049 0.018330038 -0.011150232 0.004659812
000010 94 10 e1 3b f9 fb a1 ba e7 ea 72 3c e8 d2 fb ba
       0.0068684313 -0.0012358419 0.014826513 -0.0019212635
000020 73 c6 8c bb 91 63 22 bc 2f df 61 bc d1 3a 80 3c
       -0.004296118 -0.009911434 -0.013786121 0.015653046
000030 c1 f2 da b9 fd 50 92 bc 76 b4 71 bc e0 35 f4 3b
       -0.00041761066 -0.017860884 -0.014752498 0.0074527115
000040 cc 46 cf ba cb f3 e6 ba ee 59 0d 3b d7 ab 8d 3b
       -0.0015813946 -0.0017620263 0.0021568495 0.0043234634
000050 6a 17 67 3c fe 9c c6 3c f1 44 92 bc 5e 81 2d 3b
       0.014104703 0.024244782 -0.01785514 0.0026474814
000060 ce c0 02 3c 0f fa 17 bb 66 9f c4 bb 97 b6 63 3c
       0.0079805385 -0.0023189818 -0.006000447 0.013898513
000070 46 03 0f 39 38 b3 af 3b 0f ee 89 bc 80 1b 35 3c
       0.00013638762 0.0053619407 -0.016837148 0.01105392
000080 6b 3a 41 bc 0d 9c d5 3b d5 7c 54 bc cc b3 f3 3b
       -0.011793713 0.006518847 -0.012969215 0.007437205
000090 b4 7e 68 3c 45 a6 71 3a aa 68 86 bc ab 11 50 3b
       0.014190365 0.00092181965 -0.01640733 0.0031748812
0000a0 10 58 cf 3c d4 91 84 bb 51 7b 97 bb 48 57 4d 3c
       0.025310546 -0.0040457044 -0.0046228548 0.0125330165
0000b0 3b 8d b1 bc eb 02 ca ba 3c 2f d4 3b d3 2d 6e 3a
       -0.02167379 -0.0015412247 0.0064753573 0.0009085808
0000c0 84 fa fe 3a c3 dd 79 bb 26 10 9e 3a e0 ed a8 ba
       0.0019453322 -0.0038126565 0.0012059256 -0.0012888275
0000d0 d1 65 f9 b9 8f 83 2a bc 72 ea 9f bb 81 75 79 bc
       -0.0004756884 -0.010407343 -0.004880243 -0.015225769
0000e0 65 4f bb 3c ff 20 9e 3c 05 6e 61 bb 4b 53 a2 bc
       0.022865007 0.019302843 -0.0034397852 -0.019815108

model_1/dense_1/BiasAdd/ReadVariableOp f4 [3]
000000 6b ea b5 ba c8 15 30 3d f1 fb 6e 3d
       -0.0013879066 0.042989522 0.05834574

model_1/dense/MatMul f4 [60, 960]
000000 51 7c 87 3d d1 b0 3d bd 3f 35 00 3d 90 93 05 bd
       0.06615508 -0.046311203 0.03130078 -0.03261143
000010 d8 ef 73 bd f0 db 97 3c 39 f4 64 bd ff 65 de 3c
       -0.059554905 0.018537492 -0.05589697 0.027148245
000020 0a 58 55 3d 64 e5 92 3c c1 35 41 bd 0d ba 85 bd
       0.052085914 0.017931648 -0.047170404 -0.06529627
000030 67 8e 67 bd ff 92 e8 3c 99 64 0f bd b4 c8 86 bd
       -0.05653229 0.028390406 -0.035008047 -0.0658125
000040 7c a9 33 3d b9 15 50 3d 6d aa d5 3c 9c 5b 9a 3d
       0.043862805 0.050801966 0.026082242 0.07537004
000050 a4 43 90 bd a9 75 02 bd aa 7c 64 bd be 67 89 3d
       -0.070441514 -0.03185049 -0.05578295 0.067092404
000060 de 36 26 3c f0 1a 92 3d 5f c8 7c 3d c0 f3 da bc
       0.010144917 0.07134044 0.061714526 -0.026727557
000070 ba e2 1b 3d 60 5f 72 bd 3c 4c 44 bd 94 37 6f bd
       0.03805802 -0.059172988 -0.047924265 -0.058402613
000080 f2 17 86 3d e9 4f 90 bb 97 4b 8d 3c c2 fe 21 3d
       0.06547536 -0.0044040573 0.017247958 0.039549597
000090 8b fd 8d bc 09 b7 c4 3b f9 2c 51 3d ed d9 9b 3d
       -0.017332813 0.006003265 0.05106828 0.076099254
0000a0 0e 74 09 bd e3 df 9b bd 51 93 95 bd af 1c 3a 3d
       -0.033557944 -0.076110624 -0.07303489 0.04543751
0000b0 4d e6 88 3d 8c 94 0b 3d 5c ad cd bc fd 39 0a bd
       0.066845514 0.034077212 -0.025107078 -0.03374671
0000c0 78 91 17 3d 6d 39 68 bd 4f 63 97 bb a5 cb ce bc
       0.037003964 -0.05669539 -0.004619993 -0.02524359
0000d0 ee 5e 26 3c df 9f 84 3d c6 ca b2 bb b9 60 64 3d
       0.010154469 0.064758055 -0.0054563014 0.055756304
0000e0 e7 d7 11 3d 19 2e f3 3c 68 92 e0 3a 20 21 7f 3d
       0.03560629 0.029685067 0.0017133476 0.06228745
0000f0 d0 93 70 3d e4 95 73 3d 2b 8d 6a bd 0e 56 c5 3c
       0.058734715 0.05946912 -0.057263535 0.024088886
000100 06 76 4c bd 4c e2 08 3d 79 36 28 3b 7f f0 99 3d
       -0.049917243 0.03341894 0.0025667234 0.07516574
000110 68 13 07 bd 8c 36 d5 bc 13 cd 8c bc e6 d4 38 bd
       -0.03297749 -0.026026987 -0.01718763 -0.04512491
000120 ba 4d 4b 3d 8b 46 81 bb a4 0f 97 39 6a e5 86 bd
       0.049634673 -0.003945177 0.00028812618 -0.06586726
000130 d5 3c 87 3d 1e af ab bc 49 88 4c bd 09 2a 6e 3d
       0.066034 -0.020957526 -0.04993466 0.058145557
000140 06 b4 8f bc a0 e1 80 3d d5 00 39 bd 9e 12 fc bb
       -0.017541897 0.062930346 -0.04516681 -0.007692649
000150 16 97 12 bd cb 46 15 bd 43 47 0a bd 21 04 fc 3c
       -0.035788618 -0.036444467 -0.033759367 0.030763688
000160 47 1c f2 3c 6b 31 0f 3d 5f 38 c2 bc 66 80 80 bd
       0.0295545 0.034959238 -0.02370852 -0.0627449
000170 91 2d 30 3d bd 7c 94 bd 33 9c 33 3c 4f 9a 27 3d
       0.043012206 -0.072503544 0.010962534 0.040918645
000180 94 e4 1d bd d9 2c 6c bc fc ba 18 3d 88 e8 fc 3c
       -0.038548067 -0.014414989 0.037287697 0.030872598
000190 b9 fd 6c bd eb 52 f4 3b 07 f2 40 bd 70 c0 6f 3d
       -0.057859156 0.0074561737 -0.047105815 0.058533132
0001a0 7c 0d c0 bc 28 d4 85 3d 43 10 01 3d 8c e8 89 bd
       -0.02344393 0.06534606 0.03150965 -0.06733808
0001b0 47 25 87 bd 71 5d 3c bd 11 31 82 bd e8 8c b8 bc
       -0.06598907 -0.04598755 -0.06357015 -0.022528127
0001c0 e4 99 6f 3d c4 af 15 3c 77 4f 85 bd 7b 3c 80 3d
       0.05849637 0.009136144 -0.06509297 0.06261536
0001d0 39 1c 75 bd 30 f9 14 bb 2a 9e 4a bd 00 e2 60 3d
       -0.05984137 -0.0022731535 -0.049467243 0.05490303
0001e0 ac 5e d0 3c 23 6a c4 bc fe 50 66 39 20 d6 47 bc
       0.025435768 -0.023976391 0.00021964681 -0.0121970475
0001f0 fa 09 21 bd 23 67 65 3d c1 8f 8a bd 02 b9 55 3c
       -0.039316155 0.056006562 -0.067657 0.013044598
000200 35 21 1e bd 8b e7 66 3d f1 53 08 bb c7 f9 43 bd
       -0.038605887 0.05637316 -0.0020801986 -0.047845628
000210 8e e7 bc 3b 8e 8b 30 3d 74 0c 93 3d 02 12 13 bc
       0.005764908 0.04310184 0.071801096 -0.008976461
000220 15 d0 1b 3c f9 c9 7a 3d 92 eb 87 bc 0f 76 84 bd
       0.00951006 0.061227772 -0.01659182 -0.064678304
000230 ed d1 13 3d 3b 3d b3 bb ac 71 75 ba 67 5e f9 3c
       0.036088873 -0.0054699457 -0.0009362947 0.030440522
000240 c7 0d 74 3d af f1 7a bc 96 9e 23 bd 08 0b 0b bc
       0.05958345 -0.015316411 -0.03994616 -0.008486517
000250 37 8e 2b 3d 5d e7 95 3c 70 cf 74 bd ac 4f aa bc
       0.041883674 0.0182988 -0.05976814 -0.020789944
000260 cd 7a 1b 3d 16 c4 83 3d da 1b 99 3d 9f b6 09 3d
       0.03795891 0.06433885 0.074760154 0.033621427
000270 4c 13 87 3d 49 8e 65 bd fa d6 83 3c c9 0c 0a 3c
       0.065954775 -0.056043897 0.01609372 0.0084259
000280 87 bd 8d 3d 29 29 1f bd 0f b5 37 bc 69 9b 9f 3c
       0.06920915 -0.038857613 -0.011212601 0.019483285
000290 df 51 12 3c f7 45 cd bc 15 4c 13 3d 0d 46 31 3c
       0.008930652 -0.025057776 0.03596123 0.010819924
0002a0 3a 25 dd bc 25 59 98 3d 04 2f 14 3c a5 3f 39 3d
       -0.02699529 0.07438878 0.0090444125 0.04522671
0002b0 aa 6b 8e 3d c1 37 83 bd ec 8e 6a bd 83 8d 5d 3d
       0.06954129 -0.064071186 -0.057265207 0.054090034
0002c0 2c 2b ca 3c 9d 68 99 bc 3a 26 85 bd 18 dd 06 bc
       0.02467879 -0.018726641 -0.06501432 -0.008231424
0002d0 fb b8 4f bd 16 4d 3a bd d8 e8 94 bd 74 91 d8 bc
       -0.05071352 -0.04548367 -0.07270974 -0.026436545
0002e0 b0 ec 26 bd 06 c9 33 3d 6b 19 b9 bc 17 5a 8e bd
       -0.040753067 0.043892883 -0.022595128 -0.06950777
0002f0 1e 77 3c 3d 57 d8 3a 3d 5b 0f 75 3c 87 85 18 3d
       0.046012037 0.045616474 0.014957274 0.037236717
000300 a5 3f 38 3d 90 22 b7 3c 64 e3 86 3d b7 b3 77 bd
       0.04498257 0.022355348 0.0658634 -0.060474124
000310 fe 1f 98 bb eb 6b cb bb 12 e6 46 3d 85 10 e8 bc
       -0.0046424856 -0.006207933 0.048559256 -0.02832819
000320 1c 5b 80 3d 61 c2 23 bd 65 b9 5d 3d a7 aa f3 bc
       0.06267378 -0.039980296 0.054131884 -0.02974446
000330 41 a4 99 bc b6 9b 35 bd 13 a6 96 3d 2f 02 83 3d
       -0.01875508 -0.04433795 0.07355895 0.06396901
000340 64 ad 06 3d 49 17 17 3d e1 ad 1a 3b 18 d9 8f 3d
       0.032880202 0.03688744 0.0023602175 0.07023829
000350 c5 2f 17 3d ad 41 57 3d fd db 12 bd 59 54 32 bd
       0.03691079 0.052552868 -0.03585433 -0.04353747
000360 11 24 7a 3d 99 39 6e 3d 93 3d 87 bd 8c 23 92 3d
       0.06106955 0.0581604 -0.06603541 0.07135686
000370 3e f2 87 3d c0 f4 38 bb c9 10 73 3d a6 5f 02 bd
       0.06638001 -0.0028222054 0.05934218 -0.0318295
000380 96 5d 46 3d bc 4c bd bc 0f 79 9a 3d 9f b4 fc bc
       0.048429094 -0.023107879 0.07542621 -0.030847846
000390 41 e5 6b bc 8f 8b 95 3d 4c 7d 54 3d ae d4 89 3b
       -0.01439792 0.07302009 0.051877305 0.0042062616
0003a0 03 05 88 bd 81 b6 99 bd 32 8b 79 3c de 9b a8 3c
       -0.06641581 -0.07505513 0.015230941 0.020582136
0003b0 da 0c d1 3c 57 e6 8e bd 11 be bc bc 97 ba 9a 3d
       0.025518823 -0.069775276 -0.02303985 0.075551204
0003c0 70 5f 14 bd 76 32 47 3d 6c a6 e4 bc a2 5f 51 3d
       -0.03622383 0.048632108 -0.027911387 0.051116593
0003d0 d9 e0 10 3d 56 66 59 3d 44 da 16 3c ca 70 0c 3d
       0.03537068 0.05307611 0.009207312 0.03428725
0003e0 d6 4c f0 3c 64 d8 09 3d be e1 44 bd d6 ee 7a ba
       0.029333513 0.03365363 -0.048066847 -0.00095723325
0003f0 80 78 3e bd 53 5a c4 bc 1c 36 32 3a 08 09 ac bc
       -0.046501637 -0.023968851 0.0006798224 -0.0210004

model_1/dense_1/MatMul f4 [3, 60]
000000 23 f6 7a 3e 0f ca 97 3e b3 88 40 be 7a 6f 12 be
       0.24507956 0.29646346 -0.18802147 -0.14300337
000010 6f 42 43 be b3 b1 65 3d c1 9e 0d 3e 87 4a 9f be
       -0.19068311 0.05607767 0.13830091 -0.31111547
000020 c1 d4 3b 3e 1c ee 43 3c ab 29 84 be b9 8d 85 3e
       0.18342878 0.011958625 -0.2581304 0.26084688
000030 dd 7b 6d be d4 17 a4 bd 10 e8 62 bd f2 2e 88 be
       -0.23191781 -0.08012357 -0.055397093 -0.26598316
000040 a1 82 6f be ba 35 8d 3e 8b 7c 2e 3a 9b 12 75 bd
       -0.23389675 0.27580053 0.00066561316 -0.059832197
000050 b7 f6 80 3e 24 0d c3 3c f9 6a 08 be bf 56 76 3e
       0.25188228 0.023809977 -0.13322057 0.24056529
000060 43 26 c8 bd ad ed 9c 3e 7f dd 18 be 97 97 50 3e
       -0.09772923 0.30650082 -0.14928244 0.20370327
000070 e4 b1 11 be e7 a5 0a be c1 31 b3 bd 53 f2 21 bd
       -0.14228016 -0.13539849 -0.08749724 -0.03953774
000080 8c d9 8b be ea 2a d4 3c f5 d1 3f 3e 5b a9 64 be
       -0.27314413 0.02589937 0.18732436 -0.22330229
000090 bf 31 23 bd 50 7f 16 3d 2b 72 86 3d 26 d8 88 be
       -0.039842363 0.03674251 0.065647446 -0.26727408
0000a0 da 08 a2 bd 81 b0 52 be 26 9d 47 3e 73 15 61 be
       -0.079118446 -0.20575143 0.19493541 -0.21980838
0000b0 46 0d 42 3e 6a e7 64 be 8b 65 88 be 0d 93 7d 3e
       0.18950376 -0.22353902 -0.2663997 0.24763127
0000c0 9c 55 44 3e db 75 d5 3d 59 66 f7 bd 6d 14 0c bd
       0.19173282 0.1042287 -0.12080068 -0.034199167
0000d0 ba c3 91 be a9 94 88 3e c2 7a 8c be 55 9b 5f 3e
       -0.2846964 0.2667592 -0.27437407 0.21836598
0000e0 ef a4 9a 3e 22 89 a2 bd 68 f1 86 3e ce 40 31 bd
       0.3020396 -0.07936312 0.26356053 -0.043274693
0000f0 87 f9 1e be 91 8f 40 3e 53 cc 03 3e cd f0 a4 bd
       -0.15524875 0.18804766 0.12870912 -0.080537416
000100 a9 99 93 3e e1 d9 03 3e 4d 63 0e 3e 9b 6a ca 3d
       0.2882817 0.12876083 0.13905068 0.09883615
000110 5f d2 31 be 83 f7 53 be b9 99 0d bd 97 cd b0 3d
       -0.17365406 -0.20699887 -0.03457043 0.08632963
000120 32 f2 07 be ff c0 7e be f2 3e 93 be 57 9f 1c be
       -0.13275984 -0.2487831 -0.2875896 -0.15295158
000130 bf e8 97 3e 2b 78 04 bc ae 31 70 bd 38 4e b9 3d
       0.2966976 -0.008085291 -0.05864113 0.09048122
000140 0f c9 8b 3e cf 92 36 3e 08 2b 38 bd 9c ac 5a bd
       0.27301833 0.1782944 -0.044962913 -0.05338727
000150 8a af 63 3e 2c 56 4a 3e e1 f8 07 3d 6d 8f 98 3e
       0.22234932 0.19759434 0.033196334 0.29796925
000160 c1 05 9f bd 07 97 8e be 21 62 47 be 7c 01 0b 3d
       -0.07764769 -0.278496 -0.19471027 0.033936962
000170 44 b8 b8 3b fe 09 e7 3d 82 82 f3 bc 98 9f 7d be
       0.0056372005 0.11281203 -0.029725317 -0.24767911
000180 d9 d3 32 3e a8 1a 09 bd b7 02 0c bd a0 ec 30 be
       0.17463626 -0.033472687 -0.034182277 -0.17277765
000190 8b 01 85 3e 94 2f 88 bd b0 f0 37 3d 5e 77 ce 3d
       0.2597774 -0.066497 0.04490727 0.10081361
0001a0 7b 95 90 be c2 75 93 be c0 d0 20 be 0d 16 a0 3e
       -0.28239045 -0.2880078 -0.15704632 0.31266823
0001b0 76 27 15 be 5f 49 f0 bd aa 33 22 3e 17 21 35 3e
       -0.14565834 -0.117327444 0.15840021 0.17688404
0001c0 ce c0 ba bd 15 a5 1a 3e 7f 14 9e be dd ca 9a bd
       -0.09118806 0.15102036 -0.30875012 -0.07558224
0001d0 36 cf 69 3e a5 93 36 3e 45 a0 08 be d0 35 9f be
       0.22832951 0.1782976 -0.13342388 -0.31095743
0001e0 f1 81 0f bd cf 80 70 3e b2 16 96 be 24 f8 eb 3d
       -0.03503603 0.23486637 -0.2931419 0.115219384
0001f0 fa b7 d2 bd af 17 dc bd d7 fa 40 3e cb 0c 11 be
       -0.10288997 -0.10746705 0.18845688 -0.14165036
000200 d6 98 7b 3d 43 96 18 bd f3 87 8f be 95 31 a0 3e
       0.061425053 -0.037252676 -0.2803341 0.31287828
000210 d7 ad 95 3d 2b 6d 30 be 1b ce 78 bd bb 2c 63 3e
       0.07308548 -0.17229144 -0.060743432 0.22185032
000220 64 78 7e be 26 2d 03 bc 12 bd 9f 3d 92 9f b2 3c
       -0.24850613 -0.00800637 0.07799734 0.021804605
000230 0b cf b9 3d 23 d5 94 3e e4 f1 9e be c0 74 a7 3d
       0.090726934 0.2906886 -0.31043923 0.08176565
000240 17 1f 46 39 9b d7 54 be 65 3b 15 be 79 8d 0e 3d
       0.00018894333 -0.20785372 -0.14573438 0.034802888
000250 04 a3 4d 3d 2c 9d 96 3e 76 ac 29 be 83 ca 26 3e
       0.050204292 0.29416788 -0.16569695 0.1628819
000260 81 3b 8e be 7f 83 35 3d c2 9b 44 be 4e 00 9c 3e
       -0.27779773 0.044314858 -0.19200042 0.30468982
000270 87 c8 01 3e 2f 2b f8 3c 25 70 82 be 5a 65 35 3e
       0.12674151 0.030294029 -0.25476184 0.17714444
000280 1f 4b 85 3e 9d 74 d8 bc af 01 e4 bd 43 4f 04 3e
       0.26033875 -0.026422793 -0.111331336 0.12920861
000290 43 46 2c be f9 e2 2b 3e db e1 5b 3e 42 d7 35 be
       -0.16823678 0.16785802 0.21472876 -0.17757896
0002a0 6b 97 20 3e 87 15 f4 3c a7 0b ca bd 73 f1 21 be
       0.15682761 0.029795421 -0.09865504 -0.15814762
0002b0 72 82 8d 3d 14 3a 8f be 31 ad d0 3d 86 8c 3d be
       0.06909646 -0.27973998 0.10189284 -0.18510637
0002c0 42 b0 62 3e 18 bd 69 3e 61 5c 35 3d 11 47 10 be
       0.2213755 0.2282604 0.044277553 -0.1408961
