firebase_ml_model.tflite (tflite, 10796 bytes, 6 tensors)

sequential/dense_2/BiasAdd/ReadVariableOp/resource f4 [2]
000000 49 38 b5 3c 3d 38 b5 bc
       0.022121565 -0.022121543

sequential/dense_1/BiasAdd/ReadVariableOp/resource f4 [60]
000000 68 60 8e bd e9 a5 30 3d 62 4c 3a 3e 36 b7 88 be
       -0.06951982 0.043126974 0.181932 -0.2670228
000010 ce 47 86 be ec b4 63 3d 2b 62 28 bf 0b 36 8b 3d
       -0.26226658 0.055592462 -0.6577479 0.06797417
000020 46 ac f2 bd 31 6a d2 bd 1a 4a 78 3e b9 c3 44 bc
       -0.11849265 -0.10274161 0.24247018 -0.012009555
000030 25 5e b0 3d a5 6c e5 bd fe 20 fe be 19 96 39 be
       0.08611707 -0.11202363 -0.49634546 -0.18123664
000040 86 7e 90 bd fc 30 fd bc 77 bf bf bd 8b 32 97 3d
       -0.070553824 -0.030907147 -0.09362691 0.07382687
000050 f6 df cb 3c 30 21 04 be 68 4e 14 3e 16 37 00 3e
       0.024887066 -0.12903285 0.14483035 0.12521014
000060 db 77 cb 3e b2 6c c3 be a6 c7 ee 3c e4 d9 38 be
       0.3973988 -0.38168865 0.029147934 -0.18051869
000070 cb 7e 7b 3d 70 83 48 3f 83 c5 2d bf 11 5c a8 3c
       0.061400216 0.7832556 -0.67879504 0.020551713
000080 84 f7 f1 bc c5 1f a2 3e c2 51 14 3e f0 b3 a0 bd
       -0.02953697 0.31664863 0.14484313 -0.0784682
000090 2c 1d c0 3d b2 66 b5 3d b7 f9 91 bd 5a de 8e 3e
       0.09380564 0.08857478 -0.071277075 0.27904016
0000a0 6b 05 5b 3e f1 a5 cb bc 82 4e a3 be 17 1b 96 bd
       0.21388786 -0.0248594 -0.31895834 -0.07329386
0000b0 e5 f4 7d 3d 42 b3 a1 3d 4d 0f 4b 3e 6e c8 21 3e
       0.062001128 0.07895519 0.19830056 0.15799114
0000c0 57 4d 16 3f 3a 52 dc bd 9f dc 01 be f3 5a ef bc
       0.5871176 -0.10757871 -0.12681817 -0.029218173
0000d0 cd 88 6e 3d 78 ab ab bd 4a 38 42 3e d0 ee 11 be
       0.058235932 -0.083823144 0.18966785 -0.14251256
0000e0 9e cd e9 3d c3 b6 31 3d c5 ff 11 3d 04 e8 d9 3e
       0.114161715 0.043387186 0.03564431 0.42559826

sequential/dense/BiasAdd/ReadVariableOp/resource f4 [20]
000000 e8 ab 7b 3e 8b 43 b9 be db a2 dc bc 34 09 1c be
       0.24577296 -0.36184344 -0.026933124 -0.15237886
000010 4e b0 80 be 70 c5 8c be 76 08 9c 3e 60 49 b3 be
       -0.2513451 -0.27494383 0.30475205 -0.35016918
000020 69 60 42 3e 85 47 b6 be 9f ea a5 be 32 a7 45 be
       0.1898209 -0.3560144 -0.32405564 -0.19302061
000030 15 cf d0 be c7 d0 17 3f 8a 43 c2 be 4d d0 be be
       -0.4078299 0.59302944 -0.37942153 -0.37268296
000040 6a b0 b2 be b9 da 81 bd 80 27 d1 be 94 7f c3 be
       -0.34900218 -0.06340546 -0.4085045 -0.38183272

sequential/dense/MatMul f4 [20, 40]
000000 b4 a9 a2 bf d6 3a 91 bf 19 1d 6c bf 4a 66 b1 bf
       -1.2708039 -1.134608 -0.922319 -1.3859341
000010 35 da b9 bf 30 5b 93 bf 63 51 fa be 87 b3 57 be
       -1.4519717 -1.1512203 -0.48890218 -0.21064578
000020 5f b8 80 3e d7 6c c7 3e 45 5d b6 be 05 08 62 bf
       0.25140664 0.38950226 -0.35618034 -0.88293487
000030 75 1d b6 bf b3 07 6a bf e3 86 65 bf 81 a2 1b bf
       -1.422774 -0.91418 -0.89658946 -0.60794836
000040 6b 9e 2b bf fe 67 52 be 2b a8 f7 be ed 82 83 bf
       -0.670386 -0.20547482 -0.4837049 -1.027433
000050 8b cd 87 be 0b fe 1e 3f 85 8a 0f 3f 29 87 45 3e
       -0.26524004 0.6210639 0.5607074 0.19289841
000060 4f cb 75 3c fb 13 0c 3e 9f ef 45 3f 65 68 81 3f
       0.015002086 0.13679497 0.7731876 1.0109984
000070 49 52 a8 3f 25 ff 95 3f da 63 90 3f ed d3 9d 3f
       1.3150111 1.1718489 1.1280472 1.23303
000080 32 c4 a0 3f e8 f8 9c 3f 1a 94 43 3f 1a 06 19 bf
       1.2559874 1.226346 0.7639786 -0.59774935
000090 29 28 f6 be bb 09 15 3f 34 f4 92 3f 95 6f 31 3f
       -0.48077515 0.5821797 1.1480775 0.69310886
0000a0 aa 57 8c 3f 67 84 82 3f 95 2e 82 3f 39 c9 aa 3f
       1.0964253 1.0196656 1.0170466 1.3342658
0000b0 ed 3b 81 3f e7 f4 b2 3f 3a 1d 42 3f 10 8c 0d 3e
       1.0096413 1.3980988 0.75825846 0.13822961
0000c0 2a c6 c4 be 2d b4 58 be 39 3c 63 3f e6 10 70 3f
       -0.38432437 -0.21162482 0.8876377 0.93775785
0000d0 45 b0 81 3f 44 d4 9e 3f 6e 6d 6a 3f d7 4f 2e 3f
       1.0131918 1.2408528 0.91573226 0.68090576
0000e0 dd 8c 26 3f 42 8b 02 3f 9d c9 22 3f 8f b3 93 3f
       0.6505869 0.5099374 0.6358889 1.1539172
0000f0 b0 9d f4 3d 86 4e 60 bf a3 92 3e bf d3 42 d8 be
       0.11944139 -0.8761982 -0.744425 -0.42238483
000100 c3 12 d5 bd 6a 51 b2 be ee d3 2e bf 16 5e 49 bf
       -0.10403969 -0.3482774 -0.6829213 -0.7865919
000110 de 91 9e bf de 54 75 bf 6b 89 6e bf 46 99 60 bf
       -1.2388265 -0.9583262 -0.93178433 -0.87733877
000120 34 08 7e bf a6 39 14 bf 81 f3 2a bf dc 5d 2c 3f
       -0.99231267 -0.57900465 -0.6677781 0.6733072
000130 fb 4f ae 3e 57 d2 14 bf a2 5e 84 bf 4e 7c 21 bf
       0.34045395 -0.58133453 -1.034138 -0.630803
000140 44 84 99 3f bc 96 ad 3f f3 54 99 3f 1c 7b b5 3f
       1.1993489 1.3561625 1.197905 1.4178195
000150 3b cb de 3f 0d 68 d3 3f 93 9f 1f 3e ed 1f b3 bd
       1.7405771 1.6516129 0.15588216 -0.08746324
000160 bf 53 fc bd 99 d3 94 be 82 1e e9 3e 6c 98 92 3f
       -0.12320661 -0.29067686 0.45531088 1.1452765
000170 78 46 c7 3f 8a 24 85 3f 54 02 84 3f fd ae 6b 3f
       1.556838 1.0401776 1.031321 0.92063886
000180 bc 72 d6 3e 4d 8d 3c 3f 78 34 5b 3f af 67 ba 3f
       0.4188441 0.7365311 0.85626936 1.4562892
000190 48 68 3e 3f 9f 05 13 bf 84 e9 15 bf d3 c9 7c be
       0.7437787 -0.5743045 -0.5855944 -0.24686365
0001a0 60 e3 97 be 72 46 a5 be e5 73 76 bf cb 26 83 bf
       -0.2966566 -0.32280308 -0.9627059 -1.0246214
0001b0 6e 05 9f bf 08 ba 9f bf 6b 9e a9 bf 5e 3f b1 bf
       -1.2423532 -1.2478647 -1.325147 -1.3847463
0001c0 d3 83 a5 bf 72 62 97 bf 47 f5 b8 bf 39 a7 be bf
       -1.2930855 -1.1826918 -1.4449853 -1.4894782
0001d0 2d 01 a9 bf eb 07 b0 bf 41 37 5c bf f3 8e 2a bf
       -1.3203484 -1.3752416 -0.8602181 -0.66624373
0001e0 dc 22 ce 3e 7e 4c 11 3f 1e 47 19 3f 7b a5 eb 3e
       0.4026097 0.5675734 0.5987414 0.4602469
0001f0 50 f3 17 3f a8 2c 52 3f 17 d0 b9 be ce 5a 41 3e
       0.5935564 0.8209939 -0.36291572 0.18882295
000200 23 8e 65 be 9c 45 08 3d 9b 1a f7 bd b8 79 87 3e
       -0.22417502 0.03326951 -0.120656215 0.26460052
000210 15 c5 20 3f 20 43 a5 3e da b8 98 3e 3f de a3 3e
       0.62800723 0.32277775 0.2982853 0.32005498
000220 33 e2 c6 3e 90 3e 82 3e 9a c3 35 3d 70 87 6a 3e
       0.3884445 0.25438356 0.044375993 0.22903228
000230 17 ce 86 be f2 86 77 be 8e 2f 52 be 68 8e 2d 3e
       -0.2632911 -0.24172571 -0.20525953 0.16948855
000240 bf f4 8e bb c7 8d 90 be 4d dc c2 bc c0 0d f7 be
       -0.004362672 -0.28233168 -0.023786688 -0.48252678
000250 04 8f 51 bf de 42 09 bf 2f b1 87 be d9 67 29 bf
       -0.8185885 -0.53617656 -0.26502368 -0.66174084
000260 ad 7a 30 bf eb 54 cd be ff ff e3 be 2a 12 d0 3e
       -0.6893719 -0.4010385 -0.44531247 0.40638858
000270 6b 52 60 3e 3f 6e 9d be 80 c3 c8 be a7 bf 2b be
       0.2190644 -0.30748174 -0.39211655 -0.16772328
000280 37 34 b3 3f bb 4b 82 3f 50 cf 73 3f 9d 1d b3 3f
       1.400031 1.0179361 0.9523821 1.3993412
000290 ee 41 b1 3f c1 c5 8d 3f ff 47 4e 3f 7c 8e df 3d
       1.3848245 1.1075975 0.8057861 0.109158486
0002a0 b8 16 2e bf cd d3 50 3d 0e 2c 39 3f 4f 14 99 3f
       -0.68003416 0.05098324 0.7233285 1.1959323
0002b0 49 9d 80 3f 53 2a a7 3f bb 44 4a 3f 8f cc ef 3e
       1.0048 1.3059791 0.79011124 0.46835753
0002c0 7f 6b 82 3e 47 6a 05 3f b5 be 17 3f 64 13 5d 3f
       0.25472638 0.5211529 0.5927537 0.8635771
0002d0 3a 6a 93 3e 86 b1 6a bf 44 8a 1a bf 1a cc b7 3c
       0.28791982 -0.9167713 -0.60367227 0.02243619
0002e0 25 7f 2e bb 7c 61 59 be 16 16 06 bf ae 81 6c bf
       -0.0026626077 -0.21228594 -0.5237745 -0.92385375
0002f0 dc 31 92 bf 2a be 55 bf 74 36 8c bf cd 90 0b bf
       -1.1421466 -0.8349329 -1.0954118 -0.54517823
000300 cd 28 2b bf c4 52 75 bf 6d 57 5d bf 8d 05 3e bf
       -0.6685913 -0.95829415 -0.86461526 -0.7422722
000310 29 3d 8c bf e2 e6 91 bf 58 c1 0c bf 2b 6f 52 bf
       -1.0956165 -1.1398585 -0.5498252 -0.8220088
000320 42 98 ac 3f c2 68 b4 3f 94 88 81 3f 27 f5 be 3f
       1.3483965 1.409447 1.0119805 1.4918565
000330 f5 4a 7e 3f ac 30 8e 3f ef 07 52 3f c3 f7 45 3d
       0.99333125 1.1108603 0.82043356 0.048331987
000340 1b e1 0a bf 2e 29 4a 3e 71 28 95 3f ba 9c 9a 3f
       -0.54249734 0.19742271 1.1652967 1.2079079
000350 32 ec be 3f df 71 87 3f 0d f9 8f 3f a5 e5 54 3f
       1.4915831 1.0581626 1.1247879 0.8316291
000360 51 59 2c 3d 06 04 60 3f 52 19 a7 3f 7f 61 c9 3f
       0.042077366 0.8750614 1.3054602 1.5732878
000370 65 47 f0 3d 5a 2f 53 bf 71 2a 66 bf 53 46 36 bf
       0.117323674 -0.8249413 -0.8990851 -0.71201056
000380 d8 46 81 bf 93 f4 5d bf 1a 11 68 bf e2 44 82 bf
       -1.0099745 -0.86701316 -0.90651095 -1.0177271
000390 83 cc 68 bf d2 0e af bf 7e 85 90 bf b7 0d 88 bf
       -0.9093706 -1.3676398 -1.1290739 -1.0629185
0003a0 5f 6a 71 bf 5d 62 96 bf 2d b3 1b bf fe 45 4b 3f
       -0.94302934 -1.1748768 -0.60820276 0.79403675
0003b0 9f f4 16 3f 01 5f a5 bf 14 9e 7a bf f6 65 5d bf
       0.5896701 -1.2919618 -0.9789746 -0.86483705
0003c0 6b b3 cf bf db cc 9b bf e9 aa ca bf 0e f4 b8 bf
       -1.6226629 -1.2171892 -1.5833408 -1.444948
0003d0 fd b6 be bf 47 6f b1 bf 52 17 05 bf a6 94 c3 3c
       -1.4899594 -1.3862084 -0.5198871 0.023874592
0003e0 77 94 0e 3f 96 a7 8d 3e 8b 56 75 bf b8 c3 b2 bf
       0.5569529 0.2766692 -0.9583518 -1.3965979
0003f0 c5 48 a4 bf f1 7a c8 bf ba b4 a5 bf 82 1b 84 bf
       -1.2834707 -1.5662519 -1.2945778 -1.0320895

sequential/dense_1/MatMul f4 [60, 20]
000000 e9 1c 62 bd 74 83 80 3d 87 52 17 3e 30 01 1f bd
       -0.055203352 0.06275073 0.14777575 -0.038819492
000010 a7 ea d5 3e a7 33 09 3d ac 9d de be f3 b7 85 bd
       0.41780588 0.033496525 -0.4347967 -0.06529226
000020 c2 5a 42 be ba 12 b2 3e eb 7b 86 3e 05 6e ce 3e
       -0.18979934 0.34779912 0.26266417 0.40318313
000030 d1 02 9f 3e e2 83 64 3d d3 bf bc 3e e3 bc 49 3e
       0.31056836 0.055789836 0.368651 0.19700961
000040 de 4a e9 3d 55 b0 af 3e 75 b1 89 bd 40 b7 a1 3e
       0.11391233 0.34314218 -0.067233 0.3158512
000050 d5 18 1b 3e 90 f1 67 be c3 43 c5 be d2 be 08 3e
       0.15146191 -0.22650743 -0.3852826 0.13354042
000060 c6 de c7 bd e3 1a 5a be 10 5c 09 3e 67 92 b6 bc
       -0.097592875 -0.21299319 0.13414025 -0.022286607
000070 56 8e 3b 3e 46 dd 50 bb 42 27 f2 bd 81 bb 91 be
       0.18316016 -0.003187017 -0.11823894 -0.28463367
000080 4a c0 ab be 18 a7 eb 3c b6 d0 83 be 0f ca f8 be
       -0.33545142 0.0287662 -0.2574517 -0.48591658
000090 55 d1 ef be 4c 82 2b 3c ad 7b be 3d 3a f1 97 be
       -0.46839395 0.010468077 0.09300933 -0.2967623
0000a0 5b 90 0c 3f 37 53 0b be 8a cc 74 be 01 b1 69 bd
       0.5490777 -0.13605963 -0.2390615 -0.05705357
0000b0 96 bb e4 be f9 39 fe be 4d 59 a5 3e 6b 50 8f be
       -0.44674367 -0.49653605 0.32294694 -0.27991042
0000c0 05 08 44 3f 81 10 88 be ca f3 fd be ed ce 6b be
       0.76574737 -0.2657509 -0.4960006 -0.23028155
0000d0 b4 f3 01 bb d7 01 8f 3e 25 0d 61 be 85 4e c9 be
       -0.0019829096 0.2793109 -0.2197767 -0.39317718
0000e0 88 27 f0 be 2f 88 9b be 07 4c 91 be 7d 10 5c be
       -0.4690516 -0.30377337 -0.28378317 -0.21490665
0000f0 07 61 22 bf 0f 30 74 3e 03 96 f2 3e 18 ac 13 3d
       -0.634293 0.23846458 0.47380075 0.036052793
000100 98 94 33 3f 49 2b 42 3f bb 5b 53 bf 35 1a 5d 3e
       0.7014861 0.758473 -0.82561845 0.21592028
000110 b1 3d 63 bf a6 f4 18 3f e7 2a 50 3e 3c 5a e4 3e
       -0.8876601 0.59748304 0.20328866 0.44600093
000120 e4 95 a9 3e ed d5 0e bf 67 32 b4 3e 3c 4c 7a 3e
       0.3312217 -0.55795175 0.35194704 0.24443144
000130 6d aa 10 3e ac 0c f0 3e bb 36 f8 3e 99 c6 95 3e
       0.14127512 0.46884668 0.48479256 0.2925308
000140 21 5a 3e bf 65 df 32 3e fa ec 05 3f 80 73 10 3e
       -0.74356276 0.17468031 0.5231472 0.1410656
000150 31 ee cf 3e 9c 55 1f 3f 55 24 58 bf 79 f3 9f 3e
       0.40611413 0.62240005 -0.8443044 0.31240442
000160 4e 76 4a bf e5 9a ff 3e c6 75 6e 3e 14 12 28 3f
       -0.7908677 0.49922863 0.23287115 0.65652585
000170 4d 85 89 3e fd a4 e6 be 0d f6 e5 3e e1 e2 83 3e
       0.26859513 -0.4504775 0.44914284 0.25759032
000180 1b d7 0c 3f 71 c8 94 3e 6f 36 95 bb 04 0b ee 3e
       0.55015725 0.29059175 -0.004553608 0.4649278
000190 f1 d5 c4 3e 51 d0 6f bd 28 2f 59 be 4c b6 df bd
       0.38444474 -0.058548275 -0.21209395 -0.10923442
0001a0 d5 08 8f be b5 57 0f bf c1 a0 e6 3e 26 fd b9 be
       -0.27936426 -0.55993205 0.4504452 -0.3632595
0001b0 37 09 b2 3d 2e 2f 27 be d9 72 3c bd b8 ba 26 be
       0.08693164 -0.16326591 -0.046007965 -0.16282165
0001c0 3d 44 7e be 89 3d 91 bd da 02 b3 be 46 13 de 3c
       -0.24830718 -0.07091815 -0.34963113 0.0271088
0001d0 9f de cb be 18 32 75 3b 66 63 06 be d8 94 81 bd
       -0.39818284 0.0037413891 -0.13123855 -0.06327218
0001e0 e6 b3 80 bf 55 7e 2e 3f 1e 3a 6b 3f ad 89 32 bd
       -1.0054901 0.6816152 0.91885555 -0.04358833
0001f0 e1 16 2b 3f 7f ed 36 3f 2b 01 97 bf 40 bf 22 3f
       0.66831785 0.7145614 -1.1797231 0.63573074
000200 e0 4b ac bf 77 32 43 3f 36 84 5c 3f bd 5e bc 3e
       -1.3460655 0.7624888 0.8613924 0.3679103
000210 03 5a 00 3f 32 c7 79 bf 79 ab 80 3e a3 77 25 3f
       0.50137347 -0.9756957 0.25130823 0.64635676
000220 92 ef d0 3e 75 b9 71 3f 55 a6 c9 3e 82 4a 07 3f
       0.40807778 0.9442361 0.39384714 0.52848065
000230 6d c3 00 3f da cd cd be 2d 1b eb bd 54 e6 44 be
       0.50298196 -0.40196115 -0.11479793 -0.19228488
000240 d0 1e 90 be 5a de 62 be e3 d9 a9 3e e8 a8 e3 be
       -0.28148508 -0.22155133 0.33174047 -0.44464803
000250 2c ea 11 3e 23 ec 63 be 42 ba c6 be b6 a0 0c be
       0.14249486 -0.22258048 -0.38813978 -0.13733181
000260 a6 28 8f be 62 5d 3f 3e 8a c2 a0 3d df 16 05 be
       -0.279607 0.18687966 0.078496054 -0.12997006
000270 3c cc 32 bd fc ad 96 be e4 dc 6c 3d c6 eb d8 be
       -0.043651804 -0.29429615 0.057827845 -0.4236738
000280 62 43 25 bf 58 82 66 3e be fd 91 3e 73 30 62 bc
       -0.64555943 0.2251066 0.28513902 -0.0138054965
000290 fe 18 00 3e e2 d9 ab 3e 2d bb bf be f4 f9 be 3e
       0.12509534 0.3356467 -0.3744749 0.37300074
0002a0 3a a0 e1 be ec cd 03 3f 44 d7 6c 3e 11 ac 80 3e
       -0.44067556 0.51486087 0.23128992 0.25131276
0002b0 c5 88 a3 3d 05 f5 f2 be d8 9c 13 3e 3b b0 f5 3e
       0.07985071 -0.4745256 0.144153 0.47986016
0002c0 93 de a6 3e b3 9a d5 3e 23 54 eb 3e 0e 9e ec 3d
       0.32591686 0.4171959 0.4596263 0.11553584
0002d0 fb 94 24 bf 3d 97 f8 3e 56 b9 e8 3e 1b 27 9a 3e
       -0.64289826 0.48552886 0.454539 0.3010796
0002e0 94 33 c9 3d 07 7e 05 3f 8d 44 a9 be de dc 21 3b
       0.09824291 0.5214543 -0.33060113 0.0024698297
0002f0 5f 54 b3 be 31 61 ab 3d d9 90 a0 3e 56 3a e3 3d
       -0.35025308 0.08368147 0.3136051 0.11095111
000300 ea 30 21 3e 73 91 f2 be 8c a7 a3 3d d8 7a 10 3f
       0.15741315 -0.47376594 0.079909414 0.56437445
000310 08 71 87 3e 84 27 6f 3e cf 51 cb 3e e7 ba ad 3d
       0.26453424 0.23354918 0.39710853 0.084829144
000320 98 1a 22 3f 2f ee d1 bd f8 58 ed be 07 15 8c be
       0.6332183 -0.10250508 -0.4635694 -0.27359793
000330 da 85 b0 be fe fd 1a be 6b c3 3a 3f 40 9a bd be
       -0.3447712 -0.15135953 0.72954434 -0.37031746
000340 3d b0 07 3f 0d 3e 0f bf ae ad df be fc 6f 10 bf
       0.53003293 -0.55954057 -0.43687195 -0.56420875
000350 d1 62 00 bf fe a1 a0 3e 73 b1 9f be 63 f7 77 be
       -0.5015078 0.3137359 -0.3119007 -0.24215464
000360 c0 e0 f3 be 46 94 09 be 2d b4 2f bd f5 e2 d0 bd
       -0.47632408 -0.13435468 -0.04289644 -0.101995386
000370 c6 01 a2 3d 60 65 a5 bd 46 ff c7 be b5 cc be be
       0.079104945 -0.08075976 -0.39061946 -0.37265554
000380 b3 d3 2d bd d2 ce af bd 41 a2 a1 3e 7c c5 6e bd
       -0.04243822 -0.0858437 0.31569102 -0.058293805
000390 86 7f 3e bc 00 30 9a 3c a3 63 19 be dd 84 95 be
       -0.011627084 0.018821716 -0.14979415 -0.2920293
0003a0 5a af 8e bd de 77 9f 3e dc f5 21 be f3 68 3d be
       -0.069670394 0.3114614 -0.15816444 -0.18497066
0003b0 a2 ee ea bc b3 58 c8 3b 3e 2d 4b be 22 fa 6e be
       -0.028678242 0.0061140894 -0.19841477 -0.23337606
0003c0 b6 54 0c 3f 70 31 da be b9 90 40 be be 84 75 be
       0.5481676 -0.42615843 -0.18805207 -0.23976418
0003d0 63 ea d0 be 3a f4 cf be a4 6f ab 3e e3 63 de bd
       -0.40803823 -0.40616018 0.33483613 -0.10858896
0003e0 14 40 f8 3e be 0f 6d bd 71 08 59 be e1 12 b7 be
       0.48486388 -0.05787634 -0.21194626 -0.3575659
0003f0 88 af ec bc 24 d7 92 3e cf 8a 15 be 65 10 cf be
       -0.028892294 0.28679764 -0.14603733 -0.40442196

sequential/dense_2/MatMul f4 [2, 60]
000000 7d ff 82 3e 48 19 87 be 73 89 b6 be 31 1b 15 3e
       0.25585547 -0.26386476 -0.3565174 0.14561154
000010 d1 3d 97 3e 3a 40 cc be 03 8a 83 3e a6 a9 ba be
       0.2953935 -0.3989275 0.25691232 -0.36457556
000020 a7 ab 72 3e 15 c8 b2 3e b8 d4 47 be 49 b2 71 bd
       0.23698293 0.34918275 -0.1951474 -0.059007917
000030 2c 81 9c be c1 87 1a 3d 6c d7 9c 3e 0b ae b9 3e
       -0.305673 0.03772712 0.30633104 0.36265597
000040 1c 74 5e 3d ec 41 f1 3e 6f 52 96 3e b5 3f a6 be
       0.05430995 0.47120607 0.29359767 -0.3247048
000050 9a b8 aa be ca d4 df 3e 46 f8 f7 be 65 d8 fb be
       -0.33343965 0.43717033 -0.48431605 -0.49188533
000060 85 a3 df be ea e0 86 3e 26 f3 b3 bd a7 b4 71 3d
       -0.43679443 0.2634347 -0.08786611 0.059010174
000070 b5 45 9d be 09 b7 24 bf b0 c2 67 3e 1e 14 18 3d
       -0.30717245 -0.6434179 0.22632861 0.03712856
000080 40 d1 c3 3d 9f a1 2c bf 80 79 d9 bd 94 a2 9a 3e
       0.09561396 -0.67434114 -0.106188774 0.30202162
000090 3d 5c cc be 5d b3 61 be 88 8d a9 3e 61 60 ef be
       -0.39914122 -0.22041078 0.33115792 -0.4675322
0000a0 6b 98 1d bf b7 7f d7 3e 6c 8b 15 3d e2 3d bb 3e
       -0.61560696 0.42089626 0.036509916 0.3657065
0000b0 7a e6 dc be f8 c6 12 be bd 5b 7e be 4c 7c f5 be
       -0.4314459 -0.14333713 -0.24839683 -0.47946393
0000c0 c2 e3 0d be a6 29 66 3e 33 8a fe bd 2b fc 94 3e
       -0.13856414 0.22476825 -0.12428703 0.2909864
0000d0 d8 e2 ae be 92 45 8f 3e 92 62 69 be fd b0 18 bd
       -0.34157443 0.27982765 -0.22791508 -0.037278164
0000e0 61 a7 79 be 0f 0c 4f be 73 23 52 be 47 27 f6 be
       -0.24380256 -0.20219444 -0.20521335 -0.4807684
0000f0 e5 04 8f be e3 78 1f 3d c5 0d de 3e d4 d6 c8 be
       -0.27933422 0.038933646 0.4336988 -0.392264
000100 89 65 75 be 6b da 92 3e 8f 2b 9e be 0f 1a 9b 3e
       -0.23964514 0.28682265 -0.30892608 0.3029332
000110 6d 58 b1 be 76 dd 76 bd 26 24 bc 3e 1c fb cf 3d
       -0.34637776 -0.060269795 0.3674633 0.10155317
000120 26 4e d2 3e a2 e0 e8 be b3 41 71 be de 82 9d be
       0.41075248 -0.4548388 -0.23560219 -0.30763906
000130 76 09 84 be 6d 0a a5 be 36 6c f1 be 40 a5 15 3e
       -0.25788468 -0.32234517 -0.4715287 0.14613819
000140 78 69 fe 3d a2 fe aa be 19 b2 84 3e f5 8c 91 3e
       0.1242246 -0.33397394 0.25917128 0.28427854
000150 35 97 01 3f aa 82 ef bd 40 ad 21 3e a3 31 62 be
       0.5062135 -0.11694844 0.15788746 -0.22089247
000160 25 da f8 3d d7 30 64 3e 7d d8 ef be 63 3e b4 3e
       0.12150983 0.22284256 -0.46844855 0.35203847
000170 d3 95 c2 3d 6a 55 e8 3e b5 eb fe 3e e0 9f cd be
       0.09501233 0.45377666 0.49789205 -0.40161037
000180 b2 79 ef 3e c1 5e db 3e ef 39 7d be c1 de 98 3e
       0.46772534 0.4284573 -0.24729131 0.29857448
000190 e1 cc 17 3f 29 29 8a be 57 06 d0 be fa 2a 01 bf
       0.59296995 -0.26984528 -0.40629837 -0.504562
0001a0 d7 b6 e4 3e 43 78 dc 3e 59 20 b2 3e fb 43 0a 3f
       0.44670746 0.43060502 0.34790304 0.5400998
0001b0 84 1b ce 3e 79 8a 8a be 4d 5b d9 be 27 dd e5 be
       0.40255368 -0.2705877 -0.4245247 -0.44895288
0001c0 a8 d3 da 3e 92 0e 3a be 4e 9a f3 3e da d9 d9 be
       0.42739606 -0.1816962 0.47578663 -0.4254902
0001d0 52 d8 9d 3e 1d e3 46 3e e5 34 33 3e b4 46 e6 3d
       0.30829102 0.19422574 0.17500646 0.11243954
