firebase_ml_model.tflite (tflite, 64404 bytes, 8 tensors)

model_1/conv2d/BiasAdd/ReadVariableOp f4 [32]
00000000: a6de 51bc a09c c53c 8cf0 ef3a fd9a c03d
00000010: 76dc a13d 42e2 3d3d 2678 a63e af5b 183e
00000020: 899f 93bc bdb5 0e3e 99e2 c73a c244 11bd
00000030: 373a 793c 7b61 6cbc ff83 903d b42c 773e
00000040: a4d9 093e 4b04 1a3e 1a67 cb3c b02c 9e39
00000050: 70ed 443e 4941 0b3e 7f0e 293c c02a aeb9
00000060: f0e1 853b b58e e63d aa15 4f3d dc47 97ba
00000070: e7bb 92bc 98ed fb3d 5264 1e3d 9ffa 563c
-0.012809431 0.024122536 0.0018305941 0.09404562 0.07903378 0.046358354 0.3251354 0.14878725
-0.018020408 0.13936515 0.0015250026 -0.035465963 0.015211633 -0.014427538 0.07056426 0.24138147
0.1346193 0.150407 0.024829436 0.00030169403 0.192312 0.13599123 0.010318398 -0.00033219717
0.0040857717 0.11257688 0.05055777 -0.0011541802 -0.017911864 0.12301177 0.03866989 0.013121276

model_1/conv2d_1/BiasAdd/ReadVariableOp f4 [16]
00000000: cf3c 4abd 52a3 003d 2b0d 7f3d 24ee b5bc
00000010: ef80 2cbd 2192 00bd 448e 2fbd 14b6 7b3a
00000020: 73cc 323d bb25 fc3c a7aa e83b 37b7 14bd
00000030: 1ccb fd3c 45bc 513e 33cd a33b 4654 f9ba
-0.049374398 0.031405754 0.062268417 -0.02220828 -0.04211515 -0.03138936 -0.042860284 0.0009602022
0.04365201 0.03077971 0.0071004215 -0.03630754 0.03098064 0.20481975 0.004998827 -0.0019022308

model_1/conv2d/Conv2D f4 [32, 5, 5, 1]
00000000: 4295 95bd b9b6 9bbd 55c4 a2bd 045c 39bd
00000010: 08f1 ae3c a0df fc3c 39ab 303d 6eae 3a3c
00000020: cc71 ae3c 9a1b 13bd 7258 9abd acd1 aebc
00000030: 6a5a 8d3d bd6e 73bd 380b 853d 20bf c03c
00000040: 9989 363d 6b63 e6bc 0275 95bc 5c3f 89bd
00000050: 7211 d2bc e7f9 18bd 107b 4abd cd85 093c
00000060: b0b3 7ebc 2398 96bd 726f 223d a72d 0ebd
00000070: 6baa 783e 42f4 67bd 100b 9e3c 9306 40bb
00000080: 57c5 97bd af52 8c3e c061 973d b46b a43c
00000090: dff6 8ebd 8c14 c4bd 62a3 8e3e 2aab ddbc
000000a0: 200d 02bd 2931 3c3d df89 4e3d cc3b 7d3e
000000b0: e68a 37bd fe3d 0f3d df93 aebc 5cf3 8abd
000000c0: 69fc 4b3e eb19 9fbd 4c05 913d b5c8 b73c
000000d0: 9f93 873e 2218 95bd c070 ff3c 6bcd 6fbd
000000e0: e9ff b63c f31a 6c3e 3700 373d 0a7f f8bc
000000f0: 1805 653c 3f72 403d 3848 8a3e 09fe 073b
00000100: f8bb 4cbc 5881 363d 9e2d 833d ca79 383e
00000110: 2d4c 4a3d 604d 88bd b031 2abc 80c8 67bd
00000120: 7d09 523e 8676 58bc ed65 85bd 00b4 943d
00000130: 27c4 3a3d b0db 723c 261b debd 8a47 a93d
00000140: d878 71bd e4a2 24bc bf21 c7bd fd70 83bd
00000150: 346c 5e3d ce3b 013d 10d7 5bbd 3694 72bd
00000160: 32b8 a5bd c00e 74bb 9857 9d3d 9d8b ad3c
00000170: 1aba 2bbd 8174 6ebd 4c6d 4d3d 7aa3 043d
00000180: fb97 13bd 0a8c 8abd bba1 85bd 297c 9dbd
00000190: 5c1d 6e3d 5466 d9b9 6ff2 8abd 9dcc ecbc
000001a0: e5a5 10bd 500b e33b 829b 5a3d 6967 ab3d
000001b0: 6093 b8bd 9b92 50bd 9b36 84bd 242b ddbc
000001c0: daec 993b 0fb8 f5bd 00e9 debc 0899 24bd
000001d0: ad38 09bd 81aa 9abd 9a02 1abd e793 92bd
000001e0: 0488 a2bd 174b 04bd 9482 abbc 2c85 acbd
000001f0: 543b 393d 43d3 73bd 17d2 d8bc 9bc1 413d
00000200: d29b c13e 9933 93bd a435 4a3d ffd0 963d
00000210: 8481 84bd d754 c93e e4ca 5f3d 489c 5d3c
00000220: 3922 5c3c 03d9 b83d e9ea c03e 3f12 96bd
00000230: 0285 a33d a88b 50bd 5b97 aa3d 7c66 d23e
00000240: 27d4 26bd 901f 8cbd 2290 1bbc c469 c23c
00000250: e72a b13e 5f8f 04bd a097 983d 341b 81ba
00000260: c1b6 053e 6643 3e3c 52a4 bdbc 1c23 3b3d
00000270: 5302 d73c b4ed 063e dd0e 053a 80e8 a53b
00000280: 789e 17bd 8307 66bd ddb5 023e b00a dabd
00000290: d8b6 fb3c e4b7 dbbc 6bbc a23d a1dc ab3d
000002a0: 1e89 b1bd 8845 97bd f48c 7e3d 219e 613d
000002b0: 25f0 e7ba 7e8c c8bd 0e57 3dbd d05b 8fbc
000002c0: 271a a7bd 149c 1bbe f364 9f3b aa17 803d
000002d0: c0a3 d03b a022 3ebc ca04 03be 2d18 2a3d
000002e0: a0e4 7bbd f13b abbd 7081 453d 74fd 8fbc
000002f0: 2138 133e 7025 0a3d bc1b 483d e2ca 84bd
00000300: 599f 7dbd 43a1 a43d a0bb 50bd c4b7 903c
00000310: 920e 23bd 7ac8 e8bd 717a d63d c0f2 893b
00000320: 9f71 94bd db7b 853b a5be 22bd c4cb 953d
00000330: 1865 84bd eee2 ab3d f213 4a3d 3a50 a8bd
00000340: b4e2 8fbd 84b7 cd3c e813 85bd 6f8f 3b3d
00000350: e4d2 073d 5acf 53bd d44f 563d 5885 5f3d
00000360: c5c7 0c3c 0f02 cfbc 67cb 883d 451e 86bd
00000370: 8a9d eabc c2ed 50bd 6605 acbd 676b 81bc
00000380: 24aa 23bd 4c6d e1bc a0ee 85bd c250 953c
00000390: 353c 32be fe8b 6cbd 235c 49bd f110 08bd
000003a0: aa05 02be 995f 2cbe 6c8e 2a3d a0e2 803d
000003b0: fdf2 3fbc c57c fcbd daa9 ddbd fe21 c3bc
000003c0: 28ea cc3c 4e29 3a3d 77e6 593c 7ce3 70bd
000003d0: 186f 4dbd 73fa 92bd 8d82 9b3d bbd3 32bd
000003e0: 0c0f 94bd 60d4 18bc 1e25 2abd fc98 ac3d
000003f0: 2f24 c13d b212 063d 64df 233d 6d12 05bd
-0.07303859 -0.07603211 -0.079476036 -0.04525377 0.021355167 0.030868351 0.04313204 0.011394126
0.021294497 -0.035914995 -0.07536401 -0.021340214 0.06902011 -0.05943178 0.064962804 0.023528636
0.044564817 -0.028123578 -0.01824427 -0.06701538 -0.025643084 -0.0373477 -0.049433768 0.008393717
-0.0155457705 -0.073532365 0.039657064 -0.034711506 0.2428376 -0.056629427 0.019292384 -0.0029300794
-0.074106865 0.27406833 0.07391691 0.020070888 -0.06980681 -0.095742315 0.27859026 -0.027059156
-0.0317508 0.04594532 0.050424453 0.24729842 -0.0448102 0.03497123 -0.021310745 -0.06784698
0.19920506 -0.07768615 0.070810884 0.022434572 0.26479813 -0.072799936 0.031181693 -0.05854551
0.022338824 0.23057155 0.04467794 -0.030334014 0.013978265 0.046983954 0.27008224 0.0020750782
-0.012495987 0.044556946 0.06405185 0.18015209 0.049389053 -0.06655383 -0.010387823 -0.056587696
0.20511432 -0.013211852 -0.065135814 0.07260895 0.04559722 0.014822885 -0.10845022 0.08265598
-0.058953136 -0.010048602 -0.097232334 -0.06418035 0.05430241 0.031551175 -0.053671896 -0.059223376
-0.08091773 -0.0037240237 0.07682723 0.021184737 -0.041925527 -0.058216576 0.05015306 0.032382466
-0.03603361 -0.067649916 -0.06524988 -0.07689697 0.058133468 -0.00041465706 -0.06784522 -0.028906161
-0.03531446 0.006928839 0.05337096 0.08369333 -0.090124846 -0.050921064 -0.06455728 -0.02699811
0.0046974244 -0.11997997 -0.027210712 -0.040185004 -0.033501316 -0.07552052 -0.037600137 -0.071571164
-0.07936099 -0.032298174 -0.020936288 -0.08423838 0.045222595 -0.059527647 -0.026467366 0.047303777
0.37814194 -0.07187576 0.049367562 0.073640816 -0.06470016 0.3932254 0.05463685 0.01352603
0.013435894 0.09025767 0.37679222 -0.07327699 0.079843536 -0.050914437 0.0832965 0.41093814
-0.040729668 -0.068419576 -0.009494813 0.023732074 0.34603044 -0.03236329 0.07450795 -0.0009850026
0.13057996 0.011612749 -0.023149643 0.04568778 0.026246225 0.13176614 0.0005075762 0.0050631166
-0.037016362 -0.056159507 0.12764688 -0.1064657 0.030726835 -0.026821084 0.07946094 0.08391691
-0.08668731 -0.07386309 0.062146142 0.055082444 -0.001769547 -0.09792422 -0.0462256 -0.017499834
-0.08159285 -0.15196258 0.004864329 0.062545136 0.006367177 -0.011604935 -0.12794796 0.041526962
-0.06149733 -0.08361042 0.048219144 -0.01757691 0.1437688 0.03372711 0.048854575 -0.06484009
-0.061919544 0.08038571 -0.050960183 0.017665751 -0.039808817 -0.11366363 0.104725726 0.0042098463
-0.07248234 0.0040736026 -0.039732594 0.07314256 -0.064645946 0.08392893 0.049335428 -0.08218427
-0.07025662 0.025111921 -0.064979374 0.045791086 0.033160105 -0.051711418 0.052322224 0.054570526
0.008592551 -0.025269536 0.06679421 -0.06548742 -0.028639574 -0.051007994 -0.08399467 -0.015798284
-0.03995718 -0.027517937 -0.06539655 0.018226985 -0.1740578 -0.057750694 -0.049160134 -0.03321928
-0.12697473 -0.16833343 0.04163973 0.06293225 -0.011715648 -0.123284854 -0.10823412 -0.02381992
0.025013998 0.045449547 0.013299576 -0.058810696 -0.050154775 -0.07176676 0.0759326 -0.043658953
-0.072294325 -0.009327978 -0.041539304 0.08427617 0.094307296 0.032732673 0.040007964 -0.032488275

model_1/conv2d_1/Conv2D f4 [16, 3, 3, 32]
00000000: ca9d ebba a4b4 86bc b83e c5bd 2742 b1bc
00000010: 0fab d2bd 8ff1 9d3c b48a 8ebd ca36 ebbc
00000020: b560 953a 1925 ad3d 255b 403d 8c15 f1bd
00000030: 8513 93bb 1746 5e3d 3e80 d73d 3402 3ebd
00000040: aedf 23bc a72c b6bc b457 5e3c f3c2 9d3d
00000050: 9aad b6bb fe21 433d baed eb3d b085 bb3d
00000060: 40cf d23b 4e9a dabd 0682 99bd f521 553c
00000070: dcd9 edbd e52e dc3c fc37 0fbd 03cc f2bc
00000080: 6075 a73d 9b0e 86bd 3610 86bd 4356 2ebd
00000090: efae 723b ad55 b9bd 63cb 513d 6083 453d
000000a0: c428 b53d ea27 4fbb ad11 dfbc 295a 143d
000000b0: 3e35 653d 8468 70bd f060 7abd 9a77 94bd
000000c0: 7109 bd3d 9cf0 6abd 14ea 47bd 5e77 143d
000000d0: c0da 0cbc 9e49 c43d 12bc bbbc d846 b2bd
000000e0: 9f4a 30bd 4d7a 073b 9a6f da3d 7084 173d
000000f0: 5c9e 2e3d 9b51 b93d 0c0f 68bd 87b1 31bc
00000100: b5f6 94bb 011d 2f3d 2ce5 f9bc 330a ac3c
00000110: 0639 8dbd 8f57 78bd 7362 e5bd 4623 27bb
00000120: 7169 323d f458 eabd d2ac a03d 13ab 243d
00000130: 9e44 a43d 9e35 97bd 9846 133d bf56 babd
00000140: 8b45 c53d f3fc bdbd da59 bc3d 689f 6ebd
00000150: c91f d33d 3870 a23d e71c a9bd 6544 febb
00000160: 90d7 dd3d 6be4 33ba 7931 a23c a041 90bd
00000170: 8c5d abbd f42b d7bb 4c77 c03d 104a cb3d
00000180: 0f46 49bd e5d8 04bd 622a 35bd 7a6f 9b3c
00000190: 5ba0 b63d f788 96bd d844 613d 0f84 c5bd
000001a0: 87cf e5bd 8186 db3d 0faf b63d 4822 dbbd
000001b0: 2465 8fbc 0959 8bbd b6e1 acbd f7df b4bc
000001c0: 267d 943d 5dcd 1b3a 6d23 bdbc fb57 aabd
000001d0: 5875 f53c d736 79bb 829e e0bd d2e0 673d
000001e0: 2491 53bd e3bd 8bbd 9b59 633c 680d f4bc
000001f0: e1b2 e73d 6bbb 8fbd ccbd 4a3d ec65 a13d
00000200: cbb0 78bd 232b 8bbd a4d4 6abb 201a c8bd
00000210: 57f6 9bbd 61b6 983d 125a 56bc 64d1 5abd
00000220: 7b2b 4fbd 16f1 f23c 961c 5c3a a714 dcbb
00000230: b740 aabd 8caf 4c3c 62e7 5abd 3817 99bb
00000240: 4198 44bb 4fec 923d 69e7 b3bd 9d43 e13d
00000250: c456 8d3d d82e 873d d773 99bd 75e9 aebd
00000260: cd21 acbd 990e bf3d be34 e73d e973 6fbd
00000270: c88f cdbd 493c c5bd 0bca 99bd a9e1 5cbd
00000280: 3d31 b4bd caf2 d33d a619 43bd 94a5 853d
00000290: ceb1 e83c 7495 bbbd b98d 9bbd 0e6d 143d
000002a0: aee1 30bd 0ecd de3a b0a4 473c 0316 b3bd
000002b0: 03ee 743d 0d66 e13d d03b a13d 9c2c e7bd
000002c0: e55d e9bb 4bcd 503d dbda c13b db73 46bd
000002d0: bbb2 833a 62a2 eebc e8f6 8f3d 4dd5 78bd
000002e0: f180 f53b c405 5e3b 71d6 10bd fb2b 31bd
000002f0: 7e36 39bd e6f2 34bd 254c 8a3d 8f08 95ba
00000300: 50df 543d e685 9e3c 6b5c 3bbd 2425 a63d
00000310: 1dbb 903d 34ec 5b3d b511 b13d 2072 80bc
00000320: a249 93bd 56f5 c0bd eeb2 ce3d 1e99 04bd
00000330: 7cbd af3d 2dfc 6ebd f28e 52bd 4522 9d3d
00000340: 9657 6dbb 9e57 af3d c99b 39bc eb6d b4bd
00000350: 598a 003c b57d 1eba 2897 c43b 7e60 c73d
00000360: a971 24bd de91 8d3d d7c8 5bbd 8afe b23c
00000370: bf51 aa3d 910b d5bd 8379 1fbd ce5c b2bd
00000380: dae4 0f3d 2851 503a 3448 a9bc 05f7 c03d
00000390: a224 ac3d 33b6 923d e83a e2bd d787 ffbc
000003a0: d312 bc3d 2c1a 9c3d 6e1e 94bd 82a9 3cbd
000003b0: 9c53 31bd 6186 9d3d 0fb1 8d3a d496 84bc
000003c0: b665 a8bd 223d 193d 77ca 5bbc 6be9 843d
000003d0: 5aba 6f3d e65b 41bb 11dc 8c3a 7744 bdbd
000003e0: 8926 97bc 9cb7 a03d 79f8 4f3c 6b26 32bd
000003f0: 345c 4c3c 170f 19bd 3540 de3d 7026 cabd
-0.0017976102 -0.016443558 -0.09631103 -0.02163799 -0.10286533 0.019280223 -0.06960049 -0.028712649
0.0011396619 0.084543414 0.046961922 -0.11771688 -0.004488411 0.05426606 0.10522507 -0.04638882
-0.01000206 -0.022238089 0.013570715 0.07703199 -0.005574894 0.04763984 0.11519952 0.09156358
0.0064333975 -0.106739625 -0.07495503 0.013008584 -0.11613819 0.02687783 -0.0349655 -0.029638296
0.081766844 -0.065457545 -0.06546061 -0.042562734 0.0037030538 -0.090495445 0.051219355 0.048220992
0.08845666 -0.0031609484 -0.027230108 0.036218796 0.05595898 -0.058693424 -0.061127603 -0.07249375
0.092303164 -0.05735837 -0.04880722 0.03624665 -0.008597076 0.09584354 -0.022916827 -0.087049186
-0.043039914 0.0020672262 0.106658176 0.036991537 0.042631492 0.09048768 -0.056654975 -0.0108455485
-0.0045460113 0.04275227 -0.030504785 0.021000957 -0.06895642 -0.060630377 -0.11200418 -0.0025503202
0.043557588 -0.11442748 0.07845463 0.04020221 0.080209 -0.073832735 0.035955995 -0.09098577
0.09632405 -0.09276762 0.09196825 -0.05825749 0.10308797 0.0793156 -0.08257466 -0.007759618
0.10832131 -0.0006862345 0.019798981 -0.07043767 -0.08367452 -0.006566519 0.09397754 0.09926236
-0.04913908 -0.03243341 -0.044229873 0.018974055 0.08917304 -0.07350343 0.054997295 -0.09644329
-0.11221223 0.10719014 0.089201085 -0.10699898 -0.017504282 -0.068040915 -0.084414884 -0.022079451
0.07250433 0.0005943382 -0.023088181 -0.08317562 0.02996318 -0.0038027072 -0.10967733 0.05661089
-0.05165209 -0.068233274 0.013876344 -0.029791549 0.11313415 -0.07018169 0.04949741 0.07880768
-0.060715478 -0.06795337 -0.003583231 -0.09770608 -0.07615345 0.07456661 -0.013082998 -0.053422347
-0.050578576 0.029655974 0.00083965936 -0.006716329 -0.083131246 0.0124930255 -0.05344332 -0.0046719573
-0.0029997977 0.071739785 -0.08784372 0.10999224 0.06901315 0.066007316 -0.07492798 -0.08540622
-0.084048845 0.09328956 0.11289357 -0.05846015 -0.1003719 -0.09630639 -0.0750924 -0.053926144
-0.08798454 0.10349043 -0.047631882 0.06525722 0.028405096 -0.09159365 -0.07595391 0.036236815
-0.043183975 0.0016998367 0.012185261 -0.08744433 0.0597973 0.11005793 0.078727365 -0.112878054
-0.007121789 0.050977033 0.005915982 -0.048450332 0.0010047773 -0.029130165 0.070295155 -0.060750294
0.0074921777 0.0033877948 -0.035360757 -0.043254834 -0.045217983 -0.04417696 0.06752805 -0.0011370349
0.05197078 0.019350957 -0.045742434 0.08112553 0.07066939 0.053692058 0.086459555 -0.015679419
-0.07191779 -0.09421794 0.10092722 -0.032372586 0.08581063 -0.058345962 -0.051405855 0.07672552
-0.0036215535 0.085616335 -0.011328646 -0.08810028 0.007845485 -0.00060459535 0.0059994645 0.09735201
-0.040147457 0.069125876 -0.053658333 0.02184989 0.08316373 -0.10402597 -0.038934242 -0.08709107
0.03513036 0.00079466635 -0.020664312 0.09422115 0.08405425 0.07163658 -0.11046392 -0.031192703
0.09183278 0.076221794 -0.072323665 -0.046060093 -0.043292627 0.07691646 0.0010810214 -0.016185202
-0.08222525 0.037411816 -0.013414971 0.064898334 0.058527328 -0.0029504239 0.0010746737 -0.09241574
-0.018450992 0.07847521 0.012693518 -0.04349367 0.012473155 -0.037367906 0.1085209 -0.098706126

model_1/dense/BiasAdd/ReadVariableOp f4 [60]
00000000: 6dad aa3c 56c2 85bd 6619 a83c f1e6 e83c
00000010: 676c c43b ea73 11bd cde3 ec3c 14c9 93bd
00000020: 4c2b 7abd fdb1 71bc ccc4 40bd 1474 ccbc
00000030: 5061 46bd 942f 59bd 5491 863b 2261 253d
00000040: 993b f6bc b30c b93c f9b9 533d 5078 bdbc
00000050: 1c1b 9e3d 233f 4f3d f576 853b e3c7 45bc
00000060: 10c8 babc 6e12 493c e972 233d 8744 473c
00000070: 92fe a8bd cec2 85bd 890f be3b 36de e33c
00000080: c912 95bc 1d48 1c3d ea80 98bd 2a51 c2bd
00000090: 50cc 3f3d f9f0 a53d 63f8 bebd a7c9 7ebd
000000a0: 569a 243d 64bc e6bc 8daa 653d fe28 a3bd
000000b0: 3d1f f1bd 7586 0abc 9c58 3b3c 52ce 66bd
000000c0: 3b4d ae3d 37ce fa3b 8f12 853d 09b4 3c3d
000000d0: e4db 9d3a 1498 cf3b 96d8 8a3d 4afa 3c3d
000000e0: ad4a 6ebd 559c 093c 7a12 9aba ab16 4bbd
0.020834649 -0.06531207 0.020519923 0.028430434 0.005994368 -0.035510935 0.028917218 -0.07216087
-0.061076447 -0.014751908 -0.04706268 -0.024957694 -0.04843265 -0.05302389 0.00410668 0.040375836
-0.030057715 0.022589063 0.05169103 -0.023128659 0.077200145 0.05059732 0.0040730187 -0.0120715825
-0.022800475 0.01227246 0.03990451 0.012162334 -0.082516804 -0.06531297 0.005800192 0.02781592
-0.018197434 0.03815471 -0.074464634 -0.09488137 0.046825707 0.081026025 -0.0932472 -0.06220403
0.04018625 -0.028166004 0.056070853 -0.07966803 -0.11773536 -0.008454909 0.0114347 -0.056349106
0.08510824 0.0076539773 0.064976804 0.046070132 0.0012043682 0.006335268 0.06779592 0.04613713
-0.058176685 0.008399089 -0.0011754774 -0.049582165

model_1/dense_1/BiasAdd/ReadVariableOp f4 [3]
00000000: 2f98 8e3d 2630 d03d 3e64 2fbe
0.069626205 0.101654336 -0.17128083

model_1/dense/MatMul f4 [60, 160]
00000000: ef74 bebd de81 1bbe 50f4 b83d 623c 9abd
00000010: ed39 133e c6c0 913c ba68 063e 7a01 cdbd
00000020: 0cba 72bd 3a99 dabc 722f 563d ac21 ecbd
00000030: f5da 0abe bdc3 efbd 2b49 f33d 309c 6f3d
00000040: d488 ca3d 335a d7bd 277d 80bd aa30 a1bd
00000050: fcd4 233e ed41 12be 4ea1 4d3d ab1e 833d
00000060: e2f5 743d 0962 f13c c5fa 90bc b028 c6bd
00000070: eda9 febd 8371 733d ea8a b13d a1db f5bc
00000080: cc3b f03d da13 93bd e68f 09bd 7f88 18bd
00000090: ed20 113e f5f6 e0bd 1ba8 14be 7074 f5bc
000000a0: d572 d7bd 27a5 08be 5dc7 44be 9a06 3dbe
000000b0: 2f12 9abd 69c5 853d 468a 7a3d 18b2 27be
000000c0: 2919 9e3d bf0b 06be 6799 3a3e ed52 a53b
000000d0: c5a9 f33d 0215 14be 226f 0fbd 63bd 31be
000000e0: 7e4d 3abe b875 e0bd 2cfe af3d b682 3abe
000000f0: 2f9c c23d cf66 543e 9d7c d0bd 86d4 36be
00000100: 4062 95bc b27e ff3c bab7 123e 2826 adbd
00000110: 8a55 ec3d 23c1 303d 280b f9bd da04 47bd
00000120: 3470 dcbd 7ddb 2cbe ffbb 3a3d 77f9 13be
00000130: 2e1f c83c a1d3 263e 1129 c83d fc1f cfbd
00000140: 29f9 22bd 7e10 33be 6dc2 983d 7851 eebd
00000150: 6200 1cbe b3ce 2cbe 634e e3bd 1e9f eeba
00000160: 8a2b e9bd 88f6 84bc ad42 ac3d 2cfd f5bd
00000170: 1ba5 233e d018 0b3e 9fe9 cf3d cc93 bb3d
00000180: 14af bc3d f3d8 f8bd bda7 9bbd 0e52 24be
00000190: 0624 20be db7b 68bd 2207 0cbe 59ca 6b3d
000001a0: a110 053d 4073 04be d730 213d 0aa5 aabb
000001b0: 9377 853d 5469 103d 2392 c23d 66d9 613c
000001c0: ce1e e33d 8d21 e0bd fa8b e93d 996c c03b
000001d0: 88f3 09bd d098 1dbe b17a e5bd 18c8 033e
000001e0: 5046 81bd 6824 33be 2d08 8abd 1257 cbbc
000001f0: ec08 07bd c653 973d f2f0 55bc 2c4d 4f3b
00000200: 08c5 213e 079a 033e 4f54 01be b78e 1fbe
00000210: 0c8d 0e3e 2e19 15bd c4ea 113d 98b6 f5bd
00000220: bece 0d3c 74b4 a13d a622 133e 665f 3e3d
00000230: ee1f 00be a79d 7abd 3cc2 b2bb 1509 2abe
00000240: ce8e d2bd f303 16be 2e4b ab3d 69de f8bd
00000250: 113f e93d 9dba c93d 7c2a f23d c459 20bd
00000260: 36ad bbbd 9522 423d be0e 0b3e 0437 23be
00000270: 34bb 043e 62c7 c3bd cc47 d7bd 8ad0 41bd
00000280: 3ad9 123c 1f08 273e 7a79 31be 5ab1 f23c
00000290: 89f1 223e 4844 17be ef80 863c f6de ef3d
000002a0: e4ea 1ebe bbdf 1ebe aa8a ff3c 64cf 0ebe
000002b0: 7b85 17be 0d8d a7bd 5e3d 0f3d fb66 9abb
000002c0: fa38 273e a3d3 d23d 7c6b 80bc d23a 863d
000002d0: e32a ffbd 5844 213d dd94 68bd d2a3 333e
000002e0: 6ad7 93bd ad45 44ba 4d06 c2bd a6b2 9cbd
000002f0: 4c7b f5bd 8dcb e43d 6082 8a3d 23dd c9bd
00000300: 8ca3 303d 3578 313e 8143 14be 49b6 1cbe
00000310: 974f 2e3d f946 00bd 6698 1e3c cac6 ad3d
00000320: bad1 a43d 5686 3a3e b3c7 143e 67c0 113c
00000330: 3a5c f8bd 59aa e4bd 5191 013e 442f 31bc
00000340: 5e20 e93d 81b1 49bd e301 1a3e c816 bbbd
00000350: 7c78 d1bd da6f 4b3c 5c6c 95bd 539d a0bd
00000360: 6980 cb3d c4f0 1a3d 4a47 013e ea77 a93b
00000370: f6f6 3a3c 9fd6 ab3b ac3a 42bd 68a3 efbb
00000380: 50e0 ea3d 0ab7 e3bd a338 143e 2047 133e
00000390: 32da a9bd f816 703d 0b95 0fbd fe16 54bd
000003a0: 8f28 8f3b f090 a0bd 9756 25bd c71f 4dbd
000003b0: a088 d3bd bd48 84bd 5a1b 863a 9a5b 583c
000003c0: 9c96 00be a094 933d 0d82 163e c1a5 9b3d
000003d0: 462a ca3c 7685 e1bd fa13 23be 98d3 1d3c
000003e0: 0eca 90bd d000 593d 6b56 803c b565 ba3c
000003f0: 00f2 7cbc 5f86 9c3d fb09 f9bc ab61 4b3d
-0.09299647 -0.15186259 0.09030974 -0.07531048 0.14377566 0.017792117 0.13125888 -0.10010047
-0.05925946 -0.026684392 0.05229134 -0.1152986 -0.13560088 -0.11707256 0.1187919 0.05849856
0.09889379 -0.10515251 -0.06273871 -0.0787061 0.15999216 -0.14282961 0.05020266 0.06402334
0.059804805 0.029465692 -0.017697701 -0.09675729 -0.124347545 0.059434425 0.08669074 -0.030011954
0.11730155 -0.07181521 -0.033584498 -0.037239548 0.14172716 -0.10984603 -0.14517252 -0.029962748
-0.10519949 -0.1334425 -0.19216676 -0.1845955 -0.075229995 0.065317936 0.061167024 -0.16376531
0.07719643 -0.13090418 0.18222581 0.005045286 0.11897615 -0.14461139 -0.035018094 -0.17357402
-0.18193623 -0.10959953 0.08593401 -0.18213925 0.09502446 0.20742343 -0.10180018 -0.17854509
-0.018235326 0.031188343 0.14327899 -0.08454543 0.11539753 0.04315294 -0.12160331 -0.04858861
-0.107635885 -0.16880603 0.045589443 -0.14450632 0.02442893 0.16291668 0.09773458 -0.101135224
-0.0397884 -0.1748676 0.07458959 -0.11636633 -0.15234521 -0.16875724 -0.110989355 -0.001820538
-0.113852575 -0.016230837 0.08411155 -0.12011179 0.15980951 0.13583684 0.101519816 0.091590494
0.09213081 -0.12150755 -0.07600353 -0.16046926 -0.15638742 -0.056758743 -0.13674596 0.05756602
0.03248656 -0.1293459 0.039353218 -0.0052076625 0.065169476 0.0352567 0.095005296 0.013784742
0.1108986 -0.10943899 0.114036515 0.005872321 -0.033679515 -0.15390325 -0.11205042 0.12869298
-0.06312239 -0.17494357 -0.06739841 -0.024821792 -0.032967493 0.073890254 -0.013057934 0.0031631691
0.15797818 0.12851726 -0.12629817 -0.15581785 0.13920993 -0.036400966 0.03562428 -0.119977176
0.008655248 0.07895747 0.14368686 0.046477698 -0.1251218 -0.061185505 -0.0054552834 -0.16605027
-0.10281144 -0.14649944 0.08363949 -0.12151796 0.11388982 0.09850047 0.118245095 -0.039148107
-0.09163897 0.04739626 0.13579842 -0.15938956 0.12962037 -0.09559514 -0.10511741 -0.04731802
0.008962924 0.16311692 -0.17331496 0.029625583 0.15912451 -0.14772141 0.016418902 0.11712448
-0.15519291 -0.15515034 0.03119405 -0.139463 -0.14797013 -0.081812 0.034970634 -0.0047119833
0.16330329 0.10294273 -0.015676253 0.06554188 -0.12459352 0.03937182 -0.056782592 0.17542961
-0.07218821 -0.0007487189 -0.09473858 -0.07651262 -0.11986408 0.11171637 0.06763148 -0.098566316
0.04312472 0.17331012 -0.14478876 -0.15303911 0.04255637 -0.031317685 0.009679889 0.08485182
0.08047815 0.18215308 0.14529304 0.00889597 -0.12126966 -0.11165304 0.1265309 -0.010814492
0.11383127 -0.049241547 0.15039782 -0.091352046 -0.10228059 0.012416804 -0.072960585 -0.07842507
0.09936602 0.03782727 0.12624851 0.0051717656 0.011411419 0.0052440907 -0.047419235 -0.0073131807
0.114685655 -0.11118896 0.1447473 0.14382601 -0.082935706 0.058615655 -0.035054248 -0.05177974
0.0043688486 -0.07840145 -0.04036578 -0.050079133 -0.103287935 -0.06459186 0.001023154 0.013205433
-0.12557453 0.07206082 0.14698048 0.075999744 0.02467836 -0.11011784 -0.15925589 0.009632967
-0.07069789 0.05297929 0.015666207 0.022753576 -0.015438557 0.07642817 -0.030400267 0.04965369

model_1/dense_1/MatMul f4 [3, 60]
00000000: a228 d83e e352 92bd 4cf2 983c ac07 023f
00000010: 3ad6 c0bd 47ca d2be 5137 123e ed35 cebe
00000020: 6aa6 763d 966f 293e 288a 37be 4534 d23e
00000030: dd82 7dbe c29c 6c3e 0cfa 463e 1ed0 7b3e
00000040: e85d 923e 6974 673e a77a bdbd a72d 913e
00000050: d278 2a3e 5ecf 8bbd 95c1 02be 54bb 043d
00000060: 7121 d7be 248c d6be 6648 693e fa7d 91bd
00000070: df22 83be fff6 c7be 8af1 61be 7f2f ca3d
00000080: 5aed 093e 85c3 183e 3d47 183e f53e a2be
00000090: 87eb 513e 2fd7 cf3e 2a23 52be f12a 93be
000000a0: 5397 673e b4be 8b3e dfa7 ac3e 3e61 f7bd
000000b0: 3f31 f7bd 67f5 9cbe 4370 85be 1aa4 ecbe
000000c0: 16ac 413e cb16 ab3e d39f fd3e 1e1f 6fbd
000000d0: e643 92be 1dc2 0cbe d64a 99bb d2cd e83e
000000e0: 2241 7d3e d137 b8bd 5000 d93c 3ea3 e7bd
000000f0: 5767 b8be 9c56 83be 8439 6c3e 460c 4ebe
00000100: c87c 5ebd 2cae 113c 6462 95be c4f6 943e
00000110: d2bd 993c 009b 1c3e f028 473c ce95 a5be
00000120: ba50 c4bd 7883 90be ad51 7a3d 16b5 a3bc
00000130: faa7 3c3b b922 05bd 613e 313e 1586 92be
00000140: 0dfd 4a3e 5b6f 8e3e ab8b 07be 8d10 34be
00000150: 47d4 ac3d 3018 4fbc 84c1 29be c574 8b3e
00000160: cfb7 6cbd 6897 6bbe efdd 5bbe a7c8 9e3e
00000170: 165d 883d 12d8 0b3e b46f 57be 3fb9 5cbd
00000180: b113 063d 6cff 0bbc 953c 54be 5961 d63d
00000190: d867 483e bef0 393b eb1c 3fbd 1714 75bd
000001a0: ec07 a3be 66ab b0bd 10ce 163e bf14 8a3e
000001b0: 9b88 5c3e 9841 85bb dbbe 4fbe e329 653e
000001c0: 76b8 3f3c 378d 523d d20d 4e3e 48cf 33be
000001d0: e6a4 2abe 93f9 0e3d 02a0 c33d 196e c93d
000001e0: 9855 9ebe b826 b33e 07e4 e03d a8ed 91be
000001f0: ebc2 94bd 2bf4 ac3c 92c0 cbbe 9da2 2d3e
00000200: 9cae be3e 4dd6 583e 9bef 853e b7bb 203e
00000210: bd1d db3d 2aac 2c3e d32d 243d ef3f 72be
00000220: f18a 8f3e df83 3abe 419d 7bbe 1e0c 48be
00000230: 8a98 87be eb57 cbbc 0105 0dbe fdf7 50bd
00000240: 830b 003e aa9f 3ebe e7f5 4ebe 8ee6 083e
00000250: 92b8 db3e 6200 1e3e 6a26 66be fab6 013e
00000260: 6817 923e 8c8e 8fbd f3e5 b63e dce2 b33e
00000270: b473 b0be 908e dbbe 884c e93e 42f1 a43e
00000280: c666 69bd 2fcb 6d3e 3a64 44be 377d dd3e
00000290: f607 ce3e 5e9c 93bd d6be 023e 8dbf b73e
000002a0: e815 69be 83f7 bc3d 7d98 8fbe 0ae6 b1be
000002b0: fa05 8a3c d276 6f3d a7f9 d2be d49e d9be
000002c0: 916c d83e eaf7 9dbd 771e 243d efde ad3e
0.422185 -0.07144716 0.018670224 0.50792956 -0.094158605 -0.4116995 0.14278914 -0.40275517
0.0602173 0.16546473 -0.17923796 0.41055503 -0.24756952 0.23106673 0.19431323 0.24591109
0.2858727 0.22603 -0.0925191 0.28355142 0.16647652 -0.068266615 -0.12769158 0.032405213
-0.420177 -0.41903794 0.22781524 -0.07104106 -0.25612542 -0.3905563 -0.22064796 0.098723404
0.13469449 0.14918335 0.14870925 -0.31688657 0.20500003 0.4059386 -0.20521227 -0.287437
0.2261632 0.27293932 0.33721825 -0.12079094 -0.1206994 -0.30655977 -0.2606221 -0.4621895
0.18913302 0.33415827 0.49536 -0.058379285 -0.28567427 -0.13745923 -0.0046781106 0.45469528
0.24731877 -0.08995021 0.026489407 -0.11310433 -0.36016342 -0.25652015 0.23068815 -0.2012187
-0.05431822 0.0088916235 -0.2917663 0.29094517 0.018767271 0.15293503 0.012155756 -0.32340854
-0.0958571 -0.28225303 0.06111305 -0.01998381 0.0028786645 -0.032503817 0.17308952 -0.2861792
0.19823094 0.27819332 -0.13236873 -0.17584439 0.08438926 -0.012640044 -0.16577727 0.27237526
-0.05779248 -0.23006976 -0.2147138 0.3101246 0.0665838 0.13656643 -0.21038705 -0.053887602
0.032733623 -0.008544784 -0.20726235 0.10467786 0.19570863 0.0028372253 -0.046658438 -0.059833612
-0.3184198 -0.08626442 0.14727044 0.26968953 0.21536486 -0.0040666573 -0.2028765 0.2237926
0.011701694 0.051404204 0.2012246 -0.1755954 -0.16664466 0.03490598 0.095520034 0.098354526
-0.30924678 0.34990478 0.10980993 -0.2850163 -0.0726374 0.021112522 -0.39795357 0.16956563
0.3724259 0.211755 0.26159367 0.15696608 0.106990315 0.1686255 0.040082764 -0.23657201
0.2803569 -0.18214367 -0.24571706 -0.19535872 -0.26483566 -0.024822196 -0.1377144 -0.05101775
0.12504391 -0.18615595 -0.20210992 0.133692 0.42914253 0.15429834 -0.22475591 0.12667456
0.28533483 -0.070096105 0.35722312 0.35134017 -0.34463274 -0.42882204 0.455662 0.32215315
-0.056982778 0.2322204 -0.19178858 0.43259594 0.4024045 -0.07207559 0.1276811 0.3588833
-0.22762263 0.092268966 -0.28046027 -0.34745818 0.016848553 0.058462925 -0.41206095 -0.4250399
0.4227033 -0.077133015 0.040068116 0.33959147
