firebase_ml_model.tflite (tflite, 9196 bytes, 6 tensors)

sequential/dense_2/BiasAdd/ReadVariableOp/resource f4 [2]
-0.031708777 0.03170887
00000000: 10e1 01bd 29e1 013d

sequential/dense_1/BiasAdd/ReadVariableOp/resource f4 [60]
-0.108265884 0.145183 0.090985574 0.44994175 -0.5179626 -0.10559426 -0.032530863 0.045118563
0.17219116 -0.042716764 -0.12599196 -0.117657855 -0.06854298 0.20436391 -0.15941578 0.09744124
-0.06343961 -0.077400744 -0.12594993 -0.08323856 -0.06705117 0.5455755 0.052251026 -0.17084612
0.025814174 -0.031496935 -0.073499516 0.0029302854 0.109513074 -0.100257844 0.0679921 -0.117182404
0.07996335 0.11803494 0.20918672 0.07274107 -0.011071517 -0.021755982 -0.020440195 -0.060856495
-0.06781085 -0.03861833 0.3111 0.2135252 -0.09779448 -0.12833369 -0.16514315 -0.05177218
0.059893895 0.15436947 0.14744684 0.018774658 -0.12018221 0.48142198 0.18828098 0.43734857
-0.07360515 -0.094407864 0.16219258 0.47002736
00000000: 81ba ddbd daaa 143e a556 ba3d c45e e63e
00000010: 3299 04bf ce41 d8bd 153f 05bd 3ece 383d
00000020: e152 303e c6f7 2ebd 0904 01be 9af6 f0bd
00000030: 4360 8cbd c644 513e e43d 23be 468f c73d
00000040: a0ec 81bd 4884 9ebd 05f9 00be fa78 aabd
00000050: 2052 89bd d6aa 0b3f 2c05 563d 49f2 2ebe
00000060: 3f78 d33c ee02 01bd ea86 96bd 080a 403b
00000070: 6448 e03d fc53 cdbd 713f 8b3d 54fd efbd
00000080: d3c3 a33d 4dbc f13d 0b35 563e 45f9 943d
00000090: 4f65 35bc 9a39 b2bc 3272 a7bc a944 79bd
000000a0: 6ae0 8abd 412e 1ebd 8048 9f3e 5aa6 5a3e
000000b0: 7948 c8bd e869 03be 491b 29be 110f 54bd
000000c0: 4d53 753d 0813 1e3e 4efc 163e 50cd 993c
000000d0: 1722 f6bd f17c f63e bbcc 403e 27ec df3e
000000e0: 4cbe 96bd e958 c1bd d015 263e 6da7 f03e

sequential/dense/BiasAdd/ReadVariableOp/resource f4 [20]
-0.35665825 -0.36939085 0.4203949 -0.39768076 0.28314534 0.2855332 -0.377721 -0.4498483
0.32529023 -0.48527813 -0.42611447 0.4360477 -0.4199833 0.49031594 0.2760177 -0.38944387
0.64044607 0.54321563 -0.47587723 -0.5353564
00000000: e99b b6be cc20 bdbe 003e d73e d09c cbbe
00000010: 6df8 903e 6831 923e a664 c1be 8452 e6be
00000020: 718c a63e 6076 f8be ad2b dabe a541 df3e
00000030: 0d08 d7be b10a fb3e 3152 8d3e 3065 c7be
00000040: 46f4 233f 2e10 0b3f 2ea6 f3be 1e0d 09bf

sequential/dense/MatMul f4 [20, 20]
0.492589 0.61695695 0.39999875 0.7919907 0.49772018 0.96004 -0.13624401 0.21509616
0.017259298 0.18285689 0.6122379 -0.22740841 -0.41564703 -0.28854328 -0.43486562 0.25090644
0.2900804 0.44119656 0.49604407 0.5406937 0.6072247 0.443558 0.93524563 1.0624008
0.8216209 0.49934724 0.28797182 0.13438076 0.052488636 0.05311937 0.4743319 -0.07361077
-0.3204437 -0.5020323 -0.533993 0.43784732 0.2727415 0.8721927 0.43453375 1.0183586
-0.91591597 -0.71326125 -1.010518 -0.877233 -0.46091458 -0.65209365 0.21068422 -0.23742703
-0.14962794 0.24171 -0.45564532 0.1005393 0.317092 0.44490033 0.07349647 -0.2368918
-0.46732953 -0.49309397 -0.77922344 -0.59635216 0.28057393 0.7397022 0.53659177 0.9095657
0.54219866 0.7807654 0.55111355 0.7695005 0.03709295 0.20642182 -0.010410082 0.030287158
-0.5796799 -0.7186549 -0.44155017 0.037844907 0.9524367 0.902497 0.690404 0.6841042
-0.19827728 -0.94390064 -0.11694178 -0.8803064 -0.6903055 -0.7439831 -0.049302213 -0.1371499
-0.1020715 -0.37152997 -0.0023885085 0.35639012 0.33776376 0.24923912 0.11604051 0.04096756
-0.758565 -0.32090908 -0.14824128 -0.9337653 -0.34189656 -0.32510567 -0.26252466 -0.57437754
-0.3905627 -0.57756984 -0.15938447 -0.3844713 0.42400244 0.18522516 -0.49603903 0.048918325
0.5292737 0.12076808 -0.07784348 -0.193208 -0.3371319 -0.7436077 -0.5085735 -0.8725848
0.5398227 0.66118646 0.42734423 0.57252216 0.28331718 0.9939775 0.1834001 0.15705547
0.04974896 0.004586869 0.64173967 -0.0072090044 -0.49918458 -0.35623616 -0.36615762 -0.07718335
0.45323792 0.87539774 0.3398178 1.0812886 1.001619 1.2429682 0.76081055 0.6778667
0.41790473 0.8983531 -0.33665672 0.39542836 -0.39547825 0.099526 0.3781541 0.28098592
-0.5307632 -0.34166983 -0.14382464 0.28502646 0.56266505 0.8723038 0.6653017 0.6236605
-0.2890691 -0.6707191 -0.53272283 -0.95736885 -0.70888525 -0.72106916 0.0049299914 -0.51269376
0.031545684 -0.50347865 -0.14272675 0.21695669 0.4038545 0.54992884 0.24517465 0.27028316
-0.9172491 -0.99574655 -0.118140794 -0.3138335 0.5840488 0.45897856 0.912502 0.6212699
0.745625 0.9342139 -0.25792655 0.1946322 0.1747725 -0.30196232 0.5324509 -0.014991817
-0.31403184 -0.16885008 -0.4217314 0.0023654327 0.688188 0.76146394 0.89976096 0.62129945
0.75790936 0.8101891 0.87086505 0.5959821 0.43035856 0.44305098 -0.23983306 0.047501657
0.12539272 0.51046497 0.017635979 0.22115096 -0.008024293 -0.6812036 -0.4916689 -0.15494442
0.23991893 0.58746904 0.58221155 1.0890899 -0.83864284 -0.9659418 -0.6378107 -0.9589864
-0.44259527 -1.0205231 0.39381796 -0.08850128 -0.0386474 -0.09346514 -0.13702247 -0.33923978
0.024523932 0.6825487 0.44993436 -0.31673253 -0.7714565 -0.59982765 -0.74222296 -0.7990348
0.7372861 0.71568847 0.5781129 0.5729139 0.6397505 0.6962565 0.081567526 0.049255982
0.106869794 0.09025709 0.55947024 -0.16464704 -0.29946557 -0.5622031 -0.43843916 0.2416205
00000000: a034 fc3e e4f0 1d3f a3cc cc3e e7bf 4a3f
00000010: 2ed5 fe3e 2ec5 753f 8d83 0bbe 2b42 5c3e
00000020: 5f63 8d3c d63e 3b3e 9fbb 1c3f c0dd 68be
00000030: b0cf d4be f2bb 93be b5a6 debe cf76 803e
00000040: 6b85 943e 84e4 e13e 7df9 fd3e e76a 0a3f
00000050: 1473 1b3f 091a e33e 426c 6f3f c0fc 873f
00000060: bf55 523f 71aa ff3e 0b71 933e 1c9b 093e
00000070: 53fe 563d b293 593d a1db f23e 3ec1 96bd
00000080: 3211 a4be 3085 00bf c4b3 08bf 862d e03e
00000090: c6a4 8b3e 0548 5f3f 357b de3e 9359 823f
000000a0: 7879 6abf 4a98 36bf a758 81bf 5892 60bf
000000b0: fffc ebbe 9cef 26bf 9bbd 573e 1220 73be
000000c0: 1138 19be d482 773e 584a e9be 8ce7 cd3d
000000d0: e259 a23e fac9 e33e 5185 963d c493 72be
000000e0: d145 efbe d076 fcbe 307b 47bf 89aa 18bf
000000f0: 63a7 8f3e 205d 3d3f 145e 093f 4cd9 683f
00000100: 88cd 0a3f 3ee0 473f c715 0d3f fcfd 443f
00000110: c7ee 173d 3e60 533e 0c8f 2abc c61c f83c
00000120: e765 14bf c4f9 37bf dd12 e2be 4303 1b3d
00000130: e4d2 733f 0b0a 673f 51be 303f 7421 2f3f
00000140: 3309 4bbe 79a3 71bf 2c7f efbd c35b 61bf
00000150: dcb7 30bf ad75 3ebf 1ef1 49bd 0671 0cbe
00000160: dd0a d1bd 2d39 bebe 8688 1cbb c478 b63e
00000170: 5fef ac3e 8a38 7f3e a6a6 ed3d 9acd 273d
00000180: 5131 42bf 324e a4be 90cc 17be 3e0b 6fbf
00000190: 110d afbe 4074 a6be a269 86be 680a 13bf
000001a0: d6f7 c7be 9edb 13bf af35 23be 6cd9 c4be
000001b0: d916 d93e aaab 3d3e d4f8 fdbe 955e 483d
000001c0: 7b7e 073f 4155 f73d 676c 9fbd 51d8 45be
000001d0: 8d9c acbe 135d 3ebf df31 02bf b861 5fbf
000001e0: d231 0a3f 8443 293f ddcc da3e d090 123f
000001f0: f30e 913e 4f75 7e3f 3ccd 3b3e 26d3 203e
00000200: 91c5 4b3d 724d 963b 0d49 243f 8339 ecbb
00000210: 1f95 ffbe 9664 b6be 0379 bbbe 4e12 9ebd
00000220: cd0e e83e 111a 603f 99fc ad3e aa67 8a3f
00000230: 0d35 803f 9519 9f3f 7bc4 423f ac88 2d3f
00000240: 9cf7 d53e 78fa 653f 455e acbe 9675 ca3e
00000250: 207c cabe 4ad4 cb3d 6a9d c13e 63dd 8f3e
00000260: 19e0 07bf 59ef aebe c446 13be fdee 913e
00000270: d10a 103f 4d4f 5f3f 3651 2a3f 37a8 1f3f
00000280: dd00 94be 3fb4 2bbf 8660 08bf 2016 75bf
00000290: 8179 35bf fd97 38bf c48b a13b e63f 03bf
000002a0: 0c36 013d fae3 00bf f626 12be e529 5e3e
000002b0: 04c6 ce3e 23c8 0c3f 100f 7b3e 8e62 8a3e
000002c0: d6d0 6abf 3fe9 7ebf cdf3 f1bd c9ae a0be
000002d0: 3984 153f 3dff ea3e bb99 693f 8b0b 1f3f
000002e0: 48e1 3e3f a428 6f3f f30e 84be aa4d 473e
000002f0: 90f7 323e ce9a 9abe b44e 083f 3da0 75bc
00000300: c8c8 a0be 09e7 2cbe 2eed d7be 6005 1b3b
00000310: 172d 303f 4def 423f bc56 663f 7b0d 1f3f
00000320: 5906 423f 8e68 4f3f 03f1 5e3f 4892 183f
00000330: f557 dc3e 94d7 e23e cc96 75be 1991 423d
00000340: f366 003e d5ad 023f 5479 903c 6675 623e
00000350: 5378 03bc 5c63 2ebf 07bc fbbe c0a9 1ebe
00000360: 4fad 753e 5f64 163f d10b 153f 4c67 8b3f
00000370: 4cb1 56bf f647 77bf 9047 23bf 2280 75bf
00000380: d99b e2be 80a0 82bf 82a2 c93e 2940 b5bd
00000390: bc4c 1ebd a76a bfbd 9e4f 0cbe d6b0 adbe
000003a0: 6ae6 c83c 83bb 2e3f cc5d e63e c42a a2be
000003b0: 2c7e 45bf 4e8e 19bf 5302 3ebf 8b8d 4cbf
000003c0: c8be 3c3f 5c37 373f 35ff 133f 7caa 123f
000003d0: b0c6 233f de3d 323f e00c a73d a4c0 493d
000003e0: 8dde da3d b6d8 b83d 7139 0f3f 3c99 28be
000003f0: 8d53 99be 8bec 0fbf 197b e0be 5d6b 773e

sequential/dense_1/MatMul f4 [60, 20]
0.14244606 0.53327286 -0.5632722 0.5137431 -0.22661826 -0.084798396 0.608083 0.16397047
-0.22935198 0.32349235 0.25237918 -0.5351888 0.3430663 -0.44564652 -0.26828426 0.2157287
-0.68968284 -0.25297683 0.4198728 0.25112295 -0.19763298 -0.40599337 0.45963043 -0.11966271
0.08322286 0.32958132 -0.40926218 -0.25844505 0.5689076 -0.17671493 -0.2181947 0.39795536
-0.6150731 0.072777465 0.33844185 -0.49034113 0.5781804 0.3999434 -0.4919399 -0.4742982
-0.32531196 -0.13212024 0.20496042 -0.2607823 0.55786294 0.17801197 -0.24654329 -0.28230247
0.39109638 -0.3664518 -0.42529586 0.116281524 -0.18419418 0.41495216 0.24761635 -0.52728593
0.68343705 0.19606815 -0.15460406 -0.5197635 -0.84197545 -0.6670753 0.5911889 -0.671629
0.5238792 0.4772991 -0.74630004 -0.8026794 0.7035316 -0.3849465 -0.26653084 0.91155857
-0.5366559 0.8834607 0.48918873 -0.5492742 0.9619687 0.4799077 -0.77508765 -1.0171301
0.70946276 1.0105642 -0.7262656 0.7486019 -0.95209485 -0.5793973 0.8383086 0.5699357
-0.5181302 0.35358277 0.81899744 -1.0024197 0.8731499 -0.9225898 -0.5935622 0.93374443
-0.8885927 -0.53008944 0.5405504 0.6995243 0.24804503 0.37518403 -0.42682537 0.27222344
-0.14048813 -0.05057017 0.22606358 0.28637862 -0.46414542 -0.13535279 0.24931523 -0.092572995
0.27545485 -0.18121967 -0.2426615 0.38476104 -0.14173326 -0.3249081 0.27337956 0.42208505
0.15232138 0.178841 -0.4512118 0.39141002 -0.50230706 -0.28698832 0.20952807 0.13817663
-0.5470495 0.26088968 0.21311842 -0.23539552 0.3176505 -0.028379463 -0.25338367 0.66061866
-0.6110139 -0.43560648 0.5510338 0.4878838 -0.42495582 -0.5129743 0.5479249 -0.26348594
0.10027773 0.2073925 -0.21154751 -0.11135945 0.39187527 -0.12355559 -0.21358013 0.626423
-0.43223912 0.2855363 0.3692447 -0.46018162 0.5158775 0.17317289 -0.5359092 -0.16712229
-0.4047945 -0.33059427 0.16558498 -0.54662645 0.5644758 0.1181274 -0.050091837 -0.3292339
0.1748645 -0.14182505 -0.35298026 0.33762115 -0.545483 0.444324 0.45205605 -0.34220824
0.5810367 0.28288195 -0.4909066 -0.31927162 0.15026285 0.15479924 -0.39373884 0.45679662
-0.4771602 -0.15412569 0.30477193 0.12781925 -0.24557425 0.37895656 0.23367892 -0.45476857
0.22766952 0.032575008 -0.13062164 0.5878563 -0.42870244 -0.41533577 0.23763828 0.08154159
0.5417057 0.25925273 -0.34015432 0.12869824 -0.053316027 -0.15963905 0.49275595 0.34380478
-0.49838382 -0.012628471 0.07827818 -0.0653574 0.48421383 -0.44192746 0.056983694 0.26844645
-0.6168619 -0.19703154 0.34301946 0.035819326 0.19709216 0.53266394 -0.45205268 0.6546252
-0.38374624 -0.33928546 0.14340992 0.33179986 -0.29799443 0.19233198 0.30110395 -0.6080723
0.22371575 -0.4000232 -0.010085586 0.56016636 -0.49094895 -0.53400826 0.48261765 0.4568693
0.31622165 0.48002937 -0.08324428 0.47864613 -0.40236917 0.029598784 0.14820088 0.2137277
-0.24046561 0.09159738 0.39696848 -0.45087487 0.05607064 0.074186355 -0.26595932 0.12732634
00000000: 61dd 113e 9284 083f 9b32 10bf ab84 033f
00000010: 9e0e 68be c8aa adbd 54ab 1b3f e0e7 273e
00000020: 3fdb 6abe caa0 a53e d837 813e 2202 09bf
00000030: 63a6 af3e c82b e4be 8e5c 89be fce7 5c3e
00000040: 0e8f 30bf 2e86 81be 91f9 d63e 3093 803e
00000050: 4d60 4abe 5dde cfbe ae54 eb3e b911 f5bd
00000060: bf70 aa3d e2be a83e d08a d1be e952 84be
00000070: eea3 113f c2f4 34be 6e6e 5fbe cec0 cb3e
00000080: 6e75 1dbf 5a0c 953d 4048 ad3e fe0d fbbe
00000090: a103 143f 62c5 cc3e 8cdf fbbe 37d7 f2be
000000a0: 4a8f a6be 874a 07be 25e1 513e 4285 85be
000000b0: 1bd0 0e3f c548 363e d875 7cbe f389 90be
000000c0: c93d c83e 929f bbbe 61c0 d9be 0225 ee3d
000000d0: 669d 3cbe 9c74 d43e 248f 7d3e 36fc 06bf
000000e0: bbf5 2e3f 17c6 483e 8750 1ebe 390f 05bf
000000f0: b48b 57bf 72c5 2abf 2858 173f e1ef 2bbf
00000100: f21c 063f 8c60 f43e 850d 3fbf 667c 4dbf
00000110: a61a 343f b517 c5be bb76 88be e75b 693f
00000120: 4862 09bf 7b2a 623f f276 fa3e 3c9d 0cbf
00000130: 9543 763f 76b6 f53e 256c 46bf 5231 82bf
00000140: 5a9f 353f 2b5a 813f 8bec 39bf 60a4 3f3f
00000150: 7dbc 73bf 6253 14bf 649b 563f 4ee7 113f
00000160: 2ea4 04bf cd08 b53e d1a9 513f 4a4f 80bf
00000170: c086 5f3f d82e 6cbf b1f3 17bf e009 6f3f
00000180: d07a 63bf f1b3 07bf 8361 0a3f 0614 333f
00000190: 84ff 7d3e 1f18 c03e db88 dabe df60 8b3e
000001a0: 1fdc 0fbe ab22 4fbd 367d 673e 38a0 923e
000001b0: 78a4 edbe ec99 0abe 7e4c 7f3e e996 bdbd
000001c0: 6b08 8d3e a691 39be 427c 78be 66ff c43e
000001d0: 8622 11be 5b5a a6be 68f8 8b3e 881b d83e
000001e0: 23fa 1b3e 1822 373e 3c05 e7be e566 c83e
000001f0: 3297 00bf 22f0 92be 878e 563e 2d7e 0d3e
00000200: 700b 0cbf 5593 853e b73b 5a3e 860b 71be
00000210: 16a3 a23e 0c7c e8bc 81bb 81be 4e1e 293f
00000220: 686b 1cbf d007 dfbe 8d10 0d3f e8cb f93e
00000230: cf93 d9be 4952 03bf ce44 0c3f a1e7 86be
00000240: 695e cd3d b35e 543e e99f 58be 6c10 e4bd
00000250: e0a3 c83e b70a fdbd c0b4 5abe 425d 203f
00000260: 724e ddbe d031 923e a40d bd3e ed9c ebbe
00000270: 8c10 043f 3c54 313e 5831 09bf 1b22 2bbe
00000280: 3a41 cfbe a743 a9be 1c8f 293e b6ef 0bbf
00000290: 7c81 103f c7ec f13d 192d 4dbd 5991 a8be
000002a0: ae0f 333e 963a 11be d4b9 b4be aedc ac3e
000002b0: c6a4 0bbf 6f7e e33e e473 e73e eb35 afbe
000002c0: d2be 143f e7d5 903e 1c58 fbbe 9277 a3be
000002d0: 81de 193e b183 1e3e 2398 c9be 3fe1 e93e
000002e0: 574e f4be 20d3 1dbe 110b 9c3e 0de3 023e
000002f0: d177 7bbe 9806 c23e 8749 6f3e 6dd7 e8be
00000300: 3322 693e 5f6d 053d aec1 05be c07d 163f
00000310: e37e dbbe e4a6 d4be 7357 733e 47ff a63d
00000320: 3aad 0a3f c6bc 843e b528 aebe 79c9 033e
00000330: e861 5abd 6b78 23be 824a fc3e 2e07 b03e
00000340: 2a2c ffbe a5e7 4ebc 4f50 a03d 1ada 85bd
00000350: e0ea f73e 5144 e2be bc67 693d d071 893e
00000360: a9ea 1dbf a3c2 49be 3fa0 af3e 49b7 123d
00000370: 87d2 493e aa5c 083f 7373 e7be 8495 273f
00000380: 637a c4be d3b6 adbe 0dda 123e ace1 a93e
00000390: ba92 98be adf2 443e 4c2a 9a3e a0aa 1bbf
000003a0: be15 653e d7cf ccbe 043e 25bc 1067 0f3f
000003b0: a95d fbbe c4b4 08bf a919 f73e c6ea e93e
000003c0: cee7 a13e 69c6 f53e fa7b aabd 1b11 f53e
000003d0: 5503 cebe 2679 f23c f9c1 173e 6fdb 5a3e
000003e0: 9e3c 76be 6897 bb3d 743f cb3e 12d9 e6be
000003f0: 54aa 653d 04ef 973d d22b 88be d661 023e

sequential/dense_2/MatMul f4 [2, 60]
0.4724073 -0.42065394 -0.3003754 0.012513736 0.19359006 0.015647722 0.29552853 -0.3366167
-0.5737708 0.3477107 0.41747054 -0.083738424 0.3992735 -0.42287615 0.32212567 -0.21427658
-0.123736404 0.39624026 0.08996858 0.48189464 0.29271117 -0.3786581 -0.14798607 0.3085974
-0.15977089 0.051661313 0.30741164 -0.13544585 -0.20978276 0.15104698 -0.32461822 0.30038008
-0.3474559 -0.2432595 -0.15538391 -0.26311362 0.19358332 0.262477 -0.41615498 0.27866906
0.2455383 -0.09591612 -0.06875329 -0.34452346 0.45659876 -0.12563992 0.16197897 0.050490845
-0.2817703 -0.46469176 -0.28257447 -0.32825527 0.15636322 -0.32094648 -0.47996795 -0.38905737
0.32609543 0.26849303 -0.34786716 -0.08111845 -0.020327996 0.42622557 0.2542353 0.5243601
-0.264277 -0.39248374 -0.45781562 0.19050308 0.5039701 -0.16666457 -0.34003067 -0.30464956
-0.35211432 0.067926265 -0.30645305 0.39427447 -0.36764127 -0.3823303 -0.37531775 -0.13068824
-0.13766801 0.28742558 0.41208094 -0.28585705 -0.03562892 -0.12580714 -0.26085433 -0.030439645
0.4435317 -0.45940235 0.09959784 -0.35369718 0.15182279 0.2890596 0.523762 0.4920861
0.30584705 -0.39711916 0.2933817 -0.4505973 -0.22180805 -0.13330364 0.45718145 0.45038813
-0.4286335 -0.32726455 -0.4382557 -0.35849705 0.45352063 0.28408352 0.13516851 0.4119086
-0.20083746 0.2162331 0.52391773 0.33402297 -0.4523573 -0.44245654 0.5544482 0.45415527
00000000: 5fdf f13e f45f d7be ceca 99be 6a06 4d3c
00000010: 793c 463e a72f 803c 844f 973e 0659 acbe
00000020: a5e2 12bf 2307 b23e b3be d53e 0d7f abbd
00000030: 946d cc3e 3983 d8be a8ed a43e 526b 5bbe
00000040: 8369 fdbd 01e0 ca3e 7241 b83d e5ba f63e
00000050: 3dde 953e 79df c1be a989 17be 7a00 9e3e
00000060: fb9a 23be d09a 533d 0f65 9d3e 51b2 0abe
00000070: 4bd1 56be 0fac 1a3e 5c34 a6be 6bcb 993e
00000080: bde5 b1be 0519 79be f61c 1fbe d4b6 86be
00000090: b53a 463e 6363 863e 4412 d5be b6ad 8e3e
000000a0: 646e 7b3e ac6f c4bd 86ce 8cbd 6165 b0be
000000b0: 50c7 e93e c0a7 00be d1dd 253e 7dcf 4e3d
000000c0: 3244 90be 14ec edbe 9aad 90be 1311 a8be
000000d0: ae1d 203e 1953 a4be 5cbe f5be 8732 c7be
000000e0: fbf5 a63e eb77 893e a51b b2be 6e21 a6bd
000000f0: e686 a6bc 3d3a da3e 212b 823e 773c 063f
00000100: 514f 87be a1f3 c8be cf66 eabe 3d13 433e
00000110: 2f04 013f 1eaa 2abe 8018 aebe 07fb 9bbe
00000120: 5448 b4be ed1c 8b3d 6ae7 9cbe 58de c93e
00000130: 7a3b bcbe ccc0 c3be a629 c0be 23d3 05be
00000140: d8f8 0cbe 7229 933e 46fc d23e db5b 92be
00000150: a1ef 11bd 96d3 00be b38e 85be 905c f9bc
00000160: 9616 e33e c936 ebbe f4f9 cb3d cc17 b5be
00000170: 6f77 1b3e 9fff 933e 4415 063f b6f2 fb3e
00000180: fc97 9c3e 3453 cbbe 2036 963e b0b4 e6be
00000190: a621 63be c080 08be b013 ea3e 4699 e63e
000001a0: da75 dbbe 388f a7be 0d63 e0be ed8c b7be
000001b0: db33 e83e 6573 913e 9d69 0a3e afe5 d23e
000001c0: 56a8 4dbe 366c 5d3e 791f 063f 0f05 ab3e
000001d0: 609b e7be aa89 e2be 51f0 0d3f 0a87 e83e
