firebase_ml_model.tflite (tflite, 371140 bytes, 8 tensors)

sequential/dense_1/BiasAdd/ReadVariableOp/resource f4 [2]
00000000: a684 e3bd a684 e33d
-0.11109285 0.11109285

sequential/dense/BiasAdd/ReadVariableOp/resource f4 [60]
00000000: 27d8 213c 595b b7ba fdac e239 2bc2 813d
00000010: 8232 763b ffa6 9dbd 70f0 5a3d cb8d 4f3d
00000020: 4ac5 853b 6bf2 09bd 14c4 b1bb 4185 0cbd
00000030: 348e 8fbc 9bf3 a8bb 1645 063d c949 4b3d
00000040: 3ea4 853a 4c9a c53c 4f94 143d 3351 d9bc
00000050: 3355 b93c 3ddc e23c 82dc 86bb 79b8 91bd
00000060: a0fb 553c 3709 3abd 6dc6 59bd f46e 14bd
00000070: 386e 31bd 0015 28bd ff9f 2abc 5de1 253c
00000080: a386 5cbd 0925 613a 9260 703c f70e 663c
00000090: 3705 4a3c 1acb 1cba f97e 11bc abe4 2bbc
000000a0: 4936 123b d35b 19bc 1afc 98bc d228 e2bc
000000b0: 8fb1 03bd 825c 29bb 1663 4dbb 1200 e83c
000000c0: 59f9 81bc 6f7d 3d3d a096 07bb a953 153d
000000d0: b12b 8d3d 93fc 0b3d a8ad 243d 5896 6dbb
000000e0: a201 0fbd c0f2 2fbd f0d4 19bd a618 f13c
0.009878195 -0.0013989016 0.00043234965 0.06335863 0.0037566726 -0.076978676 0.053451955 0.050672334
0.0040823566 -0.033678453 -0.0054249857 -0.03430677 -0.017523862 -0.005155993 0.03278073 0.049630914
0.0010196043 0.024121426 0.03627425 -0.026527977 0.022623634 0.027692908 -0.004115642 -0.071152635
0.01306048 -0.045418944 -0.05316775 -0.036238626 -0.043318003 -0.041035652 -0.010414123 0.010124532
-0.053839337 0.00085885875 0.014671462 0.014041654 0.012330345 -0.0005981192 -0.00888037 -0.01049153
0.0022310189 -0.0093602715 -0.018674899 -0.027607355 -0.032151755 -0.0025842492 -0.0031339577 0.028320346
-0.015865969 0.0462622 -0.0020689145 0.036456738 0.06893099 0.03417642 0.040204674 -0.0036252942
-0.034913667 -0.042956114 -0.03755659 0.029430699

sequential/conv2d_1/BiasAdd/ReadVariableOp/resource f4 [16]
00000000: e302 bdbc 5008 3fbb 2469 253c 27c3 813c
00000010: e1e2 1c3d 66ae ebbc cc7f b4bc 0136 db3b
00000020: 9706 b5bc 82c7 6dbc 8d49 c1bb ee2a 3e3d
00000030: 795f 2bbd 4a8f e4ba 34a3 40bc 268c 95bc
-0.023072666 -0.0029149242 0.010095868 0.015840126 0.038302306 -0.028769683 -0.022033595 0.0066897874
-0.022097869 -0.014512898 -0.0058986605 0.04642766 -0.041839097 -0.0017437723 -0.011757661 -0.018255305

sequential/conv2d/BiasAdd/ReadVariableOp/resource f4 [32]
00000000: 685e 033d 24a8 7dbb 3a8d dc3c 7143 f63c
00000010: e937 0b3d ab92 f93c 0d1a 153c e198 c73b
00000020: afc1 20bb 1b05 19ba 50d2 623d 0846 073d
00000030: 011f bdbc 5e7d 1aba ac82 873c af7c 893b
00000040: e204 d2bc 5636 efba 6e90 b5b9 1107 f83b
00000050: 72fa 9dba cc41 eb3c 5ebd 24bb 924e 5cbc
00000060: a541 763b a8a7 f1bb 893b a03c 28b6 a1ba
00000070: 7751 a03a f482 833c 8a36 a03c 4080 f53c
0.032072455 -0.0038704956 0.02692281 0.030061455 0.033988867 0.030465445 0.009100449 0.0060912226
-0.0024529507 -0.00058372476 0.05537635 0.03302577 -0.023086073 -0.0005893315 0.016541801 0.0041957716
-0.025637094 -0.0018250446 -0.0003463062 0.0075692018 -0.0012052788 0.028717898 -0.0025137286 -0.013446467
0.0037575748 -0.0073747225 0.019559639 -0.0012337612 0.001223131 0.016053654 0.019557256 0.02996838

sequential/dense/MatMul f4 [60, 1440]
00000000: 8f16 1d3b 002f 623d 368f eabc 7939 693d
00000010: 7020 3c3d 0cd7 173c 7e01 23bd 1a74 10bd
00000020: 462d 73bc 08c7 3d3d 0675 133d 5592 633d
00000030: 9560 c4bc 79a7 44bd 0456 5abd 19ed 463d
00000040: ab47 b53c b716 73bd 167f b7bb 5147 1abd
00000050: ff2d 7d3d 8267 943b f85d 02bc 5ed5 263d
00000060: f417 6f3d e75c 993c 5f11 3e3d 1052 ed3c
00000070: a635 4abc 889d 68bd bea5 263d 18cb 21bd
00000080: 9a5c e0bc ca33 9f3c 934d f3bc b849 693d
00000090: f954 96bb a42d 7dbd 586b 44bd ae88 023d
000000a0: c54e 87bc f638 c93b cbc8 823c 3f45 54bd
000000b0: b546 1fbd 695e b9bc 4841 13bc 574b 733d
000000c0: b7a5 123d 3db4 233d 4cd0 783d 220d 123d
000000d0: 551f f2bc 724f 95bb 2fb3 c03c b50d 0d3d
000000e0: 6eaf 6fbc b822 333d ed40 2dbc 3828 153d
000000f0: 72e0 283d a406 4bbd 8fb0 10bd cfa0 65bd
00000100: dcd0 f33b ce37 e5bb 3737 02bd bd50 073d
00000110: 51f0 57bd 43fe 153d f753 b4bc 7b59 60bd
00000120: 88f2 c23c f431 aa3c b816 ce3b ded5 993b
00000130: 0349 d5bc 36e5 2d3d 2d3f 98bc a858 34bd
00000140: f943 19bc c0fb 973c 93fe 22bd 93bd 553a
00000150: cfca 20bd 3b89 e53c ff71 7bbd 2bf1 c4bc
00000160: b1f0 ddbb 0527 67bd 4d87 cc3c 724e 2bbc
00000170: 53b4 cd3c 3f04 413a 363c 22bd 0238 523d
00000180: 6f6b 7cbc 9d0b 09bd 0f5c 663d 326d 1f3c
00000190: eee7 49bd b2ec 3ebd 2013 04bb a57c 24bd
000001a0: 592a 61bd 8932 173d 5362 62bd 255f 823d
000001b0: 82b6 b43c 0c91 bc3c cc8c a33b 27ba 983b
000001c0: d1a7 76bd 4feb bf3c 7452 4fbc d8bc 71bd
000001d0: 549b 123d 9351 94bb f290 74bd 191f 8cbb
000001e0: d9fd 5cbd 0092 6f3b b5b2 8cbc b67e 483d
000001f0: dc9f 663b 0316 1bbd e644 60bd b747 bb3c
00000200: 1c62 82bd 6d4b 193d 38cd 75bd 4b4f e93c
00000210: bdd7 2cbd 3410 5dbd 98f3 763d 65c6 04bc
00000220: 6a15 953c 6dab 65bd 1bc0 18bd 5a01 84bc
00000230: 8c88 4bbc 487e 81bd fbc7 7b3c 1a44 b5bc
00000240: b837 e73c 5881 683d d622 8abc 95c2 c43b
00000250: 5b7b 433d 74e5 28bd 44f2 283c 4d45 e7bc
00000260: 07dc 97bc 8f17 e53b c182 5bbb 312c a4bc
00000270: cd67 503d 2439 61bc 331c b13c 4cd9 64bd
00000280: d83a c83c ad25 14bd 28f4 573d a9e2 1cbd
00000290: a935 a0bc aef1 09bd 9e65 35bc e2d8 3c3d
000002a0: d9d3 49bd c354 17bd 961d 6d3d 6e6a 44bd
000002b0: 6585 3d3d bcb2 393d 53f2 713d cedb a5bc
000002c0: e54f 603d a35b 023d 3e2d 6ebd f473 713d
000002d0: 0731 753d 9932 9dbc 2d0d 54bd 8b40 0c3d
000002e0: 5101 c43c 7cc2 d03b acb1 06bd 8e4c 803c
000002f0: 81c4 c83c 7065 ab3b 14fa 20bd 1aaf 9a3b
00000300: 01fe 2f3d 0584 023d ceff 4d3d 3c86 e8bc
00000310: 644b aabc 033d 583d 1d06 7dbd dd4b 723d
00000320: 002b 3abd 05e7 b5bc 67c6 04bc 04a6 c83c
00000330: 83b2 b4bc e033 5b3c a931 423c d371 0d3d
00000340: 1850 c83c 41f0 e03c b073 2abd 61d3 afbc
00000350: 976f 2e3d f1c5 3c3d bba5 7abd 4210 d3bc
00000360: 6f65 8d3a 3747 80bd 6a36 fbbc c871 363d
00000370: f88a a1bc d0c0 fd3a 8a15 debc e8ed 4d3d
00000380: c096 173d f3f5 bbbc 86df 37bb 2502 6bbd
00000390: b396 403d 4a66 49bd a493 67bd e21f 12bd
000003a0: 9f22 2d3d 9c2c 61bd 10a3 9c3c a090 63bd
000003b0: a6c2 81bd 2af6 d53c f60b ee3b c51f 00bd
000003c0: cc4a 3fbb 0a4b 833c 8402 853b 47be 50bc
000003d0: 068f 5dbd 126d 513d 7418 023d 2516 0cbd
000003e0: c690 c1bc 1f27 213d fec4 4fbd e4a8 233c
000003f0: f1ea e13c d3f6 743d a976 2fbd 0119 de3c
0.0023969745 0.055220604 -0.028632741 0.056939576 0.045929372 0.00926758 -0.039796345 -0.035266973
-0.014842337 0.04633239 0.036000274 0.055559475 -0.023971835 -0.048011277 -0.053304687 0.048565958
0.0221289 -0.059347834 -0.0055998666 -0.03766567 0.061811443 0.0045289407 -0.007956974 0.040730827
0.058372453 0.018721057 0.046403285 0.028969795 -0.012341892 -0.05679086 0.040685408 -0.039500326
-0.027387906 0.019433875 -0.029700076 0.05695507 -0.0045877662 -0.061811104 -0.047953933 0.03186863
-0.016517052 0.0061408235 0.015964886 -0.05182385 -0.03888579 -0.022628026 -0.008987732 0.05939802
0.03580257 0.03996681 0.060745522 0.035657056 -0.029555956 -0.0045565898 0.023522941 0.0344369
-0.014629228 0.043734282 -0.010574562 0.03641531 0.041229673 -0.04956688 -0.03532463 -0.056061562
0.0074406695 -0.006995178 -0.03179094 0.033035982 -0.052719418 0.036619436 -0.022012694 -0.054772835
0.023797289 0.020775773 0.0062893294 0.0046946844 -0.026035791 0.04245492 -0.018584812 -0.04402986
-0.009354585 0.018552661 -0.039793562 0.0008153554 -0.039255913 0.028019538 -0.061388012 -0.02404078
-0.0067730774 -0.056433696 0.02496686 -0.010455715 0.0251104 0.00073629984 -0.039608203 0.051322944
-0.015406474 -0.03345834 0.056240138 0.009730624 -0.04929345 -0.04661245 -0.0020153 -0.040157933
-0.054972026 0.03691343 -0.05526955 0.06365804 0.022059683 0.023018382 0.0049911495 0.004660863
-0.060218636 0.023427634 -0.012653936 -0.059017986 0.035792664 -0.004526326 -0.059708543 -0.004276168
-0.053953025 0.0036555529 -0.017175058 0.048948966 0.0035190498 -0.03786279 -0.054753207 0.022861345
-0.06366369 0.037425447 -0.060010165 0.028480193 -0.04219793 -0.05397053 0.060290903 -0.008103942
0.018198688 -0.056071687 -0.03729258 -0.016113926 -0.012422692 -0.06322914 0.015367503 -0.0221272
0.028224811 0.056763977 -0.016862314 0.0060046413 0.047725063 -0.04123445 0.010311667 -0.028231287
-0.018537534 0.006991334 -0.0033494683 -0.020040603 0.050880242 -0.013746534 0.021619892 -0.055871293
0.024442121 -0.036168743 0.05272308 -0.038302097 -0.019556837 -0.03367775 -0.011071591 0.046105273
-0.0492743 -0.03694607 0.057889543 -0.04795306 0.046269793 0.04533647 0.05906899 -0.020246413
0.054763693 0.031825673 -0.058148615 0.058948472 0.05986121 -0.019189166 -0.051770378 0.03424124
0.023926409 0.0063708406 -0.032884285 0.015661504 0.024507763 0.005230598 -0.039300993 0.0047205808
0.042966846 0.031864185 0.050292782 -0.02838432 -0.020787902 0.05279256 -0.06177341 0.05915438
-0.045451164 -0.022204885 -0.008103943 0.024493225 -0.022057777 0.013379067 0.01185266 0.03453238
0.024452254 0.027458312 -0.041614234 -0.021463098 0.04258689 0.04608721 -0.06119321 -0.025764588
0.0010787676 -0.06263583 -0.030665595 0.044542104 -0.019719586 0.0019359831 -0.02710988 0.050275713
0.037009 -0.022944426 -0.0028056814 -0.057375092 0.047018718 -0.049169816 -0.056537285 -0.035674937
0.042269345 -0.054974183 0.019120723 -0.055557847 -0.06335954 0.026118357 0.0072646094 -0.031280298
-0.002918887 0.016026992 0.004059138 -0.012740678 -0.054091476 0.05112941 0.0317616 -0.034200806
-0.023628604 0.03934395 -0.050724976 0.009988997 0.02757785 0.059805702 -0.042837773 0.027111532

sequential/dense_1/MatMul f4 [2, 60]
00000000: 1613 42be 6e9b 64be 43d4 8f3e 4eef b0be
00000010: 64d2 46be 4bd1 c73e 8b3f 91be 8efd 27be
00000020: b3ca 3c3c 5d31 523e 22d7 783e b4be 663e
00000030: f240 833e 6228 3ebe ca02 97be 3646 91be
00000040: e0a9 f7bd c2a6 debd 96bf 03be dcf1 833e
00000050: b9f8 92be aa21 b53c ab30 d6bc 10fe c13e
00000060: f3d8 4cbe 7874 c63e 0a4c 973e 7232 2d3d
00000070: 28bf 593e 191c a03e 1641 093e 1f31 b0be
00000080: 794f 4c3e e735 283e 2cb4 a1be 20d6 1abd
00000090: 0cff 80be be2e 873e 782f adbd 7da9 30be
000000a0: c2bb c1bc baef 463e 03b9 ae3e a696 b03e
000000b0: 1fad 0e3d b4f2 943d 1026 24be 88c8 24be
000000c0: dbc8 7e3c 16e5 a6be 5393 f43c 08a1 16be
000000d0: 303e b0be 5c9d 273b 7d2c a8be 74ac 8a3e
000000e0: a797 793e 8e7a d63d 8712 663d aeed a8be
000000f0: f5bc a8bd 891b 80be 5141 a03e a9ea ac3e
00000100: 0d12 24be 391e c4be c1e3 843e dd62 bd3e
00000110: 42ca 8c3d 029d 19be d2b3 483e 37c3 07be
00000120: be9b 8c3d f5ee 82be af4d 633d de4b 893e
00000130: 971d e7bd 0542 113e 2e61 863e 949b 69bd
00000140: 7f14 7fbd d8c0 913e 1300 80bd a6e5 9ebe
00000150: ac73 88bd ce67 f9bd f891 8abe f29f a8be
00000160: a421 6abe f82f 19be 3182 b13b d83e 59be
00000170: 8e25 bbbe 492f 523e 41aa 2fbe 1e75 013e
00000180: 648c c2bd 28b6 853e 0631 19be 3c19 8bbe
00000190: e576 89bc fa7d cd3d 83fc 013e 6821 453d
000001a0: 06aa 92be 28e6 9d3c e57f 34be 268e 083e
000001b0: e307 20be 15cc 393e 735e e43a d2e0 803e
000001c0: 4ede d83e adf2 bb3e e462 b33d af3b 753e
000001d0: 8d0f 16be c071 aabe 353e a1be 5538 e7bb
-0.18952593 -0.22324917 0.2809163 -0.34557575 -0.19416195 0.39026865 -0.28368792 -0.16405317
0.011522937 0.20526643 0.24300817 0.22533685 0.25635487 -0.18570092 -0.29494315 -0.2837388
-0.12092948 -0.1087165 -0.12866053 0.25770462 -0.28705385 0.022110779 -0.026146254 0.37889147
-0.20004635 0.38760734 0.295502 0.042284437 0.21264327 0.31271437 0.13403735 -0.34412476
0.19952191 0.16426812 -0.31582773 -0.03780186 -0.25194585 0.2640285 -0.084563196 -0.17252155
-0.0236491 0.19427386 0.34125528 0.34489936 0.03483307 0.072728544 -0.16030145 -0.16092122
0.015550817 -0.32596654 0.029855406 -0.14709866 -0.34422445 0.0025575971 -0.32846442 0.27084696
0.24374257 0.10472594 0.056170013 -0.32993835 -0.08239166 -0.25021008 0.31299832 0.33772781
-0.16022511 -0.38304308 0.25955012 0.3698949 0.06874515 -0.150013 0.19599846 -0.13258062
0.06865643 -0.25572935 0.055494007 0.26815695 -0.11284941 0.1418534 0.26246017 -0.057033136
-0.062275406 0.2846744 -0.06250014 -0.31034583 -0.06662688 -0.12178002 -0.2706449 -0.3293453
-0.22864395 -0.14959705 0.0054171314 -0.21215379 -0.3655209 0.2052585 -0.1715479 0.12642333
-0.09499434 0.26115537 -0.14960107 -0.2716769 -0.016780326 0.10033794 0.12693982 0.04812756
-0.28645343 0.019274786 -0.17626913 0.13335475 -0.15628009 0.18144257 0.0017423168 0.25171524
0.42357105 0.36708584 0.08759096 0.23948549 -0.1465437 -0.3328991 -0.31492773 -0.007056276

sequential/conv2d/Conv2D f4 [32, 5, 5, 1]
00000000: 7113 163e c91a 603d 68a2 93bd db66 a6bd
00000010: 404e 94bd bc6a 8fbd 288d dc3c 3679 e9bc
00000020: 78a2 a33b 6860 703d 9cd0 e6bc ffc0 cbbc
00000030: 7d42 21bc 343a dd3d 570d 9bbd 6e23 7abd
00000040: 397f e53d 49a7 253d 8f6f 293d 268a 263c
00000050: ecc1 133a f460 a2bc 8f51 abbd 64ef 853d
00000060: 0cf5 b03d 5198 233d df6b eb3d b887 40be
00000070: 8079 b23d 525f 6e3d ef2d f93d f127 a03d
00000080: 82bd 81bd 9b5b 46bc 13fb 653d 1bcf 34bd
00000090: a0c5 c03d 3ebe c8bd fd89 06bb c2c3 f6b9
000000a0: f743 02be 11df ecbd 9429 293e da48 dcba
000000b0: 8511 8abd 6688 b23b fc9d 3dbe 0df5 293e
000000c0: 2e40 b4bd 34d9 89bd 6ffd 0a3e 14c6 f0bd
000000d0: e857 4dbc f34d 043d 225e a8bd de1b c5bc
000000e0: 0af5 7bbd 3587 91bc c8e7 c9bc 8c9a 313d
000000f0: 2a1b c53d 3272 a13b 4e57 643d 5411 87bd
00000100: b5bf 9dbd f943 1fbd 5cd4 783c 8753 a33d
00000110: 9aa4 383d fe0c 423c 9c05 27be 9d20 0a3e
00000120: ec66 953a 034d 05be 8136 cf3d f706 94bd
00000130: 4cc0 113d e425 053e efa2 f0bd 2da2 abbc
00000140: a190 813c 11e0 b93d 70a4 09bd 7786 ab3c
00000150: b9af c63c f00a 1c3d e453 09bd 15af 61bd
00000160: 591c 8e3d 24a0 8fbd ecce ce3c 8813 013d
00000170: 0de0 3ebd 352c 0f3d 88a6 96bd 1091 223e
00000180: 9d33 48bd f558 21be f52f 2f3d fc06 1abd
00000190: bb35 973d 438b 863d 1fa2 9f3d 3fd7 eabd
000001a0: 35c6 483c 19e4 213d e1e4 3fbd f9c3 ce3d
000001b0: 7d9c 023d 3b35 b2bd 6b76 17bc b2f1 403d
000001c0: 8735 a73d 97ce ffbc 995e 473d e027 193d
000001d0: c83b 45bc 56d1 7bbb 6a21 cb3d 070d 423d
000001e0: b8da 123b 43dd 68bd dd3a a0bd fc29 a33d
000001f0: 6038 47bd 47ad d1bd 44fd 273d 0470 ce3d
00000200: d568 26be 0146 a43d ed32 23bd aeed 623d
00000210: 2577 24bc 66b0 acbd ba47 5dbd 83d8 c1bc
00000220: f99b bcbd 168c c0bc 2c12 d73c 6a95 64bd
00000230: 9d53 41bd ec47 cb3c e416 94bd c23d 163d
00000240: a294 86bc d555 9c3d 2084 153d ca99 28be
00000250: a9b0 403d 7f62 6a3d 475b 123b 9d6e 9e3d
00000260: d368 b43d 9acb 76bd c244 683d 7d40 45bc
00000270: 4c77 08bd 5173 19bd 7ca8 613d a76c 783d
00000280: 9c20 afbd 2599 1a3d 8cfc 9a3d c726 e83c
00000290: 1f93 5d3d 1ba2 8dbc d740 893d 6cf3 f3bd
000002a0: 8d6f bf3d bd90 333d b192 c0bc 1e89 1a3d
000002b0: 2657 15be b826 3ebd 65ec ac3d 7794 7b3c
000002c0: f7f1 e0bd 663f d0bc 3d1c dcbc 22c2 11bc
000002d0: 5fbd cc3d 159d 7cbd cfbe b43c d1d2 2f3d
000002e0: 69dd 3fbd 26ba b53d 3c62 6f3d d37f 9f3d
000002f0: d121 7d3d 2fa3 01bd dd1c aebd 00a6 10bd
00000300: abed 36bd 55a0 783c 2aa7 4d3d c521 6f3c
00000310: 2959 d8bc 3959 abbd 319f edba 19f0 d33c
00000320: 0075 f13c bdcf c23d 6ca0 903d c586 d43d
00000330: 444c 513d 4aeb 633d 07f3 cb3d 3407 11be
00000340: 60f0 8fbd 7698 61bd 8c30 5ebd 7c75 a1bd
00000350: c794 463c 2124 ae3d 809e a2bd afe7 d2bd
00000360: b0e1 a5bd ac04 bebc 7a19 123d a6d1 7e3d
00000370: 4e72 8a3d 2a5d 4bbd 1f52 933d a9d8 1fbe
00000380: ba52 173d 19aa 94bd dae4 d03b 7684 f5bc
00000390: 849c ba3c d75d e3bc f983 7cbc 4784 cd3c
000003a0: f9f9 923b 08e1 f33b 41ea 3f3d 6dce c4bd
000003b0: d99b c5bd b47f 5f3d 9e09 8fb9 f2a6 e73c
000003c0: 24dd 6abd 82ee 02be 17b0 d13d 2b10 9e3d
000003d0: ca4a 18bd 6a9d ffbd c110 563d ff9b 893d
000003e0: f1e6 8abd f9cf 96bd da66 3d3e e9fc 4b3d
000003f0: fc86 89bb 8012 ba3c 8288 1c3d 1d88 953c
0.14655854 0.054713044 -0.07208711 -0.08125087 -0.072414875 -0.0700278 0.026922777 -0.02850018
0.004993733 0.05868569 -0.028175645 -0.024872301 -0.009842512 0.10802117 -0.07570904 -0.061068945
0.112059064 0.04044274 0.041366156 0.010164773 0.00056365016 -0.019821621 -0.083651654 0.06539801
0.08640489 0.039940182 0.11495184 -0.18801773 0.087145805 0.058196373 0.12166964 0.07820118
-0.06334974 -0.012106801 0.056147646 -0.044142824 0.09412694 -0.09801911 -0.0020529025 -0.00047066627
-0.12721239 -0.11565984 0.16519767 -0.001680638 -0.06741623 0.005448389 -0.18517298 0.16597386
-0.08801304 -0.06730881 0.1357324 -0.117565304 -0.0125331655 0.0323009 -0.082210794 -0.02406114
-0.061512984 -0.017764667 -0.024646655 0.043360278 0.09624322 0.004926943 0.055747323 -0.06595102
-0.07702581 -0.038883183 0.015187349 0.07974916 0.04507885 0.011843918 -0.16310734 0.13489003
0.0011398471 -0.13017659 0.10117818 -0.07227891 0.03558378 0.13002735 -0.11749827 -0.020951355
0.015816035 0.090759404 -0.033604085 0.020938141 0.024253713 0.03809637 -0.03352727 -0.05509861
0.06939001 -0.07012966 0.025245152 0.031512767 -0.04660039 0.03495427 -0.07355982 0.1587565
-0.048877347 -0.1575659 0.042770345 -0.037604317 0.07383295 0.06569531 0.07794594 -0.11466836
0.0122542875 0.03952417 -0.046849135 0.100959726 0.03188752 -0.08701559 -0.009244542 0.0471055
0.081645064 -0.03122644 0.0486742 0.037391543 -0.012038179 -0.0038424334 0.099184826 0.047375705
0.0022408199 -0.056851637 -0.07823727 0.07966992 -0.048637748 -0.10238128 0.041013017 0.10079959
-0.16250928 0.08021165 -0.03984349 0.05540245 -0.010038172 -0.08432083 -0.054023482 -0.023662811
-0.09209437 -0.023504298 0.026253782 -0.055806555 -0.04719888 0.024814568 -0.072309285 0.03667999
-0.016428296 0.07633559 0.036502957 -0.16464916 0.047043476 0.05722284 0.0022332238 0.077359416
0.08809056 -0.060252763 0.056706198 -0.012039301 -0.033316895 -0.03746349 0.05509232 0.060650494
-0.085511416 0.037743706 0.07567701 0.028338803 0.054095384 -0.017289212 0.0670182 -0.119116634
0.093474485 0.043839205 -0.023507448 0.03772842 -0.14584026 -0.046423644 0.08443526 0.015355221
-0.10983651 -0.025420856 -0.026868934 -0.0088963825 0.09997057 -0.061673243 0.02206364 0.04292566
-0.046842013 0.088733956 0.058443293 0.077880524 0.061799828 -0.031649765 -0.08501599 -0.03531456
-0.04466025 0.015174945 0.05020825 0.014595454 -0.026409702 -0.08366627 -0.0018129108 0.025871323
0.029474735 0.09512279 0.07061848 0.10377268 0.051098123 0.05564431 0.09958463 -0.14162904
-0.0702827 -0.05507704 -0.054245517 -0.078837365 0.012120432 0.08502985 -0.07940388 -0.102980964
-0.08099687 -0.023195587 0.035668828 0.062211655 0.06760083 -0.049649395 0.07193398 -0.15609993
0.03694413 -0.07259006 0.0063749375 -0.029970389 0.02277971 -0.027754707 -0.015412324 0.025087489
0.0044853655 0.0074425973 0.04685426 -0.09609685 -0.09648866 0.054565147 -0.0002728225 0.028277848
-0.057339802 -0.12786296 0.102386646 0.077179275 -0.0371807 -0.12481196 0.05226207 0.06719207
-0.0678233 -0.073638864 0.18496266 0.04980174 -0.0041969996 0.0227139 0.03821612 0.01825338

sequential/conv2d_1/Conv2D f4 [16, 3, 3, 32]
00000000: 6050 8dbd 14db 9dbd be04 bc3d 9bf7 b6bd
00000010: 4f18 963a 7408 8fbd db50 8cbb ba02 afbd
00000020: dd9e fd3d abc5 94bc 692f b43d 2742 a93d
00000030: 3bfd 633d 6a33 fa3d 30de 073e 03ca fbbd
00000040: fe10 173e ca29 833d b0de fc3d 96bd 8dbc
00000050: d36a cc3c 272f b83d 8656 263e 5f71 acbc
00000060: dc71 afbd 794d 96bd b506 253d 0809 573d
00000070: df40 9d3d c9d5 d93d ed9e 1c3d a212 ebbd
00000080: 0749 2abd 3cf4 393c 182c 053d 56ac 6b3c
00000090: b6e2 84bd 8ee7 bd3d 2813 77bd 1c86 c2bd
000000a0: eef2 523d 787f cc3d 7ede febd f843 9abd
000000b0: 5e2b afbc c14b b23d 8dc7 6bbd 3f20 a1bc
000000c0: 0d41 8d3d e713 afbd 291d e33d d1b7 a13d
000000d0: 4b90 f9bb 4a90 4dbd f7c5 17bd e979 07be
000000e0: 5054 62bd 2c71 363d b3e1 5239 a921 47bd
000000f0: 93ed b73d 235b 23bd 5e81 f3bc b527 78bd
00000100: af2b adbc 4da4 adbd d857 f23d 8a82 e8bd
00000110: c33d eb3d 9917 c13d 95c3 b13d ba58 923b
00000120: c411 513c 9eb4 c43d b434 043e 979c 5dbd
00000130: 1010 25bd 9f88 aa3d c4ae 983d ebec bbbc
00000140: c2fe 98bc cf97 1f3d 7cfd 12bd 544a ac3d
00000150: 63f4 34bd 32a6 c2bc 08e5 693d ffd9 9c3d
00000160: 5677 2ebd 137b fcbd 88a8 a7bd a60b b33d
00000170: 78b7 d8bd 515a 933d 9f2c 67bb bffa 343d
00000180: 866d ddbd af89 d03d a28f b93c 8893 193d
00000190: bc0e 523d d62b 2f3d 3144 9abd 30da 803c
000001a0: 7274 7f3d d9c4 293d 86f3 f23d 9698 4c3d
000001b0: bdd1 433c 1e7f b0bd 1801 f33d cf09 833d
000001c0: ecec d53d 5f1a c9bd 048c e3bd 9287 03bd
000001d0: 8938 eabc 4914 8bbd 1011 783d 06bf 58bd
000001e0: 38f4 70bd f802 52bd 9216 163d 21d8 c6bc
000001f0: d22d 343d 180a 5c3c 1a1c b6bd 24c5 db3d
00000200: 38b1 c6bb e095 62bd 3de5 93bd c1c1 093e
00000210: 07b2 cb3c 7455 c1bd 28f6 77bd 1ca3 d83d
00000220: c629 473d 8683 edbd 8997 053d dfcc 6c3d
00000230: bc04 4b3d 02b9 d4bc e21b fcbc 8569 e13d
00000240: be37 e23d 3e7d b63c 9b43 623d f1b0 fe3c
00000250: e965 b43d 1dfb d7bd eabc 06bd 83b3 ba3d
00000260: 8de7 233d f0b0 dabd 6c16 54bd 6dc2 cfbc
00000270: e4ae 963d f4e2 fa3d bd90 89bb b3db c73d
00000280: 8d6a 11b9 f4c4 903d d456 f0bd 0d07 9c3d
00000290: 7f53 c4bb 1c1d 1c3b fbfe e1bc 73dd f339
000002a0: fe5c ef3d 43f1 f63d 20af c53c da26 b63d
000002b0: 85ca dcbd a291 85bc ed7b aa3d ca58 d5bb
000002c0: 7e6e a9bd bff1 60bd 4af4 e6bd a532 95bd
000002d0: 5071 98bd 63c5 90bd 8e59 913d 40fa e0bd
000002e0: 53a2 b63c 36b5 fabd 2673 f3bd 1154 9abd
000002f0: 0b5f bb3d c1db d5bd b4ed 64bc dc67 a4bd
00000300: ac0c cfbd 3df3 e03d ae7c 2dbd 13cc 443d
00000310: 5c46 dd3c 22b9 f3b9 24f4 3fbd 6b7a a1bd
00000320: 54d4 d43d 7dd4 57bd c7e2 70bc aba5 bb3d
00000330: 0b17 81bd 7df7 98bd 203b e33d a315 2b3d
00000340: 6a0f 85bc cd8c 23bd 76ae d63d bd9b 893d
00000350: 0a54 083d eef5 f33d 3839 7f3c c9fa 853d
00000360: 7db5 c1bd 9feb 6f3d a1d1 9f3c 0ce6 883c
00000370: bbbb cabd 4d88 a3bd e770 9a3d c4fd 0a3c
00000380: ac71 d53d ac4e 953a 8d90 a63d e12e 023d
00000390: 255d 91bd 2abe 42bd c95e 2c3d 15ae 80bd
000003a0: d957 95bd 2ea0 8ebd cc20 e43d f176 8f3c
000003b0: 9161 babd 63da 883d 7249 0e3e d110 c03d
000003c0: a162 7d3d bfb5 923d 6e57 38bc 5b95 a13d
000003d0: 3ad6 96bc aa6d b0bd 6cc5 91bd 0d90 e2bc
000003e0: f00e 0d3c d867 82bd d3d6 e0bd fef6 3a3d
000003f0: 0af7 363d 4869 a9bd b01d 9d3d 22d2 9a3d
-0.06900096 -0.077078015 0.09180592 -0.08933946 0.0011451336 -0.06984034 -0.0042820997 -0.08545442
0.123838164 -0.018160662 0.08798105 0.08264571 0.05566142 0.12216838 0.13268352 -0.1229439
0.14752576 0.06404455 0.12347162 -0.017302316 0.024953282 0.089933686 0.16243944 -0.021050153
-0.08566639 -0.073389955 0.0402896 0.052498847 0.07678389 0.106364794 0.0382375 -0.11478163
-0.04157355 0.011349734 0.032512754 0.01438435 -0.06488554 0.09272681 -0.060321003 -0.094982356
0.051501207 0.0998525 -0.12444781 -0.07532495 -0.021382984 0.08705855 -0.057563353 -0.019668696
0.06897173 -0.08548718 0.11089546 0.07896388 -0.007616078 -0.050186433 -0.03705403 -0.13230099
-0.055256188 0.044541523 0.0002011124 -0.048616085 0.089808606 -0.039881837 -0.029724773 -0.060584743
-0.021138994 -0.084786035 0.11833161 -0.11353023 0.114863895 0.09428329 0.086798824 0.0044661434
0.012760583 0.096047625 0.1291073 -0.054104414 -0.04029852 0.0832684 0.07455209 -0.02294012
-0.018676165 0.038963135 -0.035886273 0.084126145 -0.044178378 -0.023760889 0.057103187 0.07658767
-0.042594276 -0.12328162 -0.08186442 0.08742456 -0.10581869 0.07194961 -0.00352744 0.044184443
-0.108119056 0.10182511 0.022651497 0.037494212 0.051283583 0.042766415 -0.07532538 0.01572904
0.06236691 0.041447494 0.11862855 0.049950205 0.011951861 -0.08617996 0.11865443 0.06398355
0.1044558 -0.09819483 -0.1111069 -0.03211171 -0.028591411 -0.067909785 0.060563147 -0.05291655
-0.058826655 -0.051272362 0.03664262 -0.02427298 0.04398901 0.013430141 -0.08892079 0.10730961
-0.0060636066 -0.055318713 -0.07221458 0.13452817 0.024865163 -0.09440127 -0.060537487 0.10577986
0.048623823 -0.11597352 0.03261522 0.057812568 0.049565062 -0.025967125 -0.030775014 0.110064544
0.11045788 0.022276517 0.055240255 0.031090232 0.088085 -0.10545943 -0.032895006 0.091162704
0.040015746 -0.106782794 -0.051779196 -0.025361264 0.073575765 0.12250319 -0.0041981624 0.09758701
-0.00013867971 0.07068816 -0.11735311 0.07618532 -0.005991399 0.0023821061 -0.027587404 0.00046513564
0.11687659 0.12057736 0.024131358 0.08894129 -0.10780815 -0.016304795 0.08324418 -0.0065108286
-0.08273028 -0.054918047 -0.11277063 -0.0728505 -0.07443488 -0.070688985 0.07097159 -0.109852314
0.0222942 -0.122415945 -0.11887197 -0.07535566 0.091489874 -0.10442305 -0.0139726885 -0.08027622
-0.10109839 0.10983894 -0.042355232 0.048046183 0.027011089 -0.00046486506 -0.04686369 -0.078846775
0.10392061 -0.05269288 -0.014702505 0.09162458 -0.06303223 -0.0746908 0.110952616 0.04176868
-0.016242702 -0.0399292 0.104824945 0.06719158 0.03328327 0.11912142 0.015577607 0.06541974
-0.09458444 0.058574315 0.019509139 0.016711257 -0.09899088 -0.07984982 0.07541066 0.008483354
0.10422072 0.0011391244 0.081330396 0.03178299 -0.07097844 -0.047544636 0.04208258 -0.062832035
-0.07292146 -0.069641456 0.11139068 0.01751277 -0.091006406 0.06682279 0.13895205 0.093782075
0.061861638 0.071635716 -0.011251314 0.078898154 -0.018412698 -0.08614667 -0.07117733 -0.02765658
0.008609518 -0.06367463 -0.109784745 0.045645706 0.04466919 -0.08272034 0.07671678 0.07559611
