firebase_ml_model.tflite (tflite, 371676 bytes, 8 tensors)

model_1/conv2d/BiasAdd/ReadVariableOp f4 [32]
00000000: bf38 a0bc 3c6b c0bb 57b6 1e39 cf2e 583c
00000010: 668b f93b b5b6 1ebb 7332 3f3d 297c e53c
00000020: aef5 373c 73b1 f93b b9b5 2bbb f3f0 dbbb
00000030: 59bc e03c 0919 fcbb 5aaa d5ba 2b04 86bb
00000040: b924 483d 5edd 2cbb 956c bb3a def6 86b6
00000050: feae aa3a 7395 8cbc d051 793b 6266 833c
00000060: e6ff 18bc 0293 5c3c d115 343c 6df4 9e3b
00000070: a063 ff3c b7a7 b83c 9682 a1bb 3537 45bc
-0.019558309 -0.0058721583 0.00015135981 0.013194754 0.0076154945 -0.0024217789 0.04667897 0.028013306
0.011228008 0.0076200305 -0.0026200844 -0.006712073 0.027433561 -0.007693414 -0.0016301379 -0.0040898523
0.048863146 -0.0026377062 0.0014299328 -4.0222503e-06 0.0013022122 -0.017161107 0.0038043149 0.01604003
-0.009338355 0.013462784 0.01099153 0.004850915 0.031175435 0.02254091 -0.004928897 -0.012037088

model_1/conv2d_1/BiasAdd/ReadVariableOp f4 [16]
00000000: ee7d 5a3c 0b77 953d dd1d 373d 1240 c83c
00000010: 7e01 d23b e417 33bb c13d 013d a6b6 733d
00000020: 9704 17bb 8c12 a53b 59f7 7fbc b914 09bc
00000030: d427 df3b 51a1 a73b 6e49 2d39 be82 29bc
0.013335688 0.07298096 0.044706214 0.024444614 0.0064088693 -0.0027327472 0.031553034 0.05950036
-0.0023043507 0.0050376114 -0.015622937 -0.008366757 0.006810168 0.005115666 0.0001652592 -0.010346113

model_1/conv2d/Conv2D f4 [32, 5, 5, 1]
00000000: 16b4 823d c606 81bc 6a50 373d 3cc8 41bd
00000010: 4f11 ccbc 10cc a33d 6ad2 1bbc 8177 debc
00000020: e731 a3bd 0f2d 643d 77a4 803d 42c0 7abd
00000030: 838b 5ebd f41c 74bd 46bd 7abd b74b 44bd
00000040: 1b65 be3b 292d 173d 929c 50bd 3e6b 293d
00000050: 685a 6cbd cfe7 9c3c 00fd f33c dae5 0e3c
00000060: 1989 8e3d 816a 01bd ab22 833d bcb7 e23c
00000070: 42c5 b03b 42c4 98bd 562a 97bc e602 a73d
00000080: 4609 cd3c bf99 2c3d 9e01 94bd 470b c93c
00000090: 0efc 8fbd b314 633c 0a1e f2bc 6ed4 31bb
000000a0: de94 9ebd bb2a 97bd 9122 ab3d 058c 96bc
000000b0: d5ea 5e3d 0f51 8f3c 033c 6fbd 760a 7d3d
000000c0: 241f 323d b1b0 eb3b aac0 52bd 7364 ec3c
000000d0: cb84 05bc a419 14bd 2023 2b3d 6d28 69bd
000000e0: 9880 89bd 14ad 0a3c c445 82bb deea a73d
000000f0: 009b 6dbd 52ef aabd aba6 913d 61c2 5f3a
00000100: 3c26 0bbd 1490 8bbd 20fe 23bd bb3a 723d
00000110: 5b14 b0bc cd45 35bd 8537 3fbd 8017 a73d
00000120: a3c4 d3bc eaf3 22bd 1365 8cbd a63b a2bd
00000130: 7cd0 21bd c298 013d 79c3 4fbd b465 403c
00000140: e53a 8ebd 7b65 6fbd 6345 97bd 5d41 2e3d
00000150: f545 1bbd 36ad 223d 5207 833d 97b3 5d3c
00000160: f16c 97bd b16c 293d 36e5 4ebc a86c 9b3d
00000170: fe90 a53d 7935 0cbc b90f 233d acc0 ac3d
00000180: 4843 8d3d 72a0 293d 26a6 833d 2061 14bd
00000190: cc9e 0fba 0780 fb3c 0a52 933d d881 34bd
000001a0: a174 a2bd b34c 4dbd d2b6 d8bc 3f8a 953d
000001b0: 37fc 11bd ed98 e4bc 7bdb af3c 778f a63d
000001c0: 383b 3abc 9c43 823c c12f 7c3d 0e18 8e3c
000001d0: a4c2 6fbd a978 5abd 147a 81bd 78c0 963d
000001e0: 0fa5 6abd b45f 673d 8a29 1f3d dbc8 5bbd
000001f0: f504 40bd 92e6 8b3d 60e8 f33b 6479 563d
00000200: 8d44 163d c81f 71bc 071e 26bd 7812 c0bc
00000210: 58c2 d5bb 3d5a 45bd 5163 5a3d e805 93bc
00000220: c13d 273d 7120 a03d f80c 4e3d e7c2 923d
00000230: 232b a9bd 72e2 54bd 5b76 45bd 63ff a53d
00000240: b3ee 5abd 5ac3 b8bc 7ffe 8b3b 2d38 38bd
00000250: 1482 80bd b7a9 e5bc c1f8 26bd ec87 60bd
00000260: 1d67 cc3c 495d 793d f5bf 68bd 8d2e 10bc
00000270: 189d 783c 5535 4f3d ace6 ce3c e9ab 5f3d
00000280: 5b45 71bc cd62 90bd e816 0e3d 0719 46bd
00000290: 2f64 d43b 50a6 50bd 4d5b 453c 5c97 9f3c
000002a0: 3954 96bd abea a2bc 98d9 35bd f8bf c1bd
000002b0: 0ce2 33bd 58c0 11bd ab49 80bd 849a ccbc
000002c0: 89a7 7e3d a905 6e3d 5dae 98bd 6ca0 98bc
000002d0: 41c5 13bd e66b 09bc 3a1e 1fbd 91c8 5bbd
000002e0: ca10 063d 7185 423d 1ea1 58bd 268f 3abd
000002f0: 7dc4 a1bd 32c1 3e3d 6fbf 843d 5c6a ab3c
00000300: 8d14 80bd ad74 183d f415 2f3d ad8c 9abd
00000310: 68fe 233d 70d3 40bd 2e2f 94bc 4fe4 18bd
00000320: c3c9 f4bc e434 84bd 29de 8dba 98e9 033d
00000330: c9aa 6ebd 9520 9f3d 062c e0bc 24fe 863c
00000340: 62aa 7abd a54c 4b3c d2d3 a1bd c03f 263d
00000350: dff9 51bd c3c8 88bd 0c17 a4bc 9d3c 903d
00000360: 810e ab3d 6298 09bd 2ef7 463d 9903 52bd
00000370: 15ac 313d 9aee 9e3b a03e a0bd 2135 863d
00000380: 5250 a1bd 138a a739 c6b2 3abc 5df4 d03c
00000390: 79ea 553d ef10 863d da62 9dbc cec8 ccbc
000003a0: cde2 4cbd 85fb a7bd d229 76bb 01a4 3b3b
000003b0: 1abd 71bd df1b 4bbd bc34 80bd 430b 96bd
000003c0: 41d4 a33d 2f7f a93d 9ed0 9ebd 4866 e1bc
000003d0: 815c 8fbd dbf9 08bd edef f33b 9b3c 9d3d
000003e0: 77cc 57bc e8bd 16bc ff97 a3bd 8841 8abd
000003f0: 2059 ac3c 2abf f7bc 1a6b e33c 0c19 b23c
0.06382005 -0.0157503 0.044754423 -0.0473101 -0.024910597 0.07997906 -0.009510616 -0.027156593
-0.079685025 0.055707034 0.06281369 -0.061218508 -0.054332267 -0.059597924 -0.06121566 -0.04792377
0.0058103926 0.036908302 -0.050930567 0.04136204 -0.057703406 0.019153504 0.029783726 0.008721793
0.06959743 -0.03159571 0.06403097 0.027675502 0.0053946087 -0.07459308 -0.018452805 0.0815485
0.025028836 0.04213881 -0.07226871 0.02454151 -0.070304975 0.013859916 -0.02955534 -0.0027134675
-0.07743238 -0.07381197 0.083562024 -0.018377313 0.054423172 0.017494706 -0.05840684 0.061777554
0.04348673 0.007192694 -0.05145327 0.028856492 -0.008149336 -0.036157265 0.041781545 -0.05692332
-0.067139804 0.008464117 -0.003975602 0.08199094 -0.058009148 -0.08346428 0.071118675 0.00085357396
-0.03397201 -0.0681459 -0.040037274 0.05913804 -0.021494081 -0.04425602 -0.046683807 0.08158779
-0.0258506 -0.039783396 -0.06855216 -0.07921533 -0.039505467 0.03163982 -0.050723527 0.011742998
-0.06944827 -0.05844639 -0.07386281 0.042542804 -0.037908513 0.039715968 0.063978806 0.013531587
-0.07393826 0.04136342 -0.01262789 0.07589084 0.08084296 -0.008557671 0.039809916 0.08435187
0.068975985 0.04141278 0.06428175 -0.036225438 -0.00054786797 0.030700697 0.07193382 -0.04406914
-0.079324014 -0.050121974 -0.026454363 0.07301759 -0.03564092 -0.027904952 0.021466961 0.081328325
-0.011366658 0.01590138 0.06156898 0.017345455 -0.058535233 -0.053337727 -0.06322113 0.07360929
-0.05728632 0.056487754 0.038857974 -0.053658348 -0.046879727 0.06831087 0.0074434727 0.05236186
0.03668647 -0.01471705 -0.04055598 -0.023446307 -0.0065234117 -0.04818176 0.05331737 -0.017947152
0.040830377 0.07818688 0.050305337 0.07166081 -0.08260181 -0.051973768 -0.048208576 0.08105352
-0.053450298 -0.022554088 0.0042722817 -0.04497545 -0.062748104 -0.028035028 -0.040764574 -0.054817125
0.024951512 0.06087998 -0.05682369 -0.008800161 0.015174173 0.05058797 0.025256477 0.054607306
-0.014726008 -0.07050095 0.034689814 -0.04836371 0.0064816694 -0.050939858 0.012045694 0.019481353
-0.07340283 -0.019887289 -0.044396967 -0.09460443 -0.043916747 -0.035583824 -0.06264051 -0.024976023
0.062171493 0.058110867 -0.07455132 -0.018631183 -0.036076788 -0.008387541 -0.038847186 -0.053658072
0.032730855 0.04749054 -0.05288803 -0.045546673 -0.07898805 0.046570964 0.064818256 0.02092474
-0.0625392 0.037220646 0.042745546 -0.07546363 0.040037543 -0.047076643 -0.018088903 -0.037327107
-0.029881364 -0.064554006 -0.0010823655 0.032205194 -0.058268342 0.077698864 -0.027364742 0.016478606
-0.061197646 0.01240841 -0.0790173 0.04058814 -0.051263686 -0.06678917 -0.02003052 0.07042811
0.08352376 -0.03359259 0.048575573 -0.051272962 0.043377 0.004850221 -0.07824445 0.06553102
-0.07876648 0.00031955595 -0.011395162 0.025507146 0.052225564 0.065461986 -0.019212175 -0.024998095
-0.05002098 -0.082022704 -0.0037561548 0.002863169 -0.059018232 -0.049587127 -0.06260058 -0.07326367
0.079994686 0.082762115 -0.07754634 -0.027514592 -0.070000656 -0.033441406 0.007444373 0.07677575
-0.013171307 -0.009200551 -0.07987975 -0.0675078 0.021038592 -0.030242521 0.027761031 0.021740459

model_1/conv2d_1/Conv2D f4 [16, 3, 3, 32]
00000000: c944 2e3d ff9f ebbd 17fe c63d 17cf b43c
00000010: 1fd6 31bd e72e ebbd c745 863c 9608 04bd
00000020: 8c43 f2bd ed19 e3bc f39d 65bd 5ba4 d6bd
00000030: cf91 e53c 57d6 bcbc a84b cfbd 5991 0ebb
00000040: 78b7 cf3d 2510 323d c722 75bd a0b1 873d
00000050: 8f0f c13b 92cd d73d 4d8c bbbb d821 bb3d
00000060: 2f43 4c3d 8538 953d c466 a4bb 549d a7bd
00000070: 8f52 363d 2654 65bd 4593 cabc 5c6a 153c
00000080: ced1 a6bd d396 babd 83df 57bd c8fd c93d
00000090: 1810 1f3c c464 013d 4bad b03d 3f62 dc3d
000000a0: 7d4a bebd 1134 eb3d 7321 8bbd 4128 883d
000000b0: c300 173d 4738 953b 9c3e cbbd 9775 d7bd
000000c0: ef85 4bbd 9b72 d33d a584 d93d 53d4 c0bd
000000d0: 9b7c aabd bbb6 11bd 90a9 2abd b9cc 0c3c
000000e0: 165e 333d 4e3f 3b3d 2a9d 153c 26bd b2bc
000000f0: 8c87 0b3d 84a4 4c3c 3728 74bd d0ed ccbd
00000100: 29d3 dbbd b2c8 e43c 84a5 783d 5115 f53c
00000110: 1793 adbd 3bfa dabd fe2d 8cbd 9c82 93bd
00000120: d5c0 0dbd 768c cd3d c8c5 e63d 8dae ac3d
00000130: 53bb ecbc b84a d2bd fb8d 1abc 3c1a ecbd
00000140: e7fc ccbd c0d7 183d 70c1 e9bd 471d e23d
00000150: f166 813d 2c29 76bd bd2e cfbd bd39 2bbd
00000160: b3b0 78bc 04e7 7ebc 6f0a 9abd 96f1 bf3c
00000170: a1a7 ee3d 78e8 d03d f06c cb3d a52e efbd
00000180: 1f98 14bd bce7 88bd 0961 d13b ecea c5bd
00000190: e788 e63d 4834 2c3d 3ae0 4a3c d44b e63d
000001a0: e0d1 db3d 4a18 46bc 6378 38bd c2a7 c7bd
000001b0: 5920 2c3c 1eb2 a0bd 5d92 3e3d 085d b03d
000001c0: 59bd 64bd 1ad6 b23c b8b3 aebb bd59 1bbd
000001d0: 7d75 2fbc cacc 99bd 451a e33d 1cdb f93c
000001e0: 0438 f5bc 1fb8 04bd 2166 f63c 4635 f13d
000001f0: 3e2c 36bd c52d f73c 450d 5cbd c9db 263d
00000200: b142 403d acaa af3d 8c2d 503d cbff 3f3d
00000210: 5e7b dfbd 8232 d23d 3c30 943d c3d0 8fbc
00000220: 63b7 b8bd 397d 7e3c 08f0 9abd f424 cc3d
00000230: fdf8 a23d 3c64 67bc b2e8 1cbd ac37 e93d
00000240: 8a32 2f3d 8c06 393d 5b25 95bc 09e9 12bd
00000250: 769f 003d 8b30 c7bc 5ddb b73a 1a1d aebd
00000260: d4c3 d03d de2d 3f3d a648 db3d 2037 14bc
00000270: c68b 6fbd 493b 24bd afa2 1abc 9e5e e23d
00000280: f7ab 8939 23e2 953d b428 8fbd 8b41 553d
00000290: 6ada 6cb9 b0b7 2cbc a16f 943c 34ce c5bd
000002a0: f29c e7bd 4324 ba3d ee42 94bb 8ec2 133d
000002b0: 8119 843c 995a 983d 2491 893d f9dd 833c
000002c0: 4e11 a4bc d457 943c d6da e23d 2205 e63d
000002d0: 3f0c b03c 8a1d d4bd 61be 3bbc 2f9a ba3d
000002e0: c255 783d 412e ca3d 9453 e6bd f5b4 d43d
000002f0: 0f1f d73d 3247 913d 3e74 e03c f854 6a3d
00000300: ebe6 0ebd a15a 933d 5ff7 18bd d4ee dbbc
00000310: 1670 9d3c 2d1d aa3c d10e a7bd d7bd 46bd
00000320: f02f a0bd e5aa 903d 5167 7bbd 5024 c6bd
00000330: 5d01 dfbd 33f4 843d 0577 cdbc 268b dabc
00000340: ec32 cbbd 3761 423d 09e7 d1bd a17c d4bc
00000350: 8245 93bd acc9 05bd 64e1 a33d 5d13 ccbd
00000360: d7de 8bbc bec1 a83c 5964 93bc 0678 e4bd
00000370: c61a 54bd 321e 63bd f721 dc3d 74b0 a7bd
00000380: b073 013d 5c8c 973d 0a97 9ebd 812b 8f3d
00000390: 3227 b43d e8fb 823d f72f 3a3d d263 dd3c
000003a0: 66df 4e3d 0b99 01bc 4842 dd3d ae89 e7bd
000003b0: 7960 a63d b6cf 363b 3b26 ba3d bc92 8b3d
000003c0: 9fb0 283d af3c 47bd e59e c23d 761d 6e3c
000003d0: dc04 103d 04f7 b3bd 7389 5abd 71fc 78bc
000003e0: 556d d73d 18f4 d63d 4b6a 8e3d 2ca2 66bc
000003f0: 9c0c e93a 9b0e df3d 0fb7 293d f90e acbd
0.042546067 -0.11505126 0.097164325 0.022071404 -0.043417092 -0.11483555 0.016390694 -0.03223475
-0.1182929 -0.027722323 -0.056058835 -0.10480567 0.028023629 -0.023051424 -0.10121852 -0.0021754114
0.10142416 0.043472428 -0.05984762 0.06625676 0.0058917473 0.10537256 -0.0057235123 0.091373146
0.04986876 0.07286171 -0.0050171334 -0.08184305 0.044512328 -0.055988453 -0.024728427 0.009119596
-0.08145486 -0.09110799 -0.05270339 0.09862858 0.009708427 0.03159024 0.08626803 0.107609265
-0.09291551 0.1148454 -0.06793489 0.06648303 0.03686596 0.004553828 -0.09924051 -0.10520475
-0.049688276 0.10324594 0.10621003 -0.09415498 -0.08324548 -0.035574656 -0.041665614 0.008593732
0.0437909 0.04571467 0.009131709 -0.021818709 0.034064814 0.012490395 -0.059608664 -0.10006297
-0.10733635 0.02792773 0.060704723 0.029917391 -0.08475321 -0.10692259 -0.0684471 -0.07202646
-0.034607727 0.100365564 0.112681925 0.084317304 -0.028897917 -0.10268158 -0.009433265 -0.11528441
-0.10009175 0.03731513 -0.114138484 0.110407405 0.06318463 -0.06009786 -0.101163365 -0.04180311
-0.015178847 -0.015558008 -0.07521521 0.023430627 0.116530664 0.1020059 0.099328876 -0.116788186
-0.036277886 -0.06684825 0.0063897413 -0.096639484 0.11256581 0.042042047 0.012382561 0.11244932
0.1073339 -0.012090752 -0.045036685 -0.09748794 0.010505759 -0.07846473 0.0465263 0.08611494
-0.05584464 0.021830607 -0.0053314827 -0.037927378 -0.010709164 -0.075097635 0.11088995 0.030499987
-0.029933937 -0.032402154 0.030077996 0.11777739 -0.044475786 0.030173192 -0.053723592 0.040736947
0.046938602 0.08577475 0.050824687 0.046874803 -0.10912202 0.1026354 0.072357625 -0.0175556
-0.09019353 0.015532785 -0.075653136 0.09967986 0.07957647 -0.014123019 -0.038307853 0.11387572
0.042772807 0.04517226 -0.018206289 -0.03586677 0.031402074 -0.02431514 0.0014027167 -0.085016444
0.10193601 0.0466746 0.10707216 -0.009046346 -0.058482908 -0.0400956 -0.009438201 0.11053203
0.000262588 0.07318523 -0.069901854 0.05206446 -0.0002258808 -0.010541841 0.018119635 -0.09658471
-0.11309232 0.090889476 -0.00452458 0.036074214 0.016125442 0.07439155 0.067171365 0.016097056
-0.020027783 0.018108286 0.11076896 0.11231448 0.021490214 -0.10357197 -0.011458964 0.091114394
0.06062866 0.098721035 -0.1124641 0.10386077 0.10503971 0.070936576 0.027399179 0.05720994
-0.03488819 0.071950205 -0.037345286 -0.02684728 0.019218486 0.020765865 -0.08157123 -0.04852089
-0.07821643 0.070638455 -0.061377827 -0.09674895 -0.10888932 0.0649189 -0.025081167 -0.02667768
-0.09921822 0.047455993 -0.102491446 -0.025938334 -0.07190992 -0.032663032 0.08001974 -0.09964631
-0.017074032 0.020600196 -0.017992185 -0.11155705 -0.051783346 -0.05544872 0.10748666 -0.08187953
0.03160447 0.07399818 -0.07743652 0.069907196 0.087965384 0.063957036 0.0454559 0.027025137
0.050506018 -0.007910023 0.10803658 -0.11305557 0.081238694 0.0027894801 0.09089323 0.06815097
0.041184064 -0.048641857 0.09502963 0.014533391 0.035160884 -0.08787349 -0.053353738 -0.0151969055
0.105189 0.10495776 0.069538675 -0.014076751 0.0017780247 0.10891458 0.041434344 -0.08401293

model_1/dense/BiasAdd/ReadVariableOp f4 [60]
00000000: b1f8 b9bb 4b39 373c 79d5 d1bb fd52 053c
00000010: fa0b a23a 76af bc3b aafa 143c ded2 a6bb
00000020: 9704 1dbc 6ceb 30bb 0ab8 c6bb ee0c 71bb
00000030: 8ea7 68b9 db77 a53c eafc 20bc ad57 d53b
00000040: 52f0 8f3c fa32 a53b 763f 4bbc 0a21 a1bb
00000050: 2bfc c93a 0bd4 943c 7a17 d6bb 302b 033a
00000060: f68b e0bb 9c22 29bc 0edb 173b ed7a 343c
00000070: 2f4d 0ebc 2cef cebb 89fc b4ba bb1d 043c
00000080: 4970 1f3b cfde e9bb 8d0d 4ebb c80d 0f3c
00000090: 3fbe 92ba fbe5 10bb 2ef8 92bb 1973 383c
000000a0: a08e 8839 a579 92ba d837 cfbb efb9 f3ba
000000b0: 1a67 30bc 528a 91ba 392d 68bb 72a2 2fba
000000c0: 93fe 9ebc 6ecc 1abb 214f 283c 971e 34bc
000000d0: dc47 f9ba eec0 643c 9eb8 3abc a430 133c
000000e0: 1ac8 093b 8362 493b 92d8 eb3a 95ea 803c
-0.0056753983 0.011183093 -0.0064036218 0.008137462 0.0012363188 0.0057582213 0.009092966 -0.0050910553
-0.009583614 -0.002699579 -0.0060644196 -0.0036781388 -0.00022187663 0.020198753 -0.009825924 0.006510696
0.017570648 0.0050414773 -0.012405267 -0.0049172686 0.0015410235 0.018167516 -0.0065335603 0.0005003689
-0.006852622 -0.010323193 0.0023171338 0.011015636 -0.008685394 -0.0063151326 -0.0013808171 0.008063729
0.0024328402 -0.0071371566 -0.0031441182 0.008731313 -0.0011195614 -0.0022109735 -0.0044851517 0.01125791
0.00026046205 -0.0011175169 -0.0063237958 -0.0018594841 -0.010766769 -0.0011103845 -0.0035427345 -0.00066999265
-0.0194085 -0.0023620385 0.010272772 -0.010993621 -0.0019018608 0.013962014 -0.011396555 0.008983765
0.002102381 0.0030728884 0.001799362 0.015736857

model_1/dense_1/BiasAdd/ReadVariableOp f4 [4]
00000000: 2b98 bfba 3d7c 443c efa1 213d 63e0 113d
-0.0014617493 0.011992511 0.039461073 0.035614382

model_1/dense/MatMul f4 [60, 1440]
00000000: 605a 7bbd b82b d23c f18a e83b a3c4 413d
00000010: 8bbf dfbc c642 54bd a7a6 48bd a65a 5f3d
00000020: 607d 3cbd fafe 593d a3ea bebc d53c 58bd
00000030: 676c 0d3d 1ea4 cb3b 752f 84bc 9b28 d13c
00000040: a331 05bd d072 1dbd 01a1 9f3c 5458 133d
00000050: c0f1 a73a be69 06bd 418c 74bc 3317 3d3c
00000060: 72dc 2a3d 6916 643d e6ab babc b4f3 183d
00000070: 7ddd 48bd d7cb 47bd 07b4 ccbc 8680 cb3c
00000080: 16d5 303d 34ee 80bd d7ad 463c e33e 0e3d
00000090: 3472 2ebd 3ce7 99bc 8d4c 0d3d c21f a8bc
000000a0: 983d 1dbd db9f 1d3d 8cb8 c1bb b820 2dbd
000000b0: 9933 7f3c 72d9 5dbd b54a 06bd 0bda 64bd
000000c0: 16d8 6ebd 8826 e73b 486d 9fbc 839d 7fbc
000000d0: 5adb 213d 6c01 81bd 8562 6abd a1c2 27bd
000000e0: 1594 e13c 16d7 04bd 0746 bf3c cf3b 343d
000000f0: c7c7 55bb c4ae a43b 1496 40bc d15d 0abb
00000100: e252 023d 8ce9 86bc 1ae8 4d3d 76b2 4d3d
00000110: 47c7 2dbc 48f4 b1bb 4356 12bd 6cf2 c2bb
00000120: b51d 313d 9e3b 3f3d df6c 853c f9a7 713d
00000130: 649d 493d 2774 d4bc 9e33 50bd a0b2 113b
00000140: 86c8 c8bc e379 b9bc 2aab 3cbd 1313 7bbd
00000150: 7d50 48bd 58c9 fcbb 1e23 4b3c 3547 e0bb
00000160: c9fc 893c af04 013d 1be0 88bb af6b a33c
00000170: 2908 4e3d 13a7 d43c fdd7 ea3c 0253 a5bc
00000180: d9c3 2f3d fc51 033d 19d6 e33b 8731 04bd
00000190: 7443 313d dce5 80bd e9d2 453d 7e64 643d
000001a0: bb97 403d 5f2d b9bc 6860 39bd fdca b93c
000001b0: ecb5 3fbd 0b57 783c 0f4c 7c3d 2933 b63c
000001c0: f0bd bdbc 8af2 25bb 4335 76bd 08f9 f83c
000001d0: 540b 633d f10a 963c aac4 e13a faa2 70bd
000001e0: 04ef 9fbc 5079 4abc d197 973b 2141 68bc
000001f0: 36f1 31bd 0b86 6ebd 8ce3 c4bc 1844 31bd
00000200: c33a cb3b 8eb2 70bd d85c 86bc 4eee 783d
00000210: 6c54 0c3d 6319 493d 2d94 b6bc 77c1 49bd
00000220: 3805 6dbc a4e3 f9bc 5e29 4bbd 5815 143c
00000230: cc52 e33c bb3e 47bd 3dca 153c 7253 28bc
00000240: 0ecf 22bd aaa2 2c3d 6c12 fe3c b008 44bd
00000250: 9e78 71bd e99a 413d 02d0 633d c106 4cbc
00000260: d4c1 59bd 7297 12bd 4b14 4f3d 823c 113d
00000270: f11c 4abd a2af cabc fd3e 3cbd 75a1 36bd
00000280: d1dc 80bd 7e46 63bd 4e4e efbb e03a 18bc
00000290: 6c3c e93c d64b 3fbd f5d7 b6bc a734 dcbc
000002a0: fc30 193d 6339 1cbd 1422 f73c 8024 b13a
000002b0: 4e32 2fbd d35c adba 4903 603d 4071 c2bc
000002c0: 303e a63c a84a 103d 8e11 1ebd e501 2fbd
000002d0: 2494 a8bc d8d8 d9bb 5f83 12bd f441 bfbc
000002e0: b073 4a3d 7c31 1ebd 5c05 e83c 6298 7c3d
000002f0: f550 0ebd 284a 303d a693 5e3d f042 b8bb
00000300: c032 80bd af83 63bd f963 803c d855 7fbb
00000310: 2339 80bd 55ff 2ebc 30bd 1e3d b6d3 05bd
00000320: 349f 353d bef5 1c3b 3e2a fe3c f2cc 343d
00000330: c69d dc3c 737b 4c3c 7123 d1bc 50c3 863b
00000340: 7bc2 3bbc 3ec2 50bd f7d6 ebbb b8ea 12bd
00000350: 2ee2 443d 100b fb3b b926 fb3c 4192 33bc
00000360: a158 70bd b23f 71bd ebb0 00bc 8620 51bd
00000370: 981b 9f3c 3dff 913b 0333 833c 48f7 443c
00000380: 209b 98bb 1fe5 7a3d a62f 57bd a781 f7ba
00000390: 9dfc 403d 6d6d 5fbd 513f d3bb 95a1 123d
000003a0: fecc dc3c 6547 0abd a140 a6bb d16a 213d
000003b0: ce18 25bd 1256 633d 61ef 4f3d 1a09 393d
000003c0: a89f 7d3b 1d41 4dbd 09cb 93bc a233 4e3d
000003d0: 348a a63c 3ca7 fa3c 540a 1ebc 0780 21bd
000003e0: 756f ee3b 0123 503d dd1b 24bd 6a5f 86ba
000003f0: 9b0f ce3c eed0 743c eeac ba3c 0981 86ba
-0.061365485 0.025655612 0.007096641 0.047306668 -0.027313014 -0.051821493 -0.048987057 0.05452981
-0.046018004 0.05322168 -0.023305243 -0.05279239 0.03452721 0.0062146327 -0.01613591 0.025532058
-0.03251804 -0.03843957 0.019485952 0.03597291 0.0012813136 -0.032815687 -0.014926017 0.011541176
0.04171414 0.055685434 -0.022787046 0.03734179 -0.049039353 -0.04877838 -0.024988187 0.024841558
0.043171965 -0.06295434 0.012126408 0.034727942 -0.04258938 -0.018787019 0.034496833 -0.020522956
-0.03838882 0.03848253 -0.0059118923 -0.04226753 0.015576267 -0.05416245 -0.03278609 -0.055872004
-0.058311544 0.007054154 -0.019461289 -0.015601519 0.03951583 -0.06299099 -0.05722286 -0.040957097
0.027536431 -0.032431684 0.023348821 0.04400235 -0.0032620297 0.0050257165 -0.011754531 -0.0021113048
0.031817324 -0.016468786 0.050270177 0.05021902 -0.010606593 -0.005430732 -0.035726797 -0.005949309
0.04324122 0.046687715 0.016287265 0.05899808 0.049222365 -0.025934292 -0.050830476 0.0022231713
-0.02450968 -0.022641128 -0.046061672 -0.061297487 -0.048904885 -0.0077144317 0.012398509 -0.006844426
0.01684417 0.031498607 -0.004177106 0.019948808 0.05030075 0.025958573 0.028667444 -0.020181183
0.042911384 0.03206061 0.0069530127 -0.032273795 0.04327722 -0.06293842 0.048296843 0.0557599
0.0470197 -0.022604642 -0.045257956 0.0226798 -0.046804354 0.015157471 0.061595973 0.022241192
-0.023161858 -0.0025321566 -0.060109388 0.030392185 0.055430725 0.018315764 0.0017224748 -0.058749177
-0.019523151 -0.012358025 0.004626252 -0.014175684 -0.043442927 -0.058233302 -0.024034284 -0.04327783
0.0062020733 -0.058764033 -0.016401693 0.06077414 0.0342602 0.049096476 -0.022287453 -0.049256768
-0.014466576 -0.030504055 -0.049599998 0.009038292 0.027749442 -0.04864381 0.009142456 -0.010273801
-0.039748244 0.042147316 0.031014644 -0.047859848 -0.05895292 0.047266874 0.055618294 -0.012452782
-0.053163365 -0.03578896 0.050556462 0.035458095 -0.049344007 -0.024741951 -0.045958508 -0.04458757
-0.062921174 -0.05548715 -0.007303036 -0.009291381 0.028471194 -0.046703182 -0.022319773 -0.026880575
0.03740023 -0.038140666 0.030167617 0.0013514906 -0.042772584 -0.0013226516 0.054690633 -0.023735642
0.020293325 0.035227448 -0.03859096 -0.042726416 -0.020578451 -0.0066481642 -0.035769816 -0.023346879
0.049426734 -0.03862141 0.028322868 0.06166876 -0.034745175 0.04303947 0.054340027 -0.005623214
-0.0625968 -0.055545505 0.01567267 -0.003896108 -0.06260898 -0.010680993 0.038754642 -0.032672606
0.04434128 0.0023950185 0.031026002 0.044140764 0.026930701 0.012480604 -0.025529595 0.0041126385
-0.011459942 -0.050966494 -0.0071972567 -0.035868376 0.048067264 0.007661231 0.030658113 -0.010960163
-0.058678273 -0.058898635 -0.0078546805 -0.051056407 0.019422337 0.0044554756 0.016015535 0.012021847
-0.004657164 0.061253663 -0.052535675 -0.0018883244 0.04711591 -0.054547716 -0.006446757 0.035798628
0.026953217 -0.033759493 -0.0050736223 0.03940851 -0.04030686 0.055502005 0.0507654 0.045174696
0.00386999 -0.050110925 -0.01804115 0.05034221 0.020329572 0.030597322 -0.009646017 -0.039428737
0.0072764703 0.050814632 -0.040065635 -0.0010251824 0.025153926 0.014942391 0.022787537 -0.0010261844

model_1/dense_1/MatMul f4 [4, 60]
00000000: 28b9 7abe 596d cd3d 460f 153d 74cf 033e
00000010: 3a03 10be 3680 8e3e a276 c3bd 07f9 dabd
00000020: c6dc 4f3e 009d 85be 5d2e adbd 4408 813d
00000030: e100 903e fe0b 05be 1f7a 353e 01c2 8abe
00000040: 67b2 52be efa7 3b3e cccf 963e 01d2 4bbe
00000050: 6336 f33d b2e9 91be 61e2 51be 4b7f e73d
00000060: 5f3b a0bd 74a2 d23d 578b 82be 0fc5 0cbe
00000070: 545a 7ebe ac92 f13d 1fee 273e ca20 2cbe
00000080: 2f60 113e c748 a33c 76f3 103d 7141 693e
00000090: 2d5b 613e 16d5 523e a889 763e 5690 81bd
000000a0: 1378 f83d 704d 1cbe 49c2 4fbe eb34 9abe
000000b0: daf1 d0bd f0f6 edbd 6056 643d 100f 1e3e
000000c0: 3bcb 853e 9390 a83d de25 0a3e f4ad 4bba
000000d0: ef7f 65be 1ad6 593e 57d9 1d3e d238 90be
000000e0: 976d 013d 48a2 6abe cb2c 69be f3ac 523e
000000f0: 3e1c 9c3e ff2a 63bd 2b63 80bd 084d 14be
00000100: edc2 953e 28fa 983e 34de 573e eab9 573e
00000110: a2bb fb3d 61b1 31be 173c 373e cca8 2f3e
00000120: 2780 6b3d e926 283e 8e37 b9bd 67e4 b5bd
00000130: 12d0 7e3e 97e8 803e 1fde 9ebd 2e4f 2d3e
00000140: fb27 553d e469 483e c33a b6bd 2da9 2bbd
00000150: f5a9 44be 1bec 0d3e b613 dfbd 6f21 bf3d
00000160: 27f1 683e 61e3 bc3c ac8b e7bd 3397 443e
00000170: f0e8 6abd 7e8c 3bbe 1edf 0ebd 55cf 3e3c
00000180: 4dd0 833e 2891 cfbd 6eea 7ebe 107f 6f3d
00000190: cbbc 4ebe 1ab7 0fbe 6f05 bf3d 863f 42be
000001a0: 03ae 3ebe 96f2 08be 8333 a23d ecb6 7d3e
000001b0: 7ff0 68be 0079 9c3e 1054 13bd a782 aabd
000001c0: 5207 8c3e 589f ed3d 6e27 28be ec51 e03d
000001d0: 282d 053e 4980 0abe f1c9 473e 31e0 b43d
000001e0: 958a 6abe 79e6 5d3e 1a15 48be 237d 893e
000001f0: 5885 f8bd 0246 2abc facd 403e 4b78 dcbd
00000200: 015d a3bd 18d4 ec3c ce2e 7dbe a956 3cbb
00000210: e886 3dbe 1d2f 8d3e 37e7 a9bd ea2f da3b
00000220: 8262 f53d 5eec 3ebe 666f 32be 1b36 48be
00000230: 97f7 36be a0ec 873e 9059 88be 8cc4 0ebe
00000240: ba8b a33d 8140 18bd b1cb 0abe 5e54 5b3e
00000250: 1a7f 74be 07e2 88bd f58e 623e 5655 433e
00000260: 1a0a 6a3e f12b e8bd 657a e5bd 358c f9bc
00000270: e04b 71be 2d3a 6fbe bb32 4cbd 12f7 933d
00000280: c941 853e b2a3 61bd d428 363d aa20 67be
00000290: 899e 3a3d 5c53 08be eb01 89bd 92d4 b0bd
000002a0: 9435 8fbe 7e7b 003e 1587 c43d afdd 7abe
000002b0: 6a7e 98be 48a1 3d3e 5430 84be f501 433e
000002c0: f0c2 873d 0920 3d3e 6308 b73d 5d74 3d3e
000002d0: f418 c9bc 49c9 d93d 212a 693d 4a89 74bc
000002e0: e5d0 7e3d 87a1 c73d 6fb9 babc 5a3e c8bd
000002f0: 9ec4 5dbe 26b7 8ebd e2c4 fe3c f857 22be
00000300: 6f11 403e c620 623e d4d6 14be 0fb4 533e
00000310: c85e 963e 9249 903e c393 12be 44c9 813c
00000320: 581b 663e 1812 133e 6d76 083e 47fa 443e
00000330: da8b 61be 8f26 9abe 903c 763e afb7 3a3d
00000340: 589d 88bd b1c5 edbd 8a4a 72be 7f3d 61bd
00000350: 20da 19be 96a9 1dbc 749e 513d b67d 9a3e
00000360: 5c79 213e 838d 773e f600 ab3c 61cb 743e
00000370: 63e9 47be 8d1c 8f3d 502e 8abe 8ad0 803e
00000380: 68eb 97be 73ab 1f3e 21fd 3dbd 89d9 04bb
00000390: 6cb3 32be 260b 9abe 213b 503e c94d 2cbc
000003a0: 4c8c 363e c256 313e 616a dd3c f115 193a
000003b0: 6bb1 74bd d352 a8bd 205c efbd 6702 8d3e
-0.24484694 0.10030622 0.03639152 0.12872106 -0.14063731 0.27832192 -0.09544112 -0.106920294
0.20299062 -0.26096344 -0.08456109 0.06300405 0.2812567 -0.12992856 0.17722367 -0.27101138
-0.20575868 0.1832578 0.2945541 -0.19904329 0.11875608 -0.28498608 -0.20496513 0.11303576
-0.07823824 0.10284892 -0.25496933 -0.13747047 -0.24839145 0.117955536 0.1639943 -0.16809383
0.14196847 0.019932164 0.035388432 0.2277887 0.22007437 0.20589098 0.24075949 -0.06326358
0.12132277 -0.15263915 -0.20288958 -0.30118498 -0.102023795 -0.11619365 0.055746436 0.15435433
0.26131615 0.082307 0.13491008 -0.00077697565 -0.22412084 0.2127308 0.1541494 -0.2816835
0.031598654 -0.22913468 -0.22770993 0.20573787 0.30490297 -0.055460926 -0.06268915 -0.1448251
0.2925028 0.29878354 0.21080858 0.21067014 0.122916475 -0.17352821 0.17894016 0.17154235
0.057495262 0.16421093 -0.09043799 -0.08881455 0.2488406 0.25177452 -0.0775721 0.16924736
0.05204008 0.19571644 -0.08897927 -0.041909385 -0.19205458 0.13859598 -0.108924314 0.09332549
0.22748242 0.023057641 -0.11305937 0.19198303 -0.057351053 -0.18315312 -0.03488075 0.0116461115
0.25744858 -0.10135108 -0.24894115 0.058470786 -0.20189206 -0.14034691 0.09327208 -0.18969545
-0.18621068 -0.13373789 0.07919981 0.2477681 -0.22747992 0.30561066 -0.03596884 -0.08325701
0.27349335 0.11602658 -0.16421291 0.10953125 0.13005507 -0.135255 0.19510628 0.088318236
-0.22904427 0.2166995 -0.195393 0.26853284 -0.12134808 -0.010392668 0.18828574 -0.107651316
-0.079767235 0.028909728 -0.24724886 -0.0028738177 -0.18508494 0.27575007 -0.08296054 0.006658544
0.119816795 -0.18644854 -0.17425308 -0.1955189 -0.17867886 0.26547718 -0.2663083 -0.13942164
0.07985635 -0.03717089 -0.13554265 0.21418902 -0.2387661 -0.06683736 0.22124846 0.19075522
0.22855416 -0.11336506 -0.112049855 -0.030462364 -0.235641 -0.23362036 -0.049853068 0.07224859
0.26026753 -0.055087753 0.04447253 -0.22571054 0.045561347 -0.13313049 -0.06689819 -0.086342946
-0.27970564 0.12547109 0.09596077 -0.24498628 -0.29783946 0.18518555 -0.2581812 0.19043715
0.06628978 0.18469252 0.089371465 0.1850142 -0.024548031 0.10634095 0.056924943 -0.01492531
0.062210936 0.09747606 -0.0227935 -0.097775176 -0.21657035 -0.069685265 0.03109974 -0.1585387
0.1875665 0.22082815 -0.14535075 0.20674156 0.29369187 0.2818113 -0.14314179 0.015843041
0.22471368 0.14362371 0.13326426 0.19236098 -0.22026005 -0.30107543 0.2404654 0.04558533
-0.06670636 -0.11609972 -0.23661247 -0.054990288 -0.15024614 -0.009622952 0.051176503 0.30174035
0.15768951 0.24175076 0.020874482 0.23905708 -0.19522624 0.069878675 -0.2698846 0.25159103
-0.29671788 0.15592746 -0.04638398 -0.0020271263 -0.17451257 -0.3008663 0.20335056 -0.010516592
0.17826957 0.17318252 0.027028264 0.00058397563 -0.05973951 -0.082189225 -0.11687493 0.27540895
