firebase_ml_model.tflite (tflite, 10796 bytes, 6 tensors)

sequential/dense_2/BiasAdd/ReadVariableOp/resource f4 [2]
-0.0127198715 0.012719924
00000000: 0267 50bc 3a67 503c

sequential/dense_1/BiasAdd/ReadVariableOp/resource f4 [60]
0.31127277 0.4203244 0.1015018 0.35786563 0.17632695 0.33344245 0.1602015 0.24649832
-0.45722952 -0.17757966 -0.178957 -0.10880959 0.17620163 0.096763775 -0.14007528 -0.17748898
-0.1252431 0.13298628 0.18588257 -0.18087661 0.19810016 0.13819672 0.10622587 0.116168804
-0.36221784 0.063629985 -0.095487766 0.4324181 0.15272686 -0.100522816 0.33213425 0.22720507
-0.119836956 0.16838375 -0.13172732 -0.0319431 -0.00022913229 -0.13796699 -0.08764822 -0.110525474
-0.08782255 0.08838658 0.049728945 0.18268259 0.14383398 0.3681623 0.11638726 0.07149495
-0.1367532 -0.1545806 -0.09995064 0.13341208 0.2910803 0.12375452 0.18758883 0.14230874
-0.14714448 -0.18285038 -0.07069164 -0.16257331
00000000: 255f 9f3e c234 d73e 2de0 cf3d 2a3a b73e
00000010: 0d8f 343e f8b8 aa3e dd0b 243e 0e6a 7c3e
00000020: fd19 eabe 71d7 35be 8140 37be 90d7 debd
00000030: 336e 343e 162c c63d e56f 0fbe acbf 35be
00000040: ba3f 00be 8e2d 083e 0058 3e3e b837 39be
00000050: c5da 4a3e 7183 0d3e f38c d93d e9e9 ed3d
00000060: 9e74 b9be 7050 823d 178f c3bd e865 dd3e
00000070: 6e64 1c3e e8de cdbd 800d aa3e 72a8 683e
00000080: 146d f5bd ca6c 2c3e 87e3 06be c5d6 02bd
00000090: 3b43 70b9 3847 0dbe e980 b3bd 2e5b e2bd
000000a0: 4fdc b3bd 0604 b53d 94b0 4b3d 2511 3b3e
000000b0: 3749 133e c57f bc3e 725c ee3d f26b 923d
000000c0: 0809 0cbe 604a 1ebe ecb2 ccbd 2d9d 083e
000000d0: 7a08 953e 0373 fd3d 4917 403e 62b9 113e
000000e0: 0bad 16be 213d 3bbe c7c6 90bd 9e79 26be

sequential/dense/BiasAdd/ReadVariableOp/resource f4 [20]
-0.52377415 -0.5582254 -0.5259559 -0.47620866 -0.50886554 0.5032424 0.48782197 -0.3582592
-0.66614765 0.49717352 -0.57271075 -0.3818102 -0.49664763 0.58606434 0.5885513 0.62905616
-0.41364345 0.5962713 -0.44935304 -0.42954606
00000000: 1016 06bf dce7 0ebf 0ca5 06bf 9fd1 f3be
00000010: 0345 02bf 7ed4 003f cdc3 f93e c06d b7be
00000020: a788 2abf 878d fe3e 2c9d 12bf a07c c3be
00000030: 9948 febe 5008 163f 4cab 163f d309 213f
00000040: 13c9 d3be 3ca5 183f 9a11 e6be 76ed dbbe

sequential/dense/MatMul f4 [20, 40]
-0.4521263 -0.4201534 -0.07258244 -0.27843493 -0.61339813 -0.28725716 -0.32371852 -0.42205498
-0.35068178 -0.5654279 -0.41759017 -0.6977449 -0.24505413 0.089969136 -0.4329475 -0.010603073
-0.08330965 0.16106974 -0.31765893 0.18620491 0.4924474 0.5725895 0.51455534 0.42109275
0.14195624 0.42387393 0.57852536 0.65444356 0.37414476 0.28368336 -0.029273955 0.7033255
0.27632955 0.6638427 0.32091415 0.3173361 0.1198064 -0.4357649 0.0948571 -0.24531172
-0.13638908 0.03370494 0.29967478 0.29352218 -0.64878297 -0.54449666 -0.51254976 -0.4600573
-0.54933774 -0.325362 -0.3094237 -0.6821452 -0.33077794 0.22274043 -0.19595295 -0.03596865
-0.3443866 0.037831943 0.045196895 0.29904088 0.2173262 0.43142015 0.5037621 -0.019157214
0.40632758 0.5594004 0.54700965 0.52703065 0.4716961 -0.013746915 -0.26738775 0.32666725
0.4414647 0.59228075 0.48131233 0.48139572 0.2680467 -0.15479393 -0.027004924 -0.11626528
-0.33728483 -0.27545792 0.070899576 0.1977495 -0.08916061 -0.12920232 -0.6088577 -0.045502294
-0.6163153 -0.7313429 -0.25482738 -0.5523835 -0.0027212524 0.24246547 -0.48998427 -0.4265495
-0.012229416 0.28906515 -0.12503216 0.26093125 0.28843585 0.30270252 0.503586 0.28164274
0.3746082 0.2869674 0.45645437 0.514538 0.22946982 0.05399476 0.21170272 0.57065433
0.017192854 0.57211 0.28681374 0.28598493 0.113442235 -0.08339377 -0.056204956 0.19674999
-0.06712146 -0.03258379 0.41695902 -0.018331327 -0.41978276 -0.47797534 -0.16299564 0.042052202
-0.1942539 -0.7264876 -0.6745865 -0.34321544 0.120504804 0.033765435 -0.45140114 0.09370135
-0.21814695 0.29145163 -0.11822231 0.18815044 0.30502635 0.2557251 0.0847063 0.5740054
0.32646212 0.26773486 0.5277403 0.1599887 0.71740025 -0.033534862 -0.22100732 0.17486936
0.4370416 0.5609399 0.40996763 0.03818538 0.28942367 0.03278484 -0.19594938 0.14287212
-0.13075183 -0.43379405 0.2859793 0.2113413 -0.6899328 -0.36024374 -0.09680435 -0.42808565
-0.18063055 -0.3378289 -0.24550545 -0.69819 0.057416443 -0.07101349 -0.5888597 -0.40424573
-0.12949027 -0.11998251 -0.29316032 0.12837431 0.40067622 0.6041157 0.28805092 0.4071015
0.34244412 0.72027415 0.40897277 0.42867562 0.84333634 0.06184597 -0.34325004 0.793734
0.56617546 0.40116343 0.50901544 0.29622582 0.096895635 -0.38931745 -0.14699169 -0.043672472
0.62172073 0.033919305 -0.2634552 -0.2799986 0.25552067 0.07517236 0.31677857 0.13267943
0.62453675 0.34978077 0.21968184 0.6820267 0.2518293 -0.25697365 0.43559048 0.30407193
0.34355015 -0.11385462 0.5140938 0.14104833 -0.122223035 -0.71261144 -0.55308604 -0.47550955
-0.067396335 -0.6230873 -0.5013419 -0.3115712 -0.8361323 -0.28733805 0.2926713 -0.7100102
-0.25298163 -0.83572346 -0.041480906 -0.3309462 -0.11134905 0.029107513 0.2872585 0.0930674
0.33636397 0.44320405 0.04085328 0.0066804145 0.6369014 0.29677942 0.46111846 -0.019273782
0.64187557 0.5957938 0.5096996 0.2571814 -0.15030253 -0.023214063 0.12103987 0.09584255
00000000: 197d e7be 591e d7be 1aa6 94bd 068f 8ebe
00000010: a907 1dbf 5f13 93be 6fbe a5be 9717 d8be
00000020: 908c b3be e2bf 10bf 61ce d5be 699f 32bf
00000030: 78ef 7abe bd41 b83d 4bab ddbe 83b8 2dbc
00000040: 409e aabd 77ef 243e 31a4 a2be 80ac 3e3e
00000050: 1122 fc3e 3a95 123f e6b9 033f 7899 d73e
00000060: fa5c 113e 0106 d93e 3d1a 143f 9d89 273f
00000070: e78f bf3e f23e 913e efcf efbc 240d 343f
00000080: 117b 8d3e 98f1 293f dc4e a43e e179 a23e
00000090: 0f5d f53d 941c dfbe 7044 c23d ff32 7bbe
000000a0: 94a9 0bbe 310e 0a3d f96e 993e 8a48 963e
000000b0: a416 26bf 2264 0bbf 7636 03bf a18c ebbe
000000c0: 66a1 0cbf d995 a6be c96c 9ebe 11a1 2ebf
000000d0: ba5b a9be 1116 643e e4a7 48be dd53 13bd
000000e0: 7153 b0be abf5 1a3d 6120 393d e31b 993e
000000f0: c28a 5e3e 1ae3 dc3e 8ef6 003f 97ef 9cbc
00000100: 2b0a d03e dd34 0f3f d308 0c3f 7beb 063f
00000110: 2782 f13e be3a 61bc 0ce7 88be ee40 a73e
00000120: a907 e23e b69f 173f 926e f63e 8079 f63e
00000130: 6b3d 893e 4d82 1ebe 6e39 ddbc 7e1c eebd
00000140: 99b0 acbe d208 8dbe cc33 913d d87e 4a3e
00000150: d799 b6bd 9d4d 04be 19de 1bbf 9d60 3abd
00000160: d7c6 1dbf 4a39 3bbf bc78 82be 0169 0dbf
00000170: 0a57 32bb de48 783e 38df fabe b264 dabe
00000180: e35d 48bc 5900 943e 6e08 00be c898 853e
00000190: ddad 933e d3fb 9a3e 03eb 003f 7a33 903e
000001a0: a5cc bf3e 64ed 923e 63b4 e93e c3b8 033f
000001b0: 23fa 6a3e 9c29 5d3d 99c8 583e 6716 123f
000001c0: 07d8 8c3c cd75 123f 40d9 923e 9e6c 923e
000001d0: 6754 e83d 5aca aabd 2b37 66bd d478 493e
000001e0: fa76 89bd 9576 05bd a77b d53e 942b 96bc
000001f0: c4ed d6be 2fb9 f4be 54e8 26be ee3e 2c3d
00000200: 7fea 46be 17fb 39bf b3b1 2cbf efb9 afbe
00000210: 39cb f63d a04d 0a3d 0d1e e7be 7ee6 bf3d
00000220: ea61 5fbe 2639 953e 8a1e f2bd 82aa 403e
00000230: 6a2c 9c3e 66ee 823e 7f7a ad3d 05f2 123f
00000240: 0b26 a73e 8b14 893e fd19 073f 14d4 233e
00000250: 8ba7 373f da5b 09bd be4f 62be f410 333e
00000260: ebc3 df3e c299 0f3f 47e7 d13e 4668 1c3d
00000270: 572f 943e 6549 063d f4a6 48be 124d 123e
00000280: cfe3 05be 411a debe e16b 923e db69 583e
00000290: 709f 30bf de71 b8be 5c41 c6bd 0b2e dbbe
000002a0: 37f7 38be e9f7 acbe c865 7bbe 94bc 32bf
000002b0: 812d 6b3d 856f 91bd 82bf 16bf 4cf9 cebe
000002c0: 1999 04be 64b9 f5bd 1c19 96be 8e74 033e
000002d0: 6f25 cd3e 54a7 1a3f 697b 933e 9c6f d03e
000002e0: d654 af3e e363 383f e164 d13e 5f7b db3e
000002f0: e4e4 573f 3352 7d3d 78be afbe 2732 4b3f
00000300: e0f0 103f 4b65 cd3e d64e 023f e9aa 973e
00000310: 3871 c63d 9e54 c7be fd84 16be e8e1 32bd
00000320: 1729 1f3f f8ee 0a3d 9ae3 86be fa5b 8fbe
00000330: 9bd3 823e f7f3 993d cd30 a23e 1edd 073e
00000340: a4e1 1f3f 7716 b33e 47f4 603e 4d99 2e3f
00000350: c5ef 803e 0d92 83be b705 df3e 51af 9b3e
00000360: cee5 af3e 9c2c e9bd a79b 033f f96e 103e
00000370: 1250 fabd b46d 36bf 0c97 0dbf fd75 f3be
00000380: 1707 8abd a682 1fbf f157 00bf 4386 9fbe
00000390: c40c 56bf f91d 93be 03d9 953e 3ac3 35bf
000003a0: cf86 81be f9f1 55bf e2e7 29bd c871 a9be
000003b0: f90a e4bd e172 ee3c 8c13 933e 1f9a be3d
000003c0: e637 ac3e a4eb e23e c555 273d 61e7 da3b
000003d0: f80b 233f 79f3 973e b817 ec3e 0de4 9dbc
000003e0: f551 243f f185 183f ac7b 023f 48ad 833e
000003f0: e8e8 19be 6b2b bebc c0e3 f73d 1949 c43d

sequential/dense_1/MatMul f4 [60, 20]
-0.05414265 -0.32726863 -0.4737253 -0.518508 -0.5045697 0.46558282 0.458328 -0.045054443
-0.22957449 0.3984671 -0.22480431 0.1101258 -0.49676847 0.70048344 0.48447555 0.45773438
-0.46868983 0.44038478 -0.1434881 -0.016304957 -0.36830264 -0.44720614 -0.5628992 -0.14692222
-0.4378211 0.51730496 0.4528724 0.094417945 -0.63125104 0.6003507 0.080964394 -0.123443216
-0.5744462 0.48578045 0.721894 0.71362907 -0.31084934 0.59103423 0.03568815 -0.6053812
-0.37145475 0.06070667 -0.02751134 -0.09011096 -0.3678567 0.081564434 0.050888687 -0.15778849
-0.25815198 0.099855326 0.017359557 -0.12902263 -0.0022760245 0.47743458 0.24386886 0.48741823
-0.45177913 0.013339464 -0.32290694 -0.07387543 -0.45040083 -0.22211398 -0.37963933 -0.15844856
-0.56357247 0.7382116 0.54113513 -0.41182336 -0.19814318 0.72746485 -0.018119095 -0.31399497
-0.12728886 0.71903783 0.3341686 0.58067346 -0.2633833 0.5369079 -0.3277284 -0.31950206
-0.21301909 -0.03458845 -0.3673932 -0.3026149 -0.04088276 0.2756796 0.3384419 -0.331121
-0.08284514 0.39916012 -0.028595835 -0.31168675 -0.18805815 0.14214376 0.13024463 0.30588627
-0.16636494 0.28035733 0.0072692744 -0.46683672 -0.46804416 -0.036436453 -0.28851643 -0.26552582
-0.46388078 0.6003355 0.22682244 0.045368634 -0.43966153 0.70111823 -0.12503675 -0.20189828
-0.39182672 0.6354905 0.5474571 0.27494708 -0.4668134 0.28587523 -0.28462452 0.01915394
-0.069313884 -0.053355202 -0.4135209 -0.22200723 -0.24363159 0.5444324 0.5691663 -0.32138407
-0.21164683 0.21596076 -0.11883016 -0.06795699 -0.48525068 0.500609 0.39674768 0.5576121
-0.13869007 0.17920887 -0.018864596 -0.40225568 -0.32647613 -0.3577818 -0.049486566 -0.3568254
-0.20885575 0.2534438 0.5074028 -0.19077684 -0.47954473 0.5545638 -0.101259276 0.011733038
-0.0246318 0.15173067 0.42434576 0.24572024 -0.42745045 0.3992683 -0.2821009 -0.06310476
0.5233304 0.7130672 0.6015847 0.4185102 0.58955425 -1.0357579 -0.83787423 0.06740852
0.3056751 -1.0282582 0.41075578 0.10885403 0.23506826 -0.6284766 -1.0145121 -0.5492676
0.60193354 -0.82480204 0.073455684 0.30005094 0.3081288 0.34822628 0.2439174 0.35131663
0.43234688 -0.28041145 -0.39982608 0.2435161 -0.009349262 -0.41463563 0.13568936 -0.15273528
0.22680196 -0.4187317 -0.19350834 -0.07898484 0.2991629 -0.47172207 -0.23307599 0.39615414
0.31605127 0.28760436 0.29450294 0.078016415 0.17607862 -0.14256677 -0.55602115 0.18090923
0.39004484 -0.1205489 0.24624866 -0.10399532 0.12634493 -0.30146918 -0.23562168 -0.5449122
0.30038655 -0.27195704 0.09859554 0.20036586 0.33770683 0.31369105 0.1483759 -0.039638326
0.44137782 -0.36364168 -0.3353236 -0.083582744 0.026518276 -0.36160195 -0.072258346 -0.08179387
0.09104196 -0.20443562 -0.4062775 -0.37448332 0.45717812 -0.28563538 0.41288662 0.42071706
-0.4467091 -0.4326985 -0.3755651 -0.36939582 -0.051540587 0.133531 0.20080443 0.0464581
-0.011070007 0.26899043 -0.20888558 -0.18703535 -0.3383305 0.037732013 0.4711324 0.49938184
00000000: afc4 5dbd c18f a7be 1f8c f2be f1bc 04bf
00000010: 7b2b 01bf df60 ee3e f8a9 ea3e 028b 38bd
00000020: 9315 6bbe e103 cc3e 1a33 66be a389 e13d
00000030: 7058 febe e252 333f 2e0d f83e 295c ea3e
00000040: 1df8 efbe 1d7a e13e 8bee 12be f991 85bc
00000050: 2a92 bcbe 34f8 e4be 291a 10bf c772 16be
00000060: 162a e0be 196e 043f e4de e73e 325e c13d
00000070: ab99 21bf 95b0 193f a9d0 a53d cccf fcbd
00000080: e80e 13bf 37b8 f83e 0cce 383f 65b0 363f
00000090: a527 9fbe 054e 173f bd2d 123d 43fa 1abf
000000a0: 512f bebe 8fa7 783d 765f e1bc 188c b8bd
000000b0: b757 bcbe 410b a73d a870 503d 4e93 21be
000000c0: 7f2c 84be f380 cc3d a135 8e3c 821e 04be
000000d0: 5b29 15bb 4e72 f43e c2b8 793e e28e f93e
000000e0: 984f e7be c48d 5a3c 0f54 a5be 004c 97bd
000000f0: f09a e6be d971 63be 1660 c2be 5740 22be
00000100: 4946 10bf 6ffb 3c3f d587 0a3f 83da d2be
00000110: 0ce6 4abe 233b 3a3f 7f6e 94bc f3c3 a0be
00000120: 0358 02be dd12 383f 2618 ab3e 04a7 143f
00000130: 2dda 86be cc72 093f 04cc a7be c695 a3be
00000140: ad21 5abe 9eac 0dbd f61a bcbe 57f0 9abe
00000150: ae74 27bd e025 8d3e 4248 ad3e b188 a9be
00000160: b6aa a9bd b75e cc3e d041 eabc 6895 9fbe
00000170: 5192 40be 228e 113e d95e 053e 209d 9c3e
00000180: 925b 2abe ff8a 8f3e 1833 ee3b 3905 efbe
00000190: 7ca3 efbe 643e 15bd 6db8 93be 00f3 87be
000001a0: c881 edbe 96af 193f 2444 683e 76d4 393d
000001b0: 511b e1be 7c7c 333f a209 00be 6cbe 4ebe
000001c0: 839d c8be 81af 223f 2626 0c3f ddc5 8c3e
000001d0: 2a02 efbe 3d5e 923e 4eba 91be b9e8 9c3c
000001e0: 70f4 8dbd fc8a 5abd 03b9 d3be dd55 63be
000001f0: 8f7a 79be ec5f 0b3f e2b4 113f 748c a4be
00000200: f2b9 58be d124 5d3e 3a5d f3bd 092d 8bbd
00000210: c772 f8be e927 003f 8322 cb3e abbf 0e3f
00000220: c504 0ebe 8882 373e ed89 9abc 75f4 cdbe
00000230: e127 a7be 2d2f b7be 6db2 4abd d2b1 b6be
00000240: 48de 55be 63c3 813e 26e5 013f 015b 43be
00000250: e386 f5be e5f7 0d3f 0661 cfbd ee3b 403c
00000260: a1c8 c9bc 495f 1b3e d943 d93e 169e 7b3e
00000270: c9da dabe e56c cc3e 876f 90be 123d 81bd
00000280: fbf8 053f 928b 363f 7401 1a3f f846 d63e
00000290: 07ed 163f b793 84bf ed7e 56bf 7a0d 8a3d
000002a0: 7281 9c3e f79d 83bf 954e d23e ddee de3d
000002b0: bcb5 703e d8e3 20bf 88db 81bf cd9c 0cbf
000002c0: 5118 1a3f 3a26 53bf ef6f 963d 47a0 993e
000002d0: 0fc3 9d3e b74a b23e 7cc5 793e c6df b33e
000002e0: 925c dd3e 1792 8fbe 01b6 ccbe 495c 793e
000002f0: a62d 19bc 1f4b d4be 27f2 0a3e a366 1cbe
00000300: c63e 683e 0064 d6be 0d27 46be cec2 a1bd
00000310: e12b 993e 8e85 f1be 79ab 6ebe b7d4 ca3e
00000320: 79d1 a13e e140 933e 17c9 963e 12c7 9f3d
00000330: f44d 343e 06fd 11be 6757 0ebf 4540 393e
00000340: f5b3 c73e 57e2 f6bd 9c28 7c3e 80fb d4bd
00000350: 9160 013e 2b5a 9abe cf46 71be 5e7f 0bbf
00000360: 44cc 993e f43d 8bbe 75ec c93d b52c 4d3e
00000370: e9e7 ac3e 1d9c a03e daef 173e cc5b 22bd
00000380: 46fc e13e 3e2f babe 89af abbe 6e2d abbd
00000390: db3c d93c e423 b9be 2ffc 93bd 8b83 a7bd
000003a0: 3574 ba3d 9257 51be 9b03 d0be 47bc bfbe
000003b0: 4013 ea3e cd3e 92be e065 d33e 3a68 d73e
000003c0: 0eb7 e4be a88a ddbe 124a c0be 7321 bdbe
000003d0: 391c 53bd 5abc 083e ad9f 4d3e d94a 3e3d
000003e0: fa5e 35bc 1db9 893e 1ae6 55be 3286 3fbe
000003f0: a839 adbe e28c 1a3d 4438 f13e faae ff3e

sequential/dense_2/MatMul f4 [2, 60]
0.022169957 0.021374797 -0.33029735 -0.017480979 -0.019774582 -0.30395567 -0.3237532 -0.18590298
0.4123966 0.29813623 0.32891884 0.34886736 -0.37178755 -0.2297858 0.41332513 0.399759
0.14025296 -0.23684752 -0.29838923 -0.06034997 -0.2868209 -0.19633532 -0.29659715 -0.46790683
0.01553584 -0.05678808 0.3731886 -0.44950816 -0.45433235 0.40004206 -0.051113095 -0.37583196
0.23018277 -0.46898276 0.43934917 0.3483278 -0.06700083 0.27731735 -0.043084804 0.45669228
0.43637043 -0.33202583 -0.059168287 -0.42713094 -0.32297465 -0.06382969 -0.35699973 -0.2522367
0.06120687 0.29257855 -0.014332556 -0.47658056 -0.21715128 -0.01924238 -0.46144032 -0.041375853
0.38938376 0.0028713252 0.15137568 0.093595356 0.4828634 0.5526486 0.37818697 0.38749713
0.3994793 0.3204623 0.20337611 0.31953418 -0.08453372 -0.41255105 -0.13512586 -0.41609886
0.3703599 0.40715763 -0.24021584 0.013288718 -0.38333622 0.3313714 0.34059843 -0.3059929
0.23344383 0.43940833 0.39638317 0.19193886 -0.31418625 0.36369926 -0.47069067 -0.055731013
0.45829025 0.067259826 0.53335816 0.019655185 -0.27910656 0.36632818 -0.08809155 0.13955356
-0.22282414 -0.12282616 -0.47690538 -0.438918 -0.3404119 0.41605264 0.084014624 0.24744767
0.26333013 0.4020164 0.21415678 0.3539014 -0.20350109 -0.17807317 -0.40668708 0.48290765
0.35690677 0.1351262 0.2542324 0.42801777 -0.30591768 -0.28621387 -0.35273704 -0.13631481
00000000: c59d b53c 331a af3c bc1c a9be 4534 8fbc
00000010: 4efe a1bc 14a0 9bbe fbc2 a5be 5a5d 3ebe
00000020: a625 d33e 50a5 983e 0d68 a83e be9e b23e
00000030: f05a bebe f84c 6bbe 5a9f d33e 36ad cc3e
00000040: 799e 0f3e 2888 72be 79c6 98be 8831 77bd
00000050: 30da 92be 200c 49be 95db 97be 7c91 efbe
00000060: 098a 7e3c 9e9a 68bd 9412 bf3e ef25 e6be
00000070: 409e e8be 50d2 cc3e f75b 51bd 0c6d c0be
00000080: 08b5 6b3e 821e f0be 60f2 e03e 0558 b23e
00000090: bb37 89bd 8afc 8d3e b179 30bd 92d3 e93e
000000a0: f26b df3e 4aff a9be 725a 72bd e8b0 dabe
000000b0: ef5c a5be 24b9 82bd abc8 b6be 2b25 81be
000000c0: 0eb4 7a3d dbcc 953e 19d3 6abc 5e02 f4be
000000d0: e85c 5ebe 32a2 9dbc e841 ecbe ba79 29bd
000000e0: 4f5d c73e d82c 3c3b 3a02 1b3e ecae bf3d
000000f0: df39 f73e 617a 0d3f b9a1 c13e 0666 c63e
00000100: 8d88 cc3e a213 a43e d441 503e fc99 a33e
00000110: 0420 adbd e439 d3be 6f5e 0abe e90a d5be
00000120: d09f bd3e f776 d03e 24fb 75be ecb8 593c
00000130: a544 c4be 83a9 a93e eb62 ae3e 1aab 9cbe
00000140: e60b 6f3e 21fa e03e bcf2 ca3e 9f8b 443e
00000150: 05dd a0be ca36 ba3e 5efe f0be 3446 64bd
00000160: 05a5 ea3e 85bf 893d 298a 083f e903 a13c
00000170: 0ee7 8ebe 5e8f bb3e 5869 b4bd 21e7 0e3e
00000180: 032c 64be 488c fbbd f12c f4be dcb9 e0be
00000190: 784a aebe da04 d53e dc0f ac3d ec62 7d3e
000001a0: 35d3 863e 18d5 cd3e ea4b 5b3e 9032 b53e
000001b0: 9762 50be d058 36be 4a39 d0be ac3f f73e
000001c0: 7cbc b63e 865e 0a3e c02a 823e 2525 db3e
000001d0: 3ea1 9cbe a08a 92be f399 b4be 1c96 0bbe
