firebase_ml_model.tflite (tflite, 678804 bytes, 8 tensors)

model_1/conv2d/BiasAdd/ReadVariableOp f4 [32]
00000000: d291 e93c 4960 a1bb dfe2 cd3c dc49 d23c
00000010: 680e 6d3b d338 ea3c 68a3 233c 9ee1 273c
00000020: 7206 fd3c 4b0e bbbb cf24 053d fdd1 b33c
00000030: ba68 a13c 6b92 e43c 7855 dc3b 4a75 423c
00000040: edf8 333d 1746 e53a 7fe3 723b a08b cb3b
00000050: 6172 ad3b f872 a53c 6d12 623b f088 223c
00000060: 3bc4 1e3d 6314 203a 6459 033c ed11 b53c
00000070: 8ec5 be3c 0c20 46bb 2fc0 0f3d 292c e03b
0.028511915 -0.004924808 0.025132595 0.025669985 0.0036171917 0.028591549 0.00998769 0.010246662
0.030886862 -0.005708491 0.032505807 0.021950716 0.019703258 0.027901849 0.006724056 0.011868784
0.043938566 0.0017492202 0.0037061868 0.006211713 0.005293176 0.020196423 0.0034495846 0.009920344
0.03876136 0.00061065535 0.008016918 0.022103274 0.02328756 -0.0030231504 0.03509539 0.006841202

model_1/conv2d_1/BiasAdd/ReadVariableOp f4 [16]
00000000: 3ba7 973b f405 423d 3317 023d ea4d 2d3c
00000010: 0cc2 a33c 9bc0 ca3b e315 933c 5bc3 cb3c
00000020: 273f 323d f38e 7f3d bfea 263d b4cd d83c
00000030: 3c88 4e3d 6a5d 463c 6044 1b3d 21d7 56bc
0.0046280897 0.04736896 0.031760406 0.010577658 0.01998999 0.006187511 0.017954772 0.024873426
0.043517258 0.062392186 0.040751215 0.026465274 0.050422892 0.012107233 0.037907004 -0.013112814

model_1/conv2d/Conv2D f4 [32, 5, 5, 1]
00000000: 47da 65bd 85ec e63a 2565 ae3d 8456 06bc
00000010: 576a 69bd a435 353d 28fd bc3c 8438 0cbd
00000020: c814 b53c 957f 903d 7097 923d 0058 0f3d
00000030: 6b1d 4a3d 699b c2bc 6071 1c3c 3e4a 0a3d
00000040: 4c0b 943d facc 6c3d fec8 693c d12c 933d
00000050: 682b 703d 62d8 2dbc 4000 7dbd db69 c73a
00000060: 909d 903d 9412 8b3d 0ae7 4bbd 5f6e e1bc
00000070: 8969 7cbc 0e2e 57bc 4c0c 523d 3d19 843d
00000080: 41aa 85bd 1c7b a33d ace0 973d 57a9 063d
00000090: ec36 9ebc def5 a33d a08a 2b3d 6c4c 9fbd
000000a0: 7346 29bd 9a0c 3e3d a9a6 5a3d e60c 1cbd
000000b0: 955d 9a3c 12d0 873d a741 063c 555f 46bc
000000c0: 229b 9dbd 2aa5 5d39 180a b83d 640a 49bd
000000d0: 1c9f ef3c 5396 5b3d aeb2 63bd 471f a7ba
000000e0: b637 39bd 2aa7 a33d 7b80 49bd 1670 573d
000000f0: edd9 7cbd 7a97 1ebb 451a 35bc ed0d c63c
00000100: 6671 c33c 3d76 37bd 5e7f 533d ef60 63bd
00000110: 910f 37bd 14c1 8b3d e3b0 b9bb dbb1 763c
00000120: a6ad 38bd 58c4 8bbd 8424 d43c d152 a43d
00000130: 80c2 c0bc 2f3d 853d 54e4 e2bc fe8c 0d3d
00000140: 1711 34bd c6b4 a3bd 9f20 a53b e883 85bd
00000150: a1ee 913c b432 98bd 0d0a 7fbd 01e2 8f3c
00000160: 8be7 ae3b 31bb 4b3d 1fc4 babd f765 52bc
00000170: 5571 94bd 70f0 3ebd c530 08bc 270f 96bd
00000180: 1e6f 96bd c920 b9bd 13b7 083d 938c 50bd
00000190: ec2b 053c f215 96bd c7dc 90bd 75a6 143c
000001a0: f334 ae3c 5c1d b1bd 0d86 55bd 4a4f 1fbd
000001b0: 7bbe 403d efec 913d 4b79 97bd fada 893c
000001c0: 442e 9e3d ccf5 ae3d 1a70 75bd c98f a93d
000001d0: 22a4 85bc 6c2b 803d 068c 463d 4a14 843d
000001e0: b270 2cbb 06b7 603d dfa4 60bd 423f b43d
000001f0: fa9c 47bc ff39 a4bd d45c bd3d e40c 293d
00000200: 5e39 443c 3dba 363d b062 b13d 2edd 193d
00000210: 081c 04bd 1294 0bbd 0a24 d2bc b77e cb3c
00000220: b88c f43c da81 f73c 252b 1cbd 6601 8a3d
00000230: 55f7 1d3c 7ff8 613d 1788 4a3d c11a 5ebd
00000240: c818 bb3d a1dc 383d 5aa4 90bc 568e 4cbd
00000250: 186e b93d 924d 01bd 34c6 8c3d 50bf db3c
00000260: 73e8 a6bd 756e cbbc 7015 473d 3b38 aebc
00000270: 0fcd 78bd edde 8f3d 1b43 05bd 749d d4bc
00000280: 0b78 393c d45d 86bb 9248 23bc 9600 ecbc
00000290: 4e83 1c3d 66d6 aa3d 31b5 a4bd d34b 9c3d
000002a0: c66b a63c 4992 bcbc 85fa af3d 3558 ae3d
000002b0: 7199 403d 2266 02bd 81a9 5e3d 5c20 783c
000002c0: 99b3 8f3d 5e6f 25bd dd81 963b 17a4 2a3b
000002d0: e59a 853d b716 ad3d 031c 72bd ca54 31bd
000002e0: 4efd 78bd 321a 96bd 7dc3 e9bc 2ae3 b2bd
000002f0: 42b6 423d dc99 933d 007f 29bd 1393 233d
00000300: 5b66 6d3d 38c5 903d 3e6d 603b 15e8 b5bd
00000310: 8456 5fbd 93dc 41bd 17f6 593d 4f55 b6bd
00000320: 71ef 74bd 6092 5cbd 049e b3bd 26bb 49bd
00000330: 93ff abba b031 64bd 30d9 1fbd 82f8 be3b
00000340: ec15 dfbc 1bae cfbc 3f3f 9cbd 9826 19bd
00000350: c98e c5bd dc81 a5bc b496 bcbd f79d 05bd
00000360: 62b8 2cbd 9ecd 893c 4bcf d33c 28cd d9bc
00000370: a2c5 44bd 291e 35bd e8bf 9fbd 47e4 8b3d
00000380: e56e e93c 07e1 2fbd 1587 adbd 8a1c 933d
00000390: 065e dd3c 18c4 f23a ab94 913c 8202 3dbd
000003a0: 1b36 0fbc 313c 6ebd bd41 6e3d dce7 b33d
000003b0: a7e0 29bd 38fe 14bd 6336 a03c 042d 063d
000003c0: b015 233c b7db 5d3b cfbf 8fbd d4fc 22bd
000003d0: 7926 3a3d ad67 9d3d c9fb a1bd eac3 f33c
000003e0: eeb0 e1bc 60fb 583d ecbf b3bd fa7f 8d3b
000003f0: 54a2 853d d459 c6bc c90f 33bd 1052 2ebc
-0.05611637 0.0017618096 0.085153855 -0.008199338 -0.05698618 0.04424061 0.023069933 -0.034233585
0.022104636 0.07055584 0.07157791 0.034996033 0.04934446 -0.023755746 0.009548515 0.03376221
0.07228717 0.05781267 0.014269112 0.071862824 0.058635145 -0.010610672 -0.061767817 0.0015214043
0.07061303 0.06790653 -0.049780883 -0.02751845 -0.015406021 -0.013133539 0.05128126 0.06450126
-0.06526614 0.079824656 0.074159 0.03287634 -0.019313298 0.0800588 0.04188025 -0.07778248
-0.04132695 0.046398737 0.053381596 -0.03809824 0.018843452 0.06631483 0.008194364 -0.01210769
-0.07695605 0.00021137731 0.089863 -0.049082175 0.029250674 0.053610157 -0.055590324 -0.001275041
-0.045219146 0.079908684 -0.049194794 0.052597128 -0.061731268 -0.0024199174 -0.011053626 0.024176562
0.023857784 -0.044790495 0.05163514 -0.055512365 -0.04469258 0.06823936 -0.0056668385 0.0150570525
-0.04508748 -0.06824559 0.025896318 0.080236085 -0.023530245 0.065058105 -0.027696766 0.03455829
-0.04396161 -0.07993464 0.005039289 -0.065193 0.017813982 -0.07431546 -0.062265445 0.017563822
0.0053376607 0.049739067 -0.091194384 -0.012841693 -0.07248179 -0.046616018 -0.008312409 -0.07327109
-0.07345413 -0.090394564 0.03337772 -0.050915312 0.008128148 -0.073284045 -0.0707336 0.00907289
0.021265483 -0.08648178 -0.052129794 -0.038893975 0.047056656 0.071252696 -0.07396182 0.016828049
0.07723668 0.08542976 -0.05992136 0.08279378 -0.016313616 0.06258282 0.04847338 0.06449182
-0.0026312289 0.054862045 -0.054844733 0.08801128 -0.012183422 -0.080188744 0.09246221 0.04127206
0.011976568 0.044611204 0.08661401 0.03756445 -0.032253295 -0.034076758 -0.02565195 0.024840696
0.029852256 0.030213285 -0.038127083 0.06738548 0.009641488 0.055168625 0.04944619 -0.054224733
0.09135586 0.045132283 -0.017656494 -0.04994043 0.09054202 -0.031568117 0.06873742 0.026824623
-0.08149805 -0.024832943 0.04860443 -0.021267047 -0.060742434 0.070249416 -0.0325347 -0.025953986
0.011320124 -0.0041005407 -0.009966033 -0.028808873 0.03821116 0.083416745 -0.08042372 0.0763165
0.020315062 -0.023018973 0.08592705 0.08512918 0.047021333 -0.031835683 0.05436087 0.015144434
0.070166774 -0.04038941 0.0045931176 0.0026037747 0.065236844 0.08451598 -0.059108745 -0.04329375
-0.060788445 -0.07329215 -0.028535599 -0.08734734 0.047537096 0.07207081 -0.041380882 0.039935183
0.057958942 0.070688665 0.00342448 -0.08882157 -0.054525867 -0.047329497 0.053213205 -0.0890299
-0.05979866 -0.05385053 -0.087703735 -0.049250744 -0.0013122432 -0.05571145 -0.039025486 0.0058279643
-0.027232133 -0.025351575 -0.07629251 -0.03739032 -0.09646375 -0.020203523 -0.09208432 -0.03262135
-0.04216803 0.016821679 0.02585568 -0.026587084 -0.04804004 -0.044218216 -0.07800275 0.0683065
0.028495261 -0.042939212 -0.084730305 0.07183178 0.027022373 0.0018521575 0.017771086 -0.04614497
-0.008740927 -0.05816287 0.05816816 0.08784458 -0.04147401 -0.036375254 0.019557184 0.032757774
0.009953901 0.0033852884 -0.070190065 -0.039791897 0.045446847 0.0768579 -0.07909352 0.029756505
-0.027550187 0.052974105 -0.087768406 0.0043182345 0.06525102 -0.024212755 -0.043716226 -0.010639682

model_1/conv2d_1/Conv2D f4 [16, 3, 3, 32]
00000000: 3687 f1bd c2ad f2bd 0cf7 bebd c5ab 3e3d
00000010: c9e2 5e3d 7ded 073d 63ce b9bd 0bbf e53d
00000020: db79 2f3c 8015 c53d 4f6c c23d efb8 193d
00000030: 3ae7 8ebc 9b01 083d 530b 78bd 469d e93d
00000040: 2da5 c5bd d4bc 61bb 2a30 ac3c 4b60 c7bd
00000050: 55a1 9238 4c04 b7bd 819b 5cbc 3105 c23d
00000060: dfb6 47bc dfed 763d 887d a63b 6032 7d3d
00000070: 7635 a4bd b33e d5bd 4783 efbd fed0 9fbd
00000080: 44db 3a3d 9702 3c3d 3963 ea3a 3bc3 52bd
00000090: b857 783c 7179 9d3d b6d8 e1bd 6256 fdbc
000000a0: e3ba 83bd a180 e83b 237c 9e3d f610 6cbd
000000b0: 0064 da3d 7392 2cbd 8486 9e3d 87e2 a8bd
000000c0: b8f5 a73c 008e 47bd fee1 6b3d e746 a53d
000000d0: 174e 88bd 93f9 e53d 802c 90bd e4ab 6cbd
000000e0: a37d acbd 95c3 7a3d e4bf c83d a868 13bc
000000f0: feff babd 70f0 a1bd 2360 0c3d 54f2 95bd
00000100: 7396 773d eb79 823b 50d8 85bd 6108 15bd
00000110: 9314 70bc 9a2f 8dbd 7518 fc3b 1e68 363d
00000120: 8aef 3aba ac19 c0bc f7c1 2c3d da93 893d
00000130: 0b13 b4bd 9acf a03d 2fee b9bd d51b f83d
00000140: 7574 563d ae5c 0a3d 5267 24bd c6d0 ebbd
00000150: c951 853d 4916 7e3b 0a08 de3d 2002 c8bd
00000160: 016c 923b 57e4 fabc 1610 39bd a77a e03d
00000170: 6606 ce3d d361 dfbd 2b1f aebd a69c 65bc
00000180: 4beb 58bd 50ed e0bc 5eb1 a5bd 96c7 efbb
00000190: 28b2 a2bd 3bd6 be3d 507b a43d 7cdf 3fbd
000001a0: 9e5e c53d 399c 093d acb7 ea3d 3a05 09bd
000001b0: dcbd 60bc 92e1 af3b 8fcc f03c c7c8 a9bc
000001c0: e877 85bd 2d02 e0bc 1557 dfbd e29f 923d
000001d0: 615f fd3c d7a8 2b3c 38e5 e73d 237b 90bd
000001e0: a673 abbd 0b8e 593b 1746 ee3c 6481 ae3d
000001f0: 662f 94bd b392 243d d0db b9bb a547 ae3c
00000200: 958d 06bc 12ba a4bc 743c eb3d 9e17 cf3c
00000210: 3135 ab3d a8d2 6bbd 6bef 33bd 1223 483d
00000220: 8713 e6bc 4ee0 63bc 90ed 7c3d a71e 823d
00000230: 5cb0 ee3b 4182 a4bd c6d3 c6bd 0c2c 053a
00000240: 0a3d 4a3d e8bf d03d 3bc3 b5bd 8041 c73d
00000250: a669 bebd cc5d 1f3d 6a34 89bd 2e84 2b3d
00000260: 949b 98bd 8e08 26bd 86e0 bb3d f28f b03d
00000270: cd0d df3d ef7d 843d c047 c83d aa4e a03d
00000280: eb70 093d 73de 053d ef83 7dbd fc21 553d
00000290: 7e80 cc3d 3de3 b8bc 5b06 94bc cf14 e23c
000002a0: 701f babc b6e7 e8bd 6e59 e83d 3c58 e93d
000002b0: 397f ec3d 1a14 eebb 4a7b 2ebd 74eb bc3b
000002c0: 04f4 c33d 6a5c 9ebd a7ce f5bc cd10 c5ba
000002d0: a614 ef3c 19f1 143c 070f 73bd 6833 8abd
000002e0: 892a b93d ee59 e33d bdd9 e73d d5bd c9bd
000002f0: 2aa9 7a3d 9590 393d 6e71 57bc cb1c 953c
00000300: b6b4 90bc 8b15 823d b96d 1f3d f314 ffbc
00000310: 01b2 8d3d 5ca2 a33d 0f59 043d 6c79 ed3c
00000320: a728 af3c aad7 cfbd 12ce 853d 907e 42bd
00000330: c33d aabd e452 8abd 9bcc 8ebd caaa c2bd
00000340: d820 b2bc b996 a6bd e4a2 0f3d 31d5 263d
00000350: c56a c83c 46a6 793d 444f a13c 48d6 1d3d
00000360: 178f 313d 3792 eebd 335b c3bd bcda a73d
00000370: 5c2f 613d 8736 1dbd 92ab db3d 5aaf dfbd
00000380: 7c85 06bc 7658 94bc be55 6abd 51ec e53d
00000390: cc44 0abc 5808 153b a0e7 703d f222 b23d
000003a0: a7e1 ef3d 19cc 623d 52a3 1d3d 8377 6d3b
000003b0: 4f89 f53d c098 253c 1c69 cbbd 6fbb 753c
000003c0: d48d 9dbd 29a4 93bd a562 8cbc 920c 81bd
000003d0: bf70 e7bd f075 73bd 78a8 d6bd d0e4 e23d
000003e0: b7b0 9e3d 3a87 51bc b9cf 15bd c9a1 323d
000003f0: b654 bebc 87be d63d d135 e53c 70eb a23d
-0.117933676 -0.11849548 -0.09324464 0.04655053 0.054415498 0.03318547 -0.09072568 0.11218079
0.010710205 0.096232414 0.094933145 0.037529882 -0.017444242 0.033204656 -0.060557675 0.11406951
-0.096506454 -0.0034444826 0.02101906 -0.09735163 6.991873e-05 -0.089363664 -0.013464809 0.094736464
-0.012189596 0.060285445 0.0050808825 0.06181562 -0.08018009 -0.104123496 -0.11694961 -0.07803534
0.045619264 0.045900907 0.0017882354 -0.051455718 0.0151576325 0.07689179 -0.110276625 -0.03092498
-0.0643213 0.007095412 0.07738521 -0.057633363 0.10663605 -0.042131852 0.077405006 -0.08246332
0.02050291 -0.048719406 0.05758857 0.08070164 -0.066555195 0.11229243 -0.07039738 -0.057781115
-0.08422401 0.061221678 0.09802225 -0.00899712 -0.09130858 -0.07907188 0.03427137 -0.07321611
0.060446214 0.003981819 -0.06535399 -0.036384944 -0.014653343 -0.06893845 0.007693345 0.044532888
-0.0007131031 -0.023449741 0.042177167 0.067176536 -0.08792695 0.07852097 -0.09078633 0.121146835
0.052357156 0.033779792 -0.040137596 -0.1151443 0.0650974 0.0038770607 0.10841377 -0.0976603
0.0044684415 -0.030626459 -0.045181356 0.10960894 0.10059814 -0.1090733 -0.085020386 -0.014014399
-0.052958768 -0.02745691 -0.08090471 -0.0073174937 -0.07944137 0.09318205 0.080313325 -0.04684399
0.096371874 0.03359625 0.11460814 -0.03345225 -0.013717141 0.0053674662 0.029394416 -0.02072562
-0.06517011 -0.027344787 -0.109052815 0.071594015 0.03092927 0.010477266 0.11323017 -0.070547365
-0.083716676 0.0033196236 0.029086156 0.08520773 -0.07235603 0.040178966 -0.0056719556 0.021274397
-0.008212467 -0.020108256 0.1148614 0.025279816 0.08359755 -0.057573944 -0.0439295 0.04886157
-0.028085483 -0.013908459 0.061749995 0.06353503 0.0072842073 -0.080326565 -0.09708361 0.0005080111
0.049374618 0.10192853 -0.08875128 0.0972929 -0.092974946 0.03890781 -0.0669945 0.041874103
-0.07451549 -0.040535502 0.09173684 0.086212054 0.10891304 0.064693324 0.0977931 0.07827504
0.033554953 0.032682847 -0.0618934 0.052034363 0.099854454 -0.022569293 -0.018069437 0.027597813
-0.022720069 -0.1137232 0.11345182 0.113937825 0.11547703 -0.00726558 -0.042598046 0.005765373
0.09568027 -0.0773247 -0.030005766 -0.0015034914 0.02918465 0.009090685 -0.059340503 -0.06748086
0.09041316 0.11101137 0.11320827 -0.09850661 0.061196484 0.0453039 -0.013149602 0.018202206
-0.017664295 0.06351765 0.038923 -0.031137919 0.06918717 0.07989952 0.032311495 0.028988563
0.02138169 -0.101485565 0.065334454 -0.04748398 -0.08312561 -0.067540914 -0.06972619 -0.09505232
-0.021744177 -0.08134217 0.035067454 0.04073066 0.024464974 0.060949586 0.019691117 0.038534433
0.04334935 -0.11648982 -0.09538879 0.08196017 0.054976806 -0.03838208 0.10726084 -0.109221175
-0.008210536 -0.018108588 -0.057210676 0.112267144 -0.008439254 0.002274057 0.058814645 0.086980715
0.11712962 0.055370424 0.038485833 0.0036234565 0.1198908 0.010107219 -0.099321574 0.014998301
-0.07693067 -0.072090454 -0.017136881 -0.06301226 -0.113008015 -0.059438646 -0.104813516 0.11078799
0.077485494 -0.012788588 -0.036575053 0.04361132 -0.023233753 0.10485559 0.027979763 0.079550624

model_1/dense/BiasAdd/ReadVariableOp f4 [60]
00000000: 2c44 7a3c c089 563c ba14 b13b a7cd 74ba
00000010: c336 263c 2a44 c2bb e310 42bc c09b 35bc
00000020: acd9 54bb 2e3a 18bc 51c2 1d3c 1649 923b
00000030: 39ee e2bb ec31 873a 8777 553c c1fc 82bb
00000040: fb78 f23b 55c1 a73b 3522 45bc f764 3fbc
00000050: 1f2d 4c3c 06c0 ca3b 360f ee3a 2752 043c
00000060: bd8e 7f3b d97a 153c a1dc 3dbb 2749 183c
00000070: 71ae 20bb b79e 0737 7158 e23b 0862 3a35
00000080: 80e3 233b 6e65 27bb f8fe 8abb a30b 33bc
00000090: 7e02 10bc 1750 143c 5fcf a2ba 015f dcbb
000000a0: 3c04 1dbc 528c b1bb 2799 a83b 4b0b b23b
000000b0: 1446 553c 93a0 fcbb 6fbe 983b 3916 18bc
000000c0: 125b 7aba 1d6e 203c 1251 10bc e4b7 b03a
000000d0: c522 debb 443c 52ba b8be 63bc 31bf 81bc
000000e0: 2dc3 59bc ae24 bd3a de50 1c3c 6acf 833b
0.0152750425 0.013094366 0.005404082 -0.0009338506 0.010144892 -0.005928536 -0.011844846 -0.011084497
-0.0032478375 -0.009291215 0.009628848 0.004464279 -0.006925371 0.001031456 0.013028986 -0.003997416
0.007399676 0.0051194825 -0.012032081 -0.011681787 0.01246193 0.0061874418 0.0018162492 0.008076227
0.003899499 0.009123527 -0.0028970616 0.009294785 -0.0024518038 8.083581e-06 0.0069075157 6.9433054e-07
0.0025007427 -0.0025542635 -0.0042418204 -0.010928067 -0.008789657 0.009052298 -0.001242142 -0.0067251925
-0.009583529 -0.005418339 0.0051452103 0.005433475 0.013017196 -0.0077095716 0.0046613733 -0.009282642
-0.00095503137 0.009791878 -0.008808391 0.0013482538 -0.006779047 -0.00080198445 -0.013900451 -0.015838237
-0.013291162 0.0014430487 0.009540765 0.0040225284

model_1/dense_1/BiasAdd/ReadVariableOp f4 [3]
00000000: 1497 d2bb c1d0 743c 7a15 433d
-0.0064267013 0.014942349 0.047627904

model_1/dense/MatMul f4 [60, 2720]
00000000: f527 8b3c 392b 9c3c 7721 1e3d efb0 20bd
00000010: 2efa eebc 4b42 a03c d802 47bc 5500 3abc
00000020: a975 d538 0e8b 293d 4c4d a83c 6115 ee3b
00000030: b246 5cbc c9c7 3d3c b584 823b 2b16 1f3d
00000040: f83b f23c 46d4 833c dd84 f4bc 5b31 293d
00000050: 0b25 38bd bac1 3e3d 9711 0a3c 5cb8 e83a
00000060: cd78 a93b 3313 283d 2d03 85bc 5092 f7bc
00000070: 5e73 40bc 2f77 f5bc 93cd 0cbb 08e8 b5bc
00000080: 6904 1cbd 3bd9 ffbc e315 7e3b 0585 fdbb
00000090: 70b5 043d 5d97 4a3c 3af9 e9bc cb60 a93c
000000a0: ceb1 013d 569f 2cbd b834 dbbc 050d 7b3c
000000b0: 73c1 db3c ec70 2f3d dfc2 a5bc 33db 92bc
000000c0: 2257 d7ba 5982 133d df9d 2c3c a1aa 163d
000000d0: 9ba5 eebc 83d4 8fbc 0a69 01bd 85e0 a63c
000000e0: 6645 4f3c ca11 4bbc 5a03 00bd 3426 903c
000000f0: b605 e2bc da68 833c 2506 c9bc 79ba 5dbc
00000100: 6385 fabc 5901 eb3c 6acd 413b e5ec 163d
00000110: 5cc3 6dbc a029 b2bc 6231 a93c 67d1 23bc
00000120: 7580 c03c f555 f5bc 63f8 38bd 008d 33bd
00000130: f2ff f93c 6984 083d 8451 a4bc fd42 b73c
00000140: 6150 36bc 0706 043d 1b1c 883b f255 66bb
00000150: 23f9 7d3c 3afb 9f3b d2d8 f3bc e13f 15bd
00000160: 8fe2 c4bc 3f2f acbc a1d4 fa3c 55d9 fabc
00000170: fd11 7a3c 07fa 8dbc de67 05bd 1e1d debc
00000180: cf0b c43c 8017 a1bc 3267 1a3c f667 013d
00000190: a172 aebc 7cf0 38bd 4ef1 e0bc 484f 21bd
000001a0: 289b 803b 9488 2a3c 710d b43c d076 80bc
000001b0: 9f6b 41bc d45c 4fbc a17a 1a3d 52a4 263d
000001c0: e08d a63c 3c05 22bd 629f 18bd 61d3 27bd
000001d0: f9ae b53c 2cab 163d 3156 17bd 6618 a03c
000001e0: 0aba 203c 7750 30bd 92e8 d73c 6382 38bc
000001f0: 869b 1bbd 3b58 bfbc 5c53 b5bc 756a d3bb
00000200: 647a 033d 5f29 f43c f2f0 2dbd 3176 1a3d
00000210: 5e5c 283d 1aaf 8fbc 55ab 88bc 921e 833c
00000220: 85ed b23c 55db 153d 6127 763b 953d 063d
00000230: be9a 80bc 2d8a 773c 74ca 2a3c 0a7f 373d
00000240: bbec 17bd 3ba4 f03c 8a29 2c3d 30b8 85bb
00000250: 5af4 a8ba 8850 f0bc 81ac 593c 1fa6 2f3d
00000260: b50c 2c3d 314e 9cbc e964 063d f204 143d
00000270: 232f b03c 9963 d5bc 450d 24bd f35b 233d
00000280: 5f37 2dbd 3a61 30bb e781 f13c 4607 ccbc
00000290: a0a8 123d 2926 8b3c b504 cd3b 6466 30bb
000002a0: 61fc ecbc dda6 a4bc 4566 ad3c 7f74 b6bc
000002b0: e07f 133d ec22 ed3b 0d4a 1e3c 26e2 17bc
000002c0: 2f6f ea3c d7e7 d83c 1ab0 0d3d 921f 35bd
000002d0: c2b2 393c 3276 e4bc fcd7 edbc e947 033d
000002e0: ecb2 bd3b e04b e8bc 4ecf 2bbd 68f5 0bbd
000002f0: 777b 5d3c b595 21bd 910e 18bc 13e6 d6bc
00000300: b93b 11bd e7c9 123b 87e8 eb3c a2fd cd3c
00000310: 2699 ab3c b544 533c 75d5 193c c97b 1b3d
00000320: 1891 1f3d eb81 45bc b3d7 143d a95f 23bd
00000330: 880c 2dbd 4b9c 1f3d 9f02 323d f704 d9bc
00000340: f48c 343c 6580 643c 6630 983b a25f 34bd
00000350: a288 d33c 45cf a33a 670b ff3c da73 a9bc
00000360: ee3e 323c 0e3d a4bc ed2b 613c ecba 32bc
00000370: ae00 0b3d 64da 5bbc f526 db3c c21d ff3c
00000380: a814 003d fd1b ccbc deb5 c8bc 3d40 1bbd
00000390: a42e b83c 915a 1cbc d66f 1a3d 6468 923c
000003a0: db07 193d 0b9d 163c 0d52 f5bc 26a2 063d
000003b0: 6d35 433d da9f 1c3d 9c9d 33bd 71a2 1fbd
000003c0: 05e8 0e3d e85d 0f3c 25c5 c83b b485 26bc
000003d0: 1160 283d 2656 37bc b82e d8bc 8ec8 d7bc
000003e0: 3659 593c f819 9ebc ed57 133d 2786 8a3c
000003f0: 2138 c33c 0890 db3c dc6b adbb e4b4 2dbc
0.016986826 0.019063579 0.038606133 -0.039231237 -0.02917203 0.019562861 -0.012146674 -0.011352618
0.000101785474 0.04139238 0.02054467 0.007265732 -0.013444589 0.011583277 0.003983105 0.0388395
0.029569611 0.01609243 -0.02984851 0.041306835 -0.044957202 0.04657147 0.008427045 0.0017755139
0.0051718713 0.041033935 -0.016236866 -0.030221134 -0.011746256 -0.029964058 -0.0021484836 -0.022205368
-0.038090143 -0.031231513 0.003877037 -0.0077368044 0.032399595 0.012365189 -0.028561223 0.020676037
0.03166371 -0.042144142 -0.026758537 0.015322928 0.026825642 0.0428323 -0.020234523 -0.017926788
-0.0016429166 0.03601298 0.010535686 0.03678382 -0.029131701 -0.017557388 -0.031594314 0.020370731
0.012650823 -0.012394378 -0.031253196 0.017596342 -0.027590614 0.016041208 -0.024539063 -0.013533228
-0.030581182 0.028687166 0.00295719 0.036847014 -0.014511909 -0.021748364 0.02065343 -0.009998656
0.023498753 -0.029948214 -0.045158755 -0.04383564 0.030517552 0.0333294 -0.0200584 0.02237081
-0.011127562 0.03223231 0.004153741 -0.0035146442 0.015501293 0.0048822435 -0.029766474 -0.036437873
-0.024033813 -0.021018622 0.030618967 -0.03062121 0.015263078 -0.017331136 -0.03256976 -0.027113494
0.023931412 -0.019664526 0.009424018 0.031593286 -0.021294894 -0.04515122 -0.027458813 -0.03938225
0.003924746 0.010408539 0.021979066 -0.015681654 -0.011805444 -0.012656409 0.037714604 0.04068405
0.020331323 -0.039555773 -0.037261374 -0.04097307 0.02217816 0.036784336 -0.036947433 0.019542884
0.00980998 -0.043045487 0.026356015 -0.011261555 -0.037990116 -0.023357501 -0.022134475 -0.0064518997
0.032099143 0.029804884 -0.04246611 0.037710372 0.041103713 -0.01753955 -0.01668326 0.016005788
0.021841774 0.036586124 0.0037560093 0.032773573 -0.015698787 0.015108627 0.010424245 0.04479889
-0.037091 0.029375186 0.042031802 -0.0040807948 -0.0012890205 -0.029335275 0.013285757 0.042883035
0.042004306 -0.019080253 0.03281108 0.03613753 0.021506852 -0.026048468 -0.040051717 0.03988261
-0.042289134 -0.002691342 0.029480888 -0.024905812 0.035805345 0.01698597 0.0062566646 -0.0026916498
-0.028928937 -0.020099098 0.02116693 -0.022272347 0.036010623 0.007236829 0.00966121 -0.009270227
0.02861747 0.026477737 0.03459177 -0.04421956 0.011334123 -0.027888391 -0.029033653 0.032051
0.0057891514 -0.028356493 -0.041945748 -0.034169585 0.013518206 -0.039449412 -0.009280817 -0.026232755
-0.035457347 0.0022398175 0.028797401 0.025145356 0.02094705 0.012894799 0.009389271 0.037959848
0.03895673 -0.012054901 0.03633852 -0.03988615 -0.04224828 0.038967412 0.04345953 -0.026491625
0.011019934 0.013946627 0.0046444414 -0.044036515 0.025821988 0.0012497684 0.031133367 -0.020685125
0.010879261 -0.020048644 0.013743383 -0.010908823 0.033936195 -0.013418768 0.026751975 0.03114212
0.0312697 -0.02491569 -0.024500784 -0.03790306 0.022483177 -0.009543077 0.03770431 0.017872043
0.037361007 0.009192715 -0.029946351 0.03286948 0.047658373 0.038238384 -0.04385148 -0.038973276
0.03488924 0.008750416 0.006127017 -0.010163713 0.04110724 -0.011189973 -0.026389465 -0.02634075
0.013265898 -0.019299492 0.035972524 0.016909672 0.023830475 0.026802078 -0.005292399 -0.01060221

model_1/dense_1/MatMul f4 [3, 60]
00000000: 9731 45bd 7ab0 323e d852 5fbe 0d89 963e
00000010: 917c 8e3e e5f1 de3d 73c0 8d3e 3842 c2bc
00000020: 640f 243d 96a9 e93d f222 3f3c e40f 58bb
00000030: 1a4a 94bb bc6b 37bd dc44 8abd 6ade 20be
00000040: efe7 25be 86da b53c f5b2 5b3e 018e 84bc
00000050: 4cd7 353e 0284 f2bd 52a2 2bbe b984 8dbe
00000060: ef6e 37bd 33be 6dbe 74e2 3abe 114a 90be
00000070: 2e67 9d3e 04f3 86be f0de 12be 19f2 0fba
00000080: e609 7d3e 977d 373e ab5f 1b3e f9b5 7ebe
00000090: 5c00 eabd 682c 9d3e d75d 15be db59 08be
000000a0: 363e 93be cb97 e93c de35 8abe bee5 53bd
000000b0: 897b 973d 13d4 b9bd 1479 42bd d5af 6dbd
000000c0: d896 91bc e5d8 303e a52f 033e a2bf 97be
000000d0: 2c57 f03d e772 8d3e 37fe 05be 7121 2c3e
000000e0: eb5c 90bc 5057 37be 7ca7 32be 3f6c 95be
000000f0: 73d9 7d3e 2b22 e23d c919 14be 52b3 4f3e
00000100: 3776 88bd 4332 92bd 7fcb b4bd f3af 81bd
00000110: 0a54 e83d 806f 99be f35e a13d 0411 f2bd
00000120: ea74 69be ff09 e2bc d0e0 4e3d faea d73d
00000130: ffea c13d 228d 2fbe 1a1b ba3d b39b 0abe
00000140: c71b 1a3e 49fa 443e d9ad 43be eac0 a1bd
00000150: 386a 6c3e a79f 60be 9864 30bc 1a65 9f3d
00000160: 994b 37be 36f6 303d de39 0b3e 2f7c 42bd
00000170: b010 94be dc50 0fbe f9c8 143e 90e6 85bd
00000180: 31a1 95be 9e31 5d3e 29ec 15be 0d09 18be
00000190: 9e4f 993d f512 81bd 3573 82bc a25f eebd
000001a0: afa7 b13d 8eab 993d 4c3e 983e 9ecf efbc
000001b0: dd34 7abc 48ec 44be af02 673e fca9 883e
000001c0: 910a 1a3e 5a81 1b3e a263 94be 0e62 51be
000001d0: ed90 49be a7b9 88be bca8 5e3c 3ca0 11be
000001e0: eb69 8f3e 8402 9e3e 0a39 233e a13e 2ebd
000001f0: 29bf 8b3e 9944 bebd fdc2 61be 45e7 8ebe
00000200: e2d7 d1bd 4785 b7bd e872 523e 628b 083e
00000210: 6de1 dabd 8aca e03c b427 813e 7d43 0cbe
00000220: 130e e03d fbfe 253e c98d 92be be06 52be
00000230: 8ac5 973e e71b 5e3d 56bf 4d3d 6b0e 573e
00000240: eb2f a73c 5f11 7a3e 60a8 cbbd 73df 163e
00000250: 501c 313d 302f 7bbd a934 de3d ba0e 863c
00000260: 810b 3c3e 5771 213c cbe4 17be 2596 94be
00000270: 6aea 05be 4346 6b3e 2c3c 2b3a 5c07 07be
00000280: b938 88be c896 f7bd 3f3c c33d ac9f 253e
00000290: 4ba5 983e 05aa 4dbe 2549 293a 8e50 46be
000002a0: b9b7 a5bc 7ae0 983e c0c1 8bbe 3687 cbbd
000002b0: 4269 36be a8ce bebc 4148 93be 31ae 90be
000002c0: 553e 6abe b0f0 cd3d 1239 3a3e b7e5 c23d
-0.048142996 0.17450133 -0.21808946 0.29401436 0.27829412 0.108859815 0.2768589 -0.023713216
0.04005374 0.11409299 0.011666046 -0.0032968456 -0.004525435 -0.044780478 -0.06751415 -0.15709844
-0.16201757 0.022198927 0.21454985 -0.016180994 0.1775791 -0.11841585 -0.16761139 -0.27640322
-0.04478353 -0.23217086 -0.18250448 -0.28181508 0.30742782 -0.2635728 -0.14342856 -0.00054910925
0.24710807 0.17919002 0.15173213 -0.24874105 -0.1142585 0.30697942 -0.14586578 -0.13315527
-0.287584 0.028514763 -0.26994222 -0.05173277 0.07396609 -0.09073653 -0.04747875 -0.058029015
-0.017772123 0.17270239 0.12811144 -0.29638392 0.11735377 0.27626726 -0.13085257 0.16809632
-0.017622432 -0.17904401 -0.17446703 -0.29184148 0.24789982 0.11041673 -0.14462961 0.20283249
-0.06663173 -0.07138493 -0.08827876 -0.06332388 0.11344154 -0.2996788 0.07879438 -0.11819652
-0.22798505 -0.027592657 0.050507367 0.10542865 0.0946865 -0.17143682 0.090872005 -0.13535957
0.15049659 0.19236101 -0.19109286 -0.078981236 0.23087394 -0.21935903 -0.010766171 0.077829555
-0.17899932 0.043203555 0.13596293 -0.047481712 -0.28918982 -0.13995689 0.1452979 -0.06538117
-0.29224542 0.21600959 -0.14640869 -0.14847203 0.07485889 -0.06302444 -0.015924076 -0.11639334
0.08674561 0.075034246 0.2973503 -0.029273804 -0.015271393 -0.19230759 0.22559617 0.26692188
0.15043093 0.15186062 -0.28982264 -0.20447561 -0.19684191 -0.26704141 0.013590034 -0.14221281
0.28010496 0.30861294 0.15939727 -0.042540196 0.2729428 -0.09290428 -0.22047038 -0.2791082
-0.102462545 -0.089609675 0.20551646 0.1333442 -0.10687528 0.027440328 0.25225604 -0.1369762
0.109401844 0.16210549 -0.28623798 -0.20510384 0.29642898 0.05422583 0.0502313 0.21001594
0.020408591 0.24420689 -0.09944224 0.14733677 0.04323989 -0.0613243 0.10849888 0.016364444
0.18363763 0.0098536825 -0.14833371 -0.290208 -0.13077703 0.22976021 0.00065320986 -0.13186401
-0.26605776 -0.12089306 0.095329754 0.16174191 0.2981361 -0.20084389 0.0006457738 -0.19366667
-0.020229207 0.29858762 -0.27296257 -0.09937899 -0.1781359 -0.0232919 -0.28766063 -0.28257897
-0.2287534 0.10055673 0.18185833 0.09516471
