firebase_ml_model.tflite (tflite, 141276 bytes, 8 tensors)

model_1/conv2d/BiasAdd/ReadVariableOp f4 [32]
-0.0011747725 0.011291031 0.00709047 0.0169296 0.013668487 -0.024221499 0.015710207 0.016843727
-0.004019321 -0.0031696886 0.005076622 0.030206013 -0.005710421 0.0007051806 0.0064505725 0.07208318
0.0022265816 0.016167466 -0.010208454 -0.0009080953 0.063208036 0.0024176526 0.037747495 0.01092897
-0.010348383 0.05252587 -0.004199545 -0.0014945391 0.005778916 0.0008115916 -0.004955074 0.018343186
00000000: d3fa 99ba 04fe 383c 2c57 e83b f2af 8a3c
00000010: caf1 5f3c 2a6c c6bc b1b2 803c dbfb 893c
00000020: 82b4 83bb 8dba 4fbb cb59 a63b 9a72 f73c
00000030: 7c1e bbbb dedb 383a 535f d33b 59a0 933d
00000040: d7eb 113b a271 843c 5c41 27bc 3e0d 6eba
00000050: 3773 813d 7b71 1e3b 1e9d 1a3d 6c0f 333c
00000060: 448c 29bc 5e25 573d 569c 89bb 69e4 c3ba
00000070: 105d bd3b fec0 543a 2c5e a2bb 7344 963c

model_1/conv2d_1/BiasAdd/ReadVariableOp f4 [16]
0.0020234408 0.080865644 0.05934631 0.022707034 0.023512661 0.023927437 0.007457572 -0.025702223
-0.0023220654 0.05840817 -0.0016128701 0.059945077 0.052762352 0.038216606 0.049724497 -0.017796041
00000000: b49b 043b e39c a53d 1e15 733d 1a04 ba3c
00000010: a09d c03c 7903 c43c a65e f43b 788d d2bc
00000020: cb2d 18bb 683d 6f3d f166 d3ba f888 753d
00000030: 561d 583d 0489 1c3d eaab 4b3d 01c9 91bc

model_1/conv2d/Conv2D f4 [32, 5, 5, 1]
0.027860519 -0.066599265 -0.06586846 0.041842546 0.033854418 -0.040857535 0.010229775 0.018118236
-0.04592366 -0.014215577 0.022470241 0.030836454 0.013951084 0.026329022 0.0066329837 0.01990775
0.030032996 -0.01803389 0.004403378 0.00426769 0.03508031 -0.05733466 -0.023652166 0.021950508
0.06596628 -0.041307345 0.026001725 0.08185304 0.063796 -0.08261911 0.06299795 -0.08032909
-0.026496176 0.022229536 0.0069373543 -0.07103239 -0.03813986 0.07096809 -0.062052384 -5.5797464e-05
0.0022390054 0.057060458 0.031374883 -0.06101637 -0.0597172 -0.023419626 0.07697717 -0.07033656
0.0020183597 0.0122734755 0.06471502 0.07522006 -0.03294175 0.013514548 0.07383464 -0.07749395
-0.013180025 -0.034451418 0.02536779 -0.06477685 -0.07966531 -0.047426358 -0.08417679 0.0061387443
-0.08080916 -0.05639744 -0.0077545224 0.00040072072 0.013499821 -0.045433577 0.05916718 0.030742152
-0.074962825 0.035518173 0.07880658 0.04693798 -0.031932842 -0.061375264 0.0521247 0.051398847
-0.029118396 0.0731657 -0.026442364 0.02788609 0.07324152 0.0628956 -0.06993789 -0.06441209
-0.08023478 0.07649505 -0.009740001 0.047684178 0.027054671 -0.08230743 -0.07426818 0.006231717
-0.07617507 0.042205047 -0.021991504 0.020444531 -0.05443585 0.06289347 0.035764176 -0.046738345
0.04742598 0.060345277 0.022749076 -0.017693898 -0.0625875 0.035243507 0.045389123 -0.08502325
-0.059820212 -0.013729992 -0.069203146 0.016549878 -0.04977565 -0.0462203 0.07572627 0.08383192
-0.0048173727 -0.07689418 0.042071775 0.009042708 0.003187234 0.044481326 -0.018777158 0.034448817
-0.06777355 -0.008270523 -0.066668235 0.060658153 -0.02264949 0.008343646 -0.049486794 0.041710023
0.05944408 0.06349653 0.05631764 -0.016910052 0.0026686618 -0.06037824 0.057431865 -0.07468036
0.066584155 0.009637 -0.0833795 -0.047956023 -0.05357631 -0.07562209 0.059296116 0.05816805
-0.08222995 -0.0605518 0.07521631 -0.068421796 -0.03429215 0.08251593 -0.054972086 0.04601315
-0.045223016 0.03347876 -0.062080204 0.029448615 -0.04537877 0.07148426 0.029732203 -0.047267597
0.039374404 0.031952452 -0.007064579 0.07109569 0.052817214 -0.025195114 -0.06898771 -0.03190601
-0.00017015438 -0.02413075 -0.002315701 -0.017096195 -0.039566386 -0.05400379 -0.03304327 -0.06251463
-0.07619546 -0.016847875 -0.0052787927 -0.0017427434 0.048842557 0.08627668 0.084906876 0.043139894
0.029089741 0.07632075 0.07216645 -0.045427162 -0.04505282 -0.013981709 -0.07147221 -0.0024534196
-0.078018025 0.019783529 -0.08910647 0.05748589 -0.037056327 0.07285808 0.015604842 -0.0073532946
-0.053642042 -0.043620855 -0.057777222 0.06778687 -0.04551734 0.0264992 -0.065128125 -0.00436791
-0.090490125 -0.079501554 -0.06805151 -0.05758701 -0.0083137285 0.061166037 0.0099901 0.0674605
0.030894978 -0.02023606 -0.08498613 0.013609072 0.06200981 0.025810897 -0.080764234 0.034156915
-0.054289594 0.013234126 -0.013088631 0.05758603 -0.057885848 0.0760811 0.050095677 0.06483188
-0.07805994 -0.0702633 -0.05801828 -0.060793165 -0.03626436 0.0470966 0.012195023 -0.05702664
-0.058473036 -0.007593045 -0.016364757 0.00064336957 0.046435513 -0.087882705 -0.059351277 0.005049298
00000000: be3b e43c 3265 88bd 0be6 86bd 1763 2b3d
00000010: eeaa 0a3d 3b5a 27bd c99a 273c b26c 943c
00000020: 731a 3cbd 74e8 68bc 8313 b83c bb9c fc3c
00000030: 1693 643c f6af d73c 8059 d93b 9415 a33c
00000040: c207 f63c cfbb 93bc 364a 903b fad7 8b3b
00000050: 5fb0 0f3d c0d7 6abd 30c2 c1bc 8dd1 b33c
00000060: 5419 873d e431 29bd 9201 d53c 91a2 a73d
00000070: 7aa7 823d 3534 a9bd 1205 813d 9483 a4bd
00000080: 820e d9bc b71a b63c bf52 e33b 6e79 91bd
00000090: 8b38 1cbd b857 913d a42a 7ebd 1208 6ab8
000000a0: 47bc 123b 3ab8 693d f382 003d 4dec 79bd
000000b0: 069a 74bd 84da bfbc 35a6 9d3d 9d0c 90bd
000000c0: 7546 043b b016 493c 4f89 843d fa0c 9a3d
000000d0: eeed 06bd 1f6c 5d3c 9e36 973d 26b5 9ebd
000000e0: 08f1 57bc ee1c 0dbd 1dd0 cf3c baa9 84bd
000000f0: 9127 a3bd 2442 42bd e264 acbd 8527 c93b
00000100: 467f a5bd 0101 67bd a619 febb d317 d239
00000110: 5a2e 5d3c 8f18 3abd 4959 723d f7d6 fb3c
00000120: 1c86 99bd 817b 113d 5865 a13d 0a42 403d
00000130: 03cc 02bd a164 7bbd b680 553d 9987 523d
00000140: b489 eebc e6d7 953d a89d d8bc 5f71 e43c
00000150: a6ff 953d 69cf 803d 993b 8fbd 7cea 83bd
00000160: 2252 a4bd 70a9 9c3d 8694 1fbc 7c50 433d
00000170: c2a1 dd3c cc90 a8bd ea19 98bd 6e33 cc3b
00000180: ad01 9cbd 33df 2c3d 8727 b4bc 4a7b a73c
00000190: 20f8 5ebd 4bce 803d 757d 123d b570 3fbd
000001a0: bf41 423d 9c2c 773d 455c ba3c cbf2 90bc
000001b0: e02d 80bd 7f5b 103d f2e9 393d ab20 aebd
000001c0: 0a06 75bd c3f3 60bc 61ba 8dbd 9c93 873c
000001d0: 8de1 4bbd 7f51 3dbd 6016 9b3d 12b0 ab3d
000001e0: 0ddb 9dbb b27a 9dbd 7453 2c3d de27 143c
000001f0: eae0 503b 0d32 363d 8ed2 99bc 341a 0d3d
00000200: dccc 8abd 1681 07bc 5b89 88bd af74 783d
00000210: 6c8b b9bc cab3 083c aab2 4abd 21d8 2a3d
00000220: a37b 733d 780a 823d 53ad 663d f386 8abc
00000230: b7e4 2e3b 2c4f 77bd ad3d 6b3d 04f2 98bd
00000240: 465d 883d 82e4 1d3c dfc2 aabd 896d 44bd
00000250: d572 5bbd c1df 9abd 7ce0 723d 9f41 6e3d
00000260: 2d68 a8bd 2a05 78bd 020b 9a3d ba20 8cbd
00000270: ed75 0cbd 1dfe a83d 692a 61bd 4978 3c3d
00000280: c53b 39bd 0621 093d d047 7ebd 393e f13c
00000290: 17df 39bd 5766 923d f390 f33c ab9b 41bd
000002a0: 0e47 213d 93e0 023d fc7d e7bb 9e9a 913d
000002b0: dd56 583d fc65 cebc 6e49 8dbd e0af 02bd
000002c0: 786b 32b9 daad c5bc 04c3 17bb 520d 8cbc
000002d0: 5d10 22bd 1433 5dbd 6158 07bd ac07 80bd
000002e0: 5e0c 9cbd 8e04 8abc b9f9 acbb c46c e4ba
000002f0: 220f 483d d4b1 b03d a8e3 ad3d 75b3 303d
00000300: 9c4d ee3c 0e4e 9c3d 01cc 933d d511 3abd
00000310: 4e89 38bd 8a13 65bc 0660 92bd 8dc9 20bb
00000320: eac7 9fbd 1111 a23c 747d b6bd 5376 6b3d
00000330: 60c8 17bd 9e36 953d 74ab 7f3c e8f3 f0bb
00000340: c2b7 5bbd c8ab 32bd cfa7 6cbd d8d3 8a3d
00000350: 6470 3abd da14 d93c e561 85bd af20 8fbb
00000360: e352 b9bd b6d1 a2bd 975e 8bbd 5be0 6bbd
00000370: 4e36 08bc 3d89 7a3d 84ad 233c bb28 8a3d
00000380: 7717 fd3c 18c6 a5bc 350d aebd 96f8 5e3c
00000390: 00fe 7d3d 6071 d33c b867 a5bd 1fe8 0b3d
000003a0: c45e 5ebd f3d3 583c b371 56bc 54df 6b3d
000003b0: b619 6dbd 68d0 9b3d 2031 4d3d 94c6 843d
000003c0: e4dd 9fbd 34e6 8fbd 93a4 6dbd 4102 79bd
000003d0: f089 14bd 5de8 403d a2cd 473c c494 69bd
000003e0: 6c81 6fbd 14cf f8bb 620f 86bc cda7 283a
000003f0: 2a33 3e3d d9fb b3bd 531a 73bd 9574 a53b

model_1/conv2d_1/Conv2D f4 [16, 3, 3, 32]
-0.050908998 -0.10809057 -0.05180887 -0.021024454 -0.050534572 -0.031208577 0.090507284 -0.03348698
-0.05172533 -0.111036845 -0.06210772 0.04381135 0.026477516 0.090491995 -0.11617959 -0.056679424
0.002058376 0.042944685 -0.0709879 0.098265775 -0.015746828 0.11736979 -0.026443072 0.04599745
0.04098041 0.10384839 0.103596635 -0.087782376 -0.025910743 0.06356699 0.09903748 0.117027596
0.05858979 0.08959557 -0.025924604 -0.010794665 0.00403412 -0.10690507 -0.08230957 -0.02131537
-0.10332837 -0.007177747 0.114549085 0.054336272 0.03437105 -0.0068047964 0.06511484 -0.07241256
-0.054809842 -0.06740498 0.06552326 0.00930425 -0.034463085 -0.041587178 -0.07957648 -0.030998105
-0.11727581 0.02776304 -0.025452785 0.0273986 -0.107343726 0.08291812 -0.052545596 0.0694589
0.07284233 0.06855028 -0.10771617 -0.09989056 0.0902338 0.032137357 0.07787792 0.011702706
0.05729343 0.10644702 -0.109337196 -0.102643825 -0.04309946 0.07480596 0.008299884 0.010538137
-0.028913544 -0.080757886 0.010243535 -0.11602189 -0.063682586 -0.064589836 -0.028580854 0.114970066
-0.109183066 -0.018886067 0.06606593 0.091669224 0.008833667 -0.11628859 -0.06290094 0.00479718
0.11148293 0.019711023 -0.066832274 -0.037071507 0.07726407 -0.05907551 -0.055305038 -0.07565104
-0.036500227 -0.034206625 0.026836019 0.040586125 -0.010182411 -0.03995737 0.08734036 -0.0819994
0.036736652 0.0010442159 -0.009225709 0.07296851 0.0014806591 -0.111398846 -0.038535893 0.07020884
0.06676968 -0.051939256 -0.041262675 0.055036966 0.069939114 -0.05723109 -0.013737007 0.02801289
-0.040724397 0.0011087932 0.057110135 -0.00011893178 0.05723517 -0.057873372 -0.0993365 -0.08675023
0.08463967 0.05129462 0.06255231 0.11277366 -0.002809202 -0.0666567 0.09453591 0.09372753
0.1091878 0.047760658 -0.07655986 0.10862434 -0.096967384 -0.06671301 -0.101138055 -0.103374995
-0.11451728 0.116126165 -0.035552043 -0.07811561 0.109218895 0.08477187 0.09369488 0.070796184
0.020317106 0.0059987092 -0.1007798 -0.02369837 0.10743154 -0.018366368 -0.09000102 0.0004890616
-0.055532984 0.07288643 -0.10348763 -0.033560924 0.079830475 0.097108886 -0.01441958 0.08264493
-0.057686213 -0.051998593 0.025451012 0.077580765 0.070974946 0.082663484 0.0135705285 0.034961857
0.09364969 -0.03752902 -0.014313367 -0.09913936 0.011624928 -0.08279319 0.039047766 0.055124775
0.0339673 0.056192547 0.0015771589 -0.036257926 0.043674797 -0.07624165 -0.11113172 0.0013764704
0.10113391 -0.0050748573 -0.033392534 0.03440194 -0.06597939 0.04618002 -0.027280163 0.02639296
0.0045748274 -0.043358892 -0.01938904 -0.103363216 -0.079028375 -0.053298924 -0.05070734 -0.0022928335
-0.005010084 -0.11698747 -0.07082746 -0.006431144 0.10281096 0.018001672 -0.08691734 -0.014830358
0.06506848 0.06230503 -0.02040827 -0.055437382 -0.10511261 0.013153358 -0.01733019 -0.036606938
-0.10460667 -0.06620485 0.06381623 -0.10720492 0.029093742 0.017961876 0.08203482 -0.09429962
-0.10383835 0.113191135 -0.021136653 -0.07743404 0.049787194 0.08083422 0.05628348 0.07063561
-0.05813935 0.047310185 -0.04274137 0.028921915 -0.0072886185 0.08207086 -0.019950839 -0.069539316
00000000: f485 50bd 975e ddbd 8a35 54bd 7a3b acbc
00000010: 57fd 4ebd 21a9 ffbc e25b b93d a529 09bd
00000020: f1dd 53bd 4967 e3bd aa64 7ebd 8873 333d
00000030: 60e7 d83c de53 b93d 91ef edbd af28 68bd
00000040: d2e5 063b c4e6 2f3d 1b62 91bd 913f c93d
00000050: 7eff 80bc 935f f03d 249f d8bc d267 3c3d
00000060: 13db 273d 77ae d43d 792a d43d 3fc7 b3bd
00000070: c442 d4bc 692f 823d 2ad4 ca3d 2aac ef3d
00000080: d9fb 6f3d e27d b73d d65f d4bc 1bdc 30bc
00000090: a730 843b 0cf1 dabd eb91 a8bd 929d aebc
000000a0: d39d d3bd 4e33 ebbb b698 ea3d b68f 5e3d
000000b0: a8c8 0c3d c5fa debb ee5a 853d 094d 94bd
000000c0: 4980 60bd 9f0b 8abd 0f31 863d da70 183c
000000d0: 2a29 0dbd 5157 2abd fef8 a2bd bdef fdbc
000000e0: 4d2e f0bd 516f e33c 5c82 d0bc 0773 e03c
000000f0: 07d7 dbbd fad0 a93d 0d3a 57bd 7840 8e3d
00000100: 5c2e 953d 1764 8c3d 4c9a dcbd 6c93 ccbd
00000110: 80cc b83d 76a2 033d 757e 9f3d b5bc 3f3c
00000120: 84ac 6a3d e500 da3d 2eec dfbd ed36 d2bd
00000130: 0f89 30bd de33 993d 3dfc 073c 26a8 2c3c
00000140: 19dc ecbc 6464 a5bd 80d4 273c e29c edbd
00000150: 046c 82bd ad47 84bd 6522 eabc 6d75 eb3d
00000160: 5f9b dfbd f4b6 9abc 934d 873d 13bd bb3d
00000170: 16bb 103c b628 eebd 35d2 80bd aa31 9d3b
00000180: 2a51 e43d 0379 a13c 5cdf 88bd 4bd8 17bd
00000190: a03c 9e3d 29f9 71bd 8987 62bd efee 9abd
000001a0: 4381 15bd 3f1c 0cbd 36d7 db3c a33d 263d
000001b0: 21d4 26bc 57aa 23bd 81df b23d 4def a7bd
000001c0: 2c79 163d 12de 883a 6e27 17bc 8470 953d
000001d0: ad12 c23a 1425 e4bd d0d7 1dbd a7c9 8f3d
000001e0: 8bbe 883d 42be 54bd 0d03 29bd 716e 613d
000001f0: 3d3c 8f3d 266b 6abd 2f11 61bc 4a7b e53c
00000200: a0ce 26bd ed54 913a 51ec 693d 036b f9b8
00000210: 6d6f 6a3d a10c 6dbd ef70 cbbd 1baa b1bd
00000220: 9057 ad3d 4f1a 523d 6d1b 803d e0f5 e63d
00000230: 971a 38bb 4f83 88bd 0b9c c13d 38f4 bf3d
00000240: da9d df3d aea0 433d 6acb 9cbd 7076 de3d
00000250: d696 c6bd d5a0 88bd 7821 cfbd 45b6 d3bd
00000260: 0988 eabd 8ed3 ed3d 059f 11bd 14fb 9fbd
00000270: 28ae df3d e09c ad3d 1ae3 bf3d 97fd 903d
00000280: 0f70 a63c d290 c43b a465 cebd 1623 c2bc
00000290: 1105 dc3d 1175 96bc 7452 b8bd 5e34 003a
000002a0: 8e76 63bd 7b45 953d 53f1 d3bd 2e77 09bd
000002b0: 297e a33d 06e1 c63d 1a40 6cbc bf41 a93d
000002c0: 6148 6cbd 7afc 54bd a47e d03c aae2 9e3d
000002d0: 505b 913d 794b a93d ec56 5e3c 2a34 0f3d
000002e0: 69cb bf3d 08b8 19bd 9d82 6abc 9409 cbbd
000002f0: 7b76 3e3c 7a8f a9bd 8df0 1f3d 84ca 613d
00000300: 4c21 0b3d 282a 663d acb8 ce3a 3183 14bd
00000310: 58e4 323d 9524 9cbd 0799 e3bd af6a b43a
00000320: 4c1f cf3d fd4a a6bb 9cc6 08bd 0ce9 0c3d
00000330: 3420 87bd 4327 3d3d a67a dfbc 0d36 d83c
00000340: 6fe8 953b 1899 31bd c4d5 9ebc 18b0 d3bd
00000350: a1d9 a1bd f94f 5abd 80b2 4fbd 5d43 16bb
00000360: a12b a4bb 2097 efbd fd0d 91bd 59bc d2bb
00000370: 8d8e d23d 3e78 933c b801 b2bd 08fb 72bc
00000380: a042 853d 8f33 7f3d 3f2f a7bc 4f12 63bd
00000390: 4845 d7bd 2f81 573c 0bf8 8dbc 28f1 15bd
000003a0: 063c d6bd 6996 87bd 15b2 823d 418e dbbd
000003b0: 0056 ee3c c924 933c df01 a83d 2920 c1bd
000003c0: 33a9 d4bd c1d0 e73d c626 adbc bd95 9ebd
000003d0: a8ed 4b3d 698c a53d 8289 663d 67a9 903d
000003e0: 8723 6ebd 53c8 413d 9311 2fbd a7ed ec3c
000003f0: 5dd5 eebb c414 a83d f16f a3bc a16a 8ebd

model_1/dense/BiasAdd/ReadVariableOp f4 [60]
0.019463394 0.019164925 -0.03378381 0.005226718 -0.02129072 0.004653093 -0.012934575 0.011833801
0.01160199 0.0051503377 -0.005288153 0.0066716173 0.034999594 0.03888794 -0.0034254862 -0.021286093
-0.00010402713 0.0160146 0.016474264 -0.006305945 -0.014932911 0.012744031 0.04615509 0.038247943
0.0031266194 -0.007593407 -0.0074564554 -0.019759733 0.036450308 -0.017760126 -0.006142115 0.033150565
0.01906263 0.007628506 -0.026237905 -0.034958005 0.008162226 0.005500152 -0.023992367 0.01173545
0.025971018 -0.013634332 -0.03406317 -0.018639099 -0.016595986 0.012330027 0.004432849 -0.027873278
-0.005538614 0.005236659 0.018762477 -0.018740635 0.02946364 0.0019141103 -0.025146967 0.010634437
-0.0026085547 -0.02940247 -0.033384494 -0.0037533918
00000000: b271 9f3c c3ff 9c3c e460 0abd e344 ab3b
00000010: e069 aebc f978 983b 8aeb 53bc 8fe2 413c
00000020: 4616 3e3c 2ac4 a83b 3e48 adbb 959d da3b
00000030: bc5b 0f3d f648 1f3d 1f7e 60bb 2c60 aebc
00000040: 2429 dab8 0d31 833c 09f5 863c 1aa2 cebb
00000050: 2ba9 74bc 57cc 503c 1f0d 3d3d e0a9 1c3d
00000060: f8e7 4c3b 1dd2 f8bb 4855 f4bb 2adf a1bc
00000070: eb4c 153d af7d 91bc cc43 c9bb e3c8 073d
00000080: 3c29 9c3c 8cf8 f93b e0f0 d6bc 2030 0fbd
00000090: dbba 053c 9e3a b43b a48b c4bc 0b46 403c
000000a0: 2cc1 d43c 8962 5fbc d385 0bbd 06b1 98bc
000000b0: 4ef4 87bc e203 4a3c 6f41 913b 8056 e4bc
000000c0: 437d b5bb 4898 ab3b c4b3 993c f685 99bc
000000d0: bb5d f13c e2e2 fa3a 0301 cebc 103c 2e3c
000000e0: 49f4 2abb 73dd f0bc 2ebe 08bd 77fb 75bb

model_1/dense_1/BiasAdd/ReadVariableOp f4 [4]
0.0025294558 0.050856475 0.08388915 0.06753325
00000000: 3ac5 253b e14e 503d 13ce ab3d df4e 8a3d

model_1/dense/MatMul f4 [60, 480]
-0.06642949 -0.041319344 -0.0001981835 0.09613801 -0.0089390725 0.059778444 0.041272197 0.07768554
-0.09180119 0.049922425 -0.0687831 -0.0049234945 0.08270458 0.025810832 0.010922032 -0.053478032
-0.04620222 0.09290397 -0.02940686 -0.027603483 0.059348922 0.075183995 0.06342876 -0.027638467
0.09600169 -0.055526983 0.07778418 -0.03026307 0.046765767 -0.036226213 -0.007462851 0.07521473
-0.009477288 0.054871332 0.027248772 -0.035909176 0.04236197 0.030689796 0.050734524 -0.034358997
0.090069115 -0.030238427 -0.07010549 -0.09538774 0.019455696 0.102509595 -0.10097369 0.050299037
-0.10423283 -0.09865264 -0.039839856 0.039700758 0.023134192 -0.0099272635 0.030348832 0.02897583
-0.02407902 0.10558276 0.0034562142 -0.0541735 0.025747716 0.070507705 -0.018504627 -0.023117376
-0.0021116734 -0.057578515 -0.0948072 -0.0648411 -0.08388329 0.09705676 -0.05899786 0.037235092
-0.061990358 -0.01815349 -0.033091515 -0.015030207 0.06616481 0.07631381 0.044617917 -0.06459636
0.06474916 0.0060859243 0.0849841 -0.05762642 0.022582201 -0.07040855 0.07597025 0.05551663
-0.040404666 -0.06954334 0.0645739 0.030036608 0.020880217 0.10159995 0.07739538 -0.09073779
-0.033763602 -0.04703633 -0.093764484 0.06456466 -0.05640275 -0.09401122 0.046113852 0.09866315
-0.078166194 -0.02795038 -0.053615462 -0.09985642 0.019299066 0.01250813 -0.091362946 0.051702067
-0.032192495 -0.0060214587 0.099976726 0.0060655186 0.10057694 0.020243987 -0.073525004 0.07020323
-0.04958715 0.077991 0.10463773 -0.09185789 0.07778407 -0.09465746 -0.09376524 -0.06609026
0.032276127 0.0031339852 0.01967744 -0.10309175 -0.012204111 0.0593507 -0.1039648 -0.10446333
-0.07311569 -0.073084414 -0.08304392 -0.09661796 -0.013992753 -0.071148716 -0.058039196 0.038793795
0.06621174 0.028954595 -0.06728935 -0.0035834198 -0.060834117 0.055468343 -0.02182271 -0.029591314
0.08232883 0.03617032 -0.009077494 -0.088681154 -0.01872333 0.04650046 0.07483661 -0.06507679
-0.039251234 -0.0073309923 0.007214828 -0.018477093 0.076919176 -0.08926201 -0.06402026 -0.030425642
0.004619595 0.048755813 -0.06494662 -0.06873863 0.030958725 0.06442214 0.017172039 -0.030984454
-0.07821464 0.04509975 -0.020777289 0.087175146 0.0019779198 0.090628825 0.03504854 -0.03423648
-0.0197435 -0.043741852 -0.05310018 -0.027689133 -0.09430726 -0.08819855 0.0441949 -0.04864562
-0.015978273 -0.08241447 -0.068325885 -0.013372855 -0.0945524 0.038724758 -0.085485235 0.0003935923
-0.0794619 0.09866577 -0.071144976 -0.03543441 0.04950433 -0.054911878 -0.067018434 0.056407914
-0.060585115 0.052196097 -0.066315085 0.058016054 -0.031059988 -0.06307485 -0.02983126 -0.0024683303
0.03299042 -0.07742375 -0.014611989 -0.01954146 -0.09069011 -0.029530788 0.10230119 -0.08060821
-0.07748697 -0.101467475 -0.019728415 -0.0439567 -0.023700232 0.04435645 -0.09560396 -0.017505823
0.057864096 0.08137453 0.050436206 -0.050830062 -0.04206292 -0.012823363 0.051588688 0.08029986
-0.023694564 0.016564585 0.097841695 0.029796846 0.06281999 0.06287133 0.01748449 0.009082429
-0.06320911 -0.010151789 -0.024619984 0.08584889 0.06706674 -0.036546014 0.047672756 0.015465693
00000000: 2f0c 88bd 793e 29bd 7acf 4fb9 01e4 c43d
00000010: 3075 12bc 3eda 743d 090d 293d 9919 9f3d
00000020: 4302 bcbd 757b 4c3d 27de 8cbd 4455 a1bb
00000030: 0561 a93d 3d71 d33c 53f2 323c c80b 5bbd
00000040: 8a3e 3dbd 7044 be3d a8e6 f0bc b320 e2bc
00000050: db17 733d 11fa 993d f0e6 813d 116a e2bc
00000060: 899c c43d 4370 63bd 504d 9f3d 42ea f7bc
00000070: 768d 3f3d f061 14bd ee8a f4bb 2e0a 9a3d
00000080: a146 1bbc c3c0 603d d138 df3c 8015 13bd
00000090: bf83 2d3d 2b69 fb3c 01cf 4f3d 05bc 0cbd
000000a0: 2876 b83d 94b6 f7bc 7893 8fbd a65a c3bd
000000b0: 8d61 9f3c 8df0 d13d 4bcb cebd 5d06 4e3d
000000c0: 0678 d5bd 650a cabd 1e2f 23bd 439d 223d
000000d0: eb83 bd3c f6a5 22bc 1d9e f83c b85e ed3c
000000e0: 5d41 c5bc c63b d83d a781 623b 08e5 5dbd
000000f0: e0ec d23c 5866 903d 0497 97bc a760 bdbc
00000100: 0064 0abb 73d7 6bbd 472a c2bd 69cb 84bd
00000110: 01cb abbd b2c5 c63d bda7 71bd d383 183d
00000120: 9ae9 7dbd a1b6 94bc f88a 07bd 4241 76bc
00000130: 6a81 873d 6a4a 9c3d 47c1 363d 194b 84bd
00000140: 359b 843d 6f6c c73b 250c ae3d ae09 6cbd
00000150: 4ffe b83c 5c32 90bd 4a96 9b3d 6865 633d
00000160: 5d7f 25bd bd6c 8ebd 523f 843d 550f f63c
00000170: fd0c ab3c a213 d03d 7881 9e3d bcd4 b9bd
00000180: b44b 0abd 2ba9 40bd 9807 c0bd 7a3a 843d
00000190: 9206 67bd f488 c0bd e1e1 3c3d e80f ca3d
000001a0: 9915 a0bd 32f8 e4bc e39b 5bbd 8681 ccbd
000001b0: 1319 9e3c e6ee 4c3c 7f1c bbbd 8cc5 533d
000001c0: 47dc 03bd a84f c5bb 99c0 cc3d 42c1 c63b
000001d0: 48fb cd3d b8d6 a53c 4794 96bd b6c6 8f3d
000001e0: e51b 4bbd bfb9 9f3d 4e4c d63d fd1f bcbd
000001f0: 414d 9f3d c5db c1bd fd07 c0bd 555a 87bd
00000200: f933 043d 8c63 4d3b 9532 a13c c421 d3bd
00000210: c0f3 47bc b819 733d 7feb d4bd dff0 d5bd
00000220: aebd 95bd 48ad 95bd ee12 aabd a3df c5bd
00000230: dc41 65bc 6bb6 91bd 82ba 6dbd 3ee6 1e3d
00000240: 059a 873d 3032 ed3c 00cf 89bd cfd7 6abb
00000250: 322d 79bd c632 633d 8ac5 b2bc 7c69 f2bc
00000260: 059c a83d 5427 143d c5b9 14bc 779e b5bd
00000270: ab61 99bc 4477 3e3d f043 993d fb46 85bd
00000280: e7c5 20bd d238 f0bb 5d6a ec3b 465d 97bc
00000290: cd87 9d3d 00cf b6bd 0e1d 83bd 323f f9bc
000002a0: f95f 973b 2db4 473d bc02 85bd d7c6 8cbd
000002b0: 279d fd3c c1ef 833d 60ac 8c3c 1cd3 fdbc
000002c0: ff2e a0bd 84ba 383d 2235 aabc e288 b23d
000002d0: fd9f 013b 9b9b b93d 0f8f 0f3d 8d3b 0cbd
000002e0: 1fbd a1bc a82a 33bd 937f 59bd 52d4 e2bc
000002f0: 2a24 c1bd 71a1 b4bd b605 353d a140 47bd
00000300: dee4 82bc ebc8 a8bd 71ee 8bbd d219 5bbc
00000310: b0a4 c1bd da9d 1e3d e212 afbd 105b ce39
00000320: ecbc a2bd 4711 ca3d 75b4 91bd ac23 11bd
00000330: 0dc5 4a3d 47eb 60bd f640 89bd fc0b 673d
00000340: 1928 78bd 93cb 553d 34d0 87bd 3ea2 6d3d
00000350: 8471 febc 632d 81bd b060 f4bc b6c3 21bb
00000360: f620 073d 5890 9ebd 2067 6fbc 6915 a0bc
00000370: bdbb b9bd 8dea f1bc 4983 d13d eb15 a5bd
00000380: 7db1 9ebd 2ece cfbd 7c9d a1bc f10b 34bd
00000390: fd26 c2bc 1caf 353d 02cc c3bd 5f68 8fbc
000003a0: e702 6d3d b1a7 a63d 3296 4e3d 2f33 50bd
000003b0: 2b4a 2cbd 1519 52bc a94e 533d 4174 a43d
000003c0: 1a1b c2bc 74b2 873c 3a61 c83d 8418 f43c
000003d0: c4a7 803d afc2 803d a23b 8f3c 78ce 143c
000003e0: c773 81bd b053 26bc d9af c9bc 8bd1 af3d
000003f0: 495a 893d 46b1 15bd 8244 433d d163 7d3c

model_1/dense_1/MatMul f4 [4, 60]
0.11444318 0.2757991 -0.049435314 -0.2800203 0.19672519 0.0992981 -0.29668736 0.07540473
-0.21359321 0.11644049 -0.1251797 0.13276105 -0.088669725 -0.18600619 -0.04450073 -0.23172139
-0.16996546 -0.25848916 -0.2895508 -0.21915406 0.09763864 -0.09972387 0.06579084 0.018836392
-0.05880177 0.14617251 0.12023119 -0.012975051 -0.294783 -0.07502564 -0.018966818 -0.1250717
0.024820419 -0.16702436 -0.12940218 0.10637176 0.2924601 -0.25314307 2.7291542e-05 0.18005964
0.071762346 0.11385233 -0.19221266 -0.03615773 -0.1826608 -0.07433942 -0.23231895 0.099479534
-0.060578503 -0.27480215 0.1593348 -0.3004973 0.0065608025 -0.22586143 -0.0070430357 0.1918644
-0.064096436 0.18405084 -0.22263193 -0.27942467 0.07881064 -0.24415709 -0.10482872 0.111088686
-0.05006466 -0.105475925 -0.1909301 -0.0720154 -0.16132306 -0.03581171 0.25297123 0.19397302
0.27962095 0.28000173 -0.020056825 -0.07161262 -0.042058025 0.015578025 0.12419726 -0.052850537
-0.16813657 -0.1399961 0.22999546 0.043343764 0.081674136 -0.064156696 -0.26195142 0.07725204
0.0867811 -0.1446256 0.03882326 0.0015098944 0.22174238 0.10081258 0.08923736 -0.11237263
0.30012298 0.19356452 -0.23831494 0.06598325 -0.052266113 -0.03005101 -0.061975352 0.032426517
0.22119375 -0.0919539 0.162632 -0.25500458 -0.059751645 -0.06665534 0.27384397 0.24586093
0.20328426 -0.15617599 -0.10159676 0.28404963 -0.09398201 0.10039038 -0.27773872 -0.2767609
-0.028816596 0.2352427 -0.1412313 -0.18673864 -0.1715301 -0.09721574 -0.2647988 0.2573824
0.023541024 0.096235506 -0.03006777 0.09616499 0.1636286 0.28743756 -0.18468192 -0.0983457
0.25035265 -0.021594604 0.037703734 0.16999252 -0.013886359 0.20510209 0.26493022 0.27084512
0.13764894 0.12279569 0.23455054 -0.20358407 0.26451164 -0.13449273 -0.07705588 0.29021987
0.15084323 0.13768567 -0.15727668 -0.31469476 0.079316944 -0.11734392 -0.24948396 0.19431055
0.112711 -0.21021165 -0.20409092 -0.30319837 -0.19205922 0.069627255 0.1840079 -0.2771186
0.128301 0.26426178 0.24141745 -0.28447053 0.19444074 0.22714914 -0.06819359 -0.13315599
0.12675954 -0.25037524 -0.30060464 -0.09877936 0.27221948 0.18041024 -0.24962959 0.23530021
-0.08477203 0.28374985 0.29142287 -0.075065345 0.2684284 0.0077089174 -0.2267557 -0.16626148
0.117605306 0.04295585 0.1973998 -0.12316546 -0.26370087 0.2943159 0.13236266 -0.28411204
-0.07429952 0.046690036 0.18815972 0.24919389 -0.19473025 -0.22063945 -0.21189764 -0.10969213
0.16823786 0.0008188956 -0.025716253 0.14464216 -0.08290027 -0.14379479 -0.28362665 -0.08953446
-0.21310015 0.10555145 0.13306426 -0.110965155 0.28556633 0.053608876 -0.22941875 0.06520495
-0.17637178 0.16505386 -0.2716717 0.10469003 -0.19222434 -0.20506464 -0.21549314 -0.09024541
0.045841236 -0.13610554 -0.22358981 0.10118508 -0.13133481 -0.24245489 0.09320561 0.2838225
00000000: 3061 ea3d 8a35 8d3e af7c 4abd d25e 8fbe
00000010: 5472 493e cd5c cb3d 68e7 97be cc6d 9a3d
00000020: 2eb8 5abe 5a78 ee3d 1b2f 00be 83f2 073e
00000030: 7998 b5bd 6878 3ebe 6646 36bd 5f48 6dbe
00000040: 6d0b 2ebe b158 84be 0140 94be ec69 60be
00000050: c4f6 c73d 073c ccbd 59bd 863d c74e 9a3c
00000060: 20da 70bd 3fae 153e c53b f63d 4f95 54bc
00000070: cced 96be 0ba7 99bd 4d60 9bbc cc12 00be
00000080: 3154 cb3c 6f08 2bbe 0182 04be 70d9 d93d
00000090: 55bd 953e f89b 81be 24f0 e437 8e61 383e
000000a0: 23f8 923d 692b e93d 65d3 44be 211a 14bd
000000b0: 6f0b 3bbe 443f 98bd 05e5 6dbe edbb cb3d
000000c0: 2a21 78bd deb2 8cbe a928 233e c8da 99be
000000d0: 00fc d63b 3848 67be 44c9 e6bb 1a78 443e
000000e0: fe44 83bd d377 3c3e a0f9 63be c010 8fbe
000000f0: 7967 a13d 5104 7abe 71b0 d6bd 7782 e33d
00000100: 9a10 4dbd c303 d8bd 2e83 43be cf7c 93bd
00000110: df31 25be 4daf 12bd 7285 813e dda0 463e
00000120: 7a2a 8f3e 635c 8f3e 364e a4bc a3a9 92bd
00000130: 0945 2cbd f93a 7f3c 225b fe3d ce79 58bd
00000140: fe2b 2cbe 235b 0fbe ee83 6b3e 3b89 313d
00000150: c544 a73d 9664 83bd 7f1e 86be 5136 9e3d
00000160: 4aba b13d bc18 14be 2405 1f3d a6e7 c53a
00000170: 6f10 633e d376 ce3d 14c2 b63d 9f23 e6bd
00000180: b8a9 993e c735 463e d508 74be 3a22 873d
00000190: fe14 56bd 892d f6bc ded9 7dbd abd1 043d
000001a0: 9d80 623e 5452 bcbd 0189 263e f68f 82be
000001b0: 24be 74bd 9882 88bd 4735 8c3e f8c2 7b3e
000001c0: c029 503e 99ec 1fbe f611 d0bd f46e 913e
000001d0: a479 c0bd 7999 cd3d c533 8ebe 9bb3 8dbe
000001e0: c810 ecbc 76e3 703e f09e 10be 6a38 3fbe
000001f0: 96a5 2fbe 0c19 c7bd b593 87be a0c7 833e
00000200: 1bd9 c03c 1f17 c53d af50 f6bc 26f2 c43d
00000210: 418e 273e 042b 933e 421d 3dbe 7869 c9bd
00000220: 392e 803e 2be7 b0bc 3b6f 1a3d 8512 2e3e
00000230: 9c83 63bc 4806 523e efa4 873e 36ac 8a3e
00000240: d8f3 0c3e 4f7c fb3d 042e 703e 5878 50be
00000250: 126e 873e 76b8 09be 79cf 9dbd b397 943e
00000260: a676 1a3e 79fd 0c3e 230d 21be ac1f a1be
00000270: ec70 a23d 0252 f0bd b978 7fbe 58f9 463e
00000280: 06d5 e63d b941 57be 36fd 50be d13c 9bbe
00000290: 2cab 44be bc98 8e3d 916c 3c3e 7de2 8dbe
000002a0: 5661 033e 524d 873e 2336 773e 1fa6 91be
000002b0: 791b 473e c999 683e 15a9 8bbd 0b5a 08be
000002c0: 41cd 013e 2f31 80be dae8 99be d54c cabd
000002d0: 5a60 8b3e 76bd 383e e69e 7fbe 8af2 703e
000002e0: f59c adbd a947 913e 6135 953e dcbb 99bd
000002f0: 726f 893e 169b fc3b a532 68be 7340 2abe
00000300: 0ddb f03d 79f2 2f3d 2c23 4a3e 2c3e fcbd
00000310: cd03 87be 93b0 963e 148a 073e 2277 91be
00000320: 592a 98bd 0d3e 3f3d f1ac 403e af2c 7f3e
00000330: 5e67 47be 4fef 61be b2fb 58be 44a6 e0bd
00000340: 8c46 2c3e 27ab 563a e4aa d2bc 131d 143e
00000350: 9ec7 a9bd f13e 13be 8337 91be d85d b7bd
00000360: ed36 5abe 5c2b d83d ff41 083e b341 e3bd
00000370: c035 923e fb94 5b3d c0ec 6abe 2c8a 853d
00000380: ce9a 34be e103 293e 8e18 8bbe ba67 d63d
00000390: 75d6 44be 77fc 51be 3caa 5cbe 96d2 b8bd
000003a0: 05c4 3b3d 405f 0bbe baf4 64be 203a cf3d
000003b0: a27c 06be 1846 78be 95e2 be3d 2f51 913e
