firebase_ml_model.tflite (tflite, 256232 bytes, 8 tensors)

model_1/conv2d/BiasAdd/ReadVariableOp f4 [32]
00000000: ca9b 643b d6ad 363d 1e0d ae3c 6af4 783c
00000010: ed6f ac3c 3f15 e23c 97b9 e8ba 9a91 2f3d
00000020: 2814 49bc 1e07 20bc df32 133d c796 5fbc
00000030: c345 b53d f452 40ba babd 613b da16 03ba
00000040: af06 cd3c 1e81 873d ac65 533d d335 473b
00000050: 6c28 03bc f5cf 803c 11b8 a2ba 881b f23c
00000060: 1db5 48b9 82aa ffbb bf96 503d df6d 15bd
00000070: e194 b83c a035 983c 5164 0d3c ae48 d73c
0.0034882897 0.044599377 0.02124649 0.015194992 0.021049464 0.027598022 -0.0017755505 0.042863466
-0.012272872 -0.009767322 0.035937186 -0.013646788 0.088511966 -0.000733658 0.0034445361 -0.00050006586
0.025027601 0.06616424 0.051610634 0.0030397072 -0.008005243 0.015724162 -0.0012414475 0.029554144
-0.00019140956 -0.0078023085 0.050925013 -0.036481734 0.022531928 0.018580258 0.008629874 0.026279774

model_1/conv2d_1/BiasAdd/ReadVariableOp f4 [16]
00000000: 1d00 283d d35e 813c d92f 463d 9667 413c
00000010: 15b4 2bb9 d86c 633b 4368 063d 6d30 a03d
00000020: 4efb 17bb 20bd 803c 8c97 463d 215f bb3c
00000030: fa2a 653d 1878 77bc 594f fd3c 1652 04bd
0.041015733 0.015792286 0.048385475 0.011804482 -0.00016374917 0.0034702327 0.032814275 0.078217365
-0.002319056 0.015715182 0.04848437 0.02287251 0.05594919 -0.015104316 0.030921625 -0.032304846

model_1/conv2d/Conv2D f4 [32, 5, 5, 1]
00000000: b741 a6bd aef9 9e3d 4cd8 16bc 79a2 383d
00000010: 186a a43d 521b 98bd 78a5 9c3d 7886 91bd
00000020: ff7e ae3c 477d b03c b082 afbb fe3a 5abd
00000030: ce13 083d 874c 07bd 9007 003d a1db 9dbd
00000040: 199f dd3c 1820 5d3b 0524 7c3d 15f8 143d
00000050: ace6 9cbb c5ee 38bc 56cc 0cbc e55c 70bc
00000060: 3281 9a3d fc31 c93d 560f 81bb 2f48 163c
00000070: 44b6 023b cba0 853d 1283 3abd b843 c73c
00000080: 8452 963c 14a1 163a bd43 30bc cd3f 00bd
00000090: a5fe 83bd 87f0 cbbc 5994 8bbd a596 a6bc
000000a0: 3941 723d 9bb3 b2bd f460 78bd cecf 933d
000000b0: a876 c03c e221 853d 27aa 5bbd 70d0 d33c
000000c0: b70b 013d 1f1d bb3d 3704 943d 0fbc d8bc
000000d0: fbce bd3c 487b 853c ab06 963d a0df 0a3d
000000e0: b50e 843d db8b 913c 3d4f b73c 7560 98bd
000000f0: 56f8 6a3d 2d67 783d 8067 9cbd 0aa4 a23c
00000100: 4357 32bd 59f4 9bbd 55e3 c43c 719a a03d
00000110: 8edb 043d bfe4 503d b578 3cbc acac 373c
00000120: 817b ae3c 3494 80bd 4cc9 853d adef 54bd
00000130: c09b 3bbc 7753 69b9 1066 853c 2db1 85bd
00000140: 92a6 093d 279a 45bd d20b 363c 3bd2 353d
00000150: 2594 873d 82ba d63c 5a86 823d 834a 77bc
00000160: 8248 153c cd7d 433c 341c 6d3d e065 903d
00000170: 24a1 5dbd f08c a1bd f594 793d 5417 9b3d
00000180: 332e 6f3c cbe2 333c 908a d1bc 8a1a 01bd
00000190: d37f 703d 36c6 9fbd af58 d5bd df01 583c
000001a0: 0e56 b83d 7749 da3a b2ae 77bd 8d79 83bd
000001b0: a6df 10bd 5250 9a3d 5936 863d 3ac4 75bd
000001c0: b8f8 c63c 721e e9bb d081 173d a4b0 e9bc
000001d0: 71cb 463d df4a a4bd 193e 9e3d 6503 5d3d
000001e0: 9725 3bbd 3334 9ebd b323 7e3d bf44 7cbd
000001f0: d7b3 48bd 06d0 a2bc 5eb4 e8bc 22b7 373d
00000200: 97b0 8d3d 719f a83d b35b 773d 9a9b b9bd
00000210: c0ba 11bd 4f5b e1bc ed30 8f3b 81df 45bd
00000220: bc5d e33c 4431 2e3d 9cd2 4a3c 5f91 943d
00000230: 5c8a 1abd 069c babd 5548 82bb 6ced 3bbc
00000240: 4ed8 12bc 80c9 82bd ce3e af3a e068 b63c
00000250: 3747 20bd 82d2 64bd d356 3abd 39e9 203c
00000260: f3a9 dc3c df7c a83d ffb6 c4ba 2e2c 103c
00000270: 99ca 4dbd cd00 433d 2753 073d 902e 12bd
00000280: 3164 543d 1d0a a23d debd 3ebd 1ead 113d
00000290: dee2 07bd 339e e2bc bafb 6dbb f9df 833c
000002a0: dc97 b53d bc2c 553c f93f 153d 9f0c 043b
000002b0: 8a6d 4f3d 10a0 9b3b bcbc 583d e589 cdbb
000002c0: cc3f 933d 3a50 4bbd 65d9 45bd 7b62 4ebc
000002d0: 1db9 923d b19f 89bc 3e25 333d 7623 573d
000002e0: 0d0e adbc 2f50 a23d e3f6 3ebd 10a6 8f3d
000002f0: c0f0 9f3d a900 27bd 65b2 da3c c1c6 3dbb
00000300: 622a 3bbd 0ae4 cbbc 1816 13bd c067 863d
00000310: b167 c3bd 123a 1bbc 9e75 63bc 744d 9cbd
00000320: ea84 21bd a6dc 583d 3637 3a3d 4c81 3dbc
00000330: 0055 08bd 8d4f babd 5824 3ebd 8351 c33c
00000340: 4bd3 a5bd 4e53 e8bc 8e74 b6bc 4e81 c8bc
00000350: ae81 953d cd1d 85bd 2afc 44bd 5e88 a2bc
00000360: 59b6 39bd 2ef7 093c e1f1 efbc 8dbc cdbc
00000370: 2843 d6bc c1b1 0c3d 0073 a1bc 8077 883c
00000380: edb7 a7bc e5be aabd da72 a23d 337a a53d
00000390: e955 c9bc 3130 113c 5308 29bd f938 933d
000003a0: 5c45 293d 4ebc 1ebc 1ab8 123c 574c ddbd
000003b0: 30bd 43bd 428b f1bc 0141 873d 2538 45bd
000003c0: d145 09bd 28f2 473d bbc6 76bd e987 37bd
000003d0: acf4 54bd 88cf 8d3d 0974 ba3d e1ef 4a3c
000003e0: 37ad 8f3b 9978 7dbd 7828 b7bb c400 a2ba
000003f0: d0c0 3cba 5777 ecbc 44fd d1bb a819 b73d
-0.08118003 0.07762466 -0.009206843 0.04507682 0.08028048 -0.07427086 0.07648748 -0.07105726
0.02130079 0.021544112 -0.0053561553 -0.053278916 0.033222012 -0.033031967 0.031257212 -0.077079065
0.027053403 0.0033741053 0.06155779 0.036369402 -0.0047882404 -0.011287396 -0.008593639 -0.014670585
0.07544173 0.09823987 -0.0039385958 0.009172483 0.0019945065 0.065248094 -0.045535155 0.024324283
0.018349893 0.00057460484 -0.010758338 -0.031310845 -0.06445054 -0.024894966 -0.068154044 -0.020335505
0.059144232 -0.08725663 -0.060639337 0.0721737 0.02349408 0.06500603 -0.053629067 0.025856227
0.031505313 0.09136414 0.072273664 -0.02645686 0.023169985 0.016294137 0.073254906 0.03390467
0.06448118 0.017766884 0.022376651 -0.07440273 0.057365738 0.06064527 -0.076369286 0.01985361
-0.04354025 -0.07614965 0.024034182 0.07841957 0.032435946 0.0509994 -0.011503388 0.011210602
0.021299126 -0.062782675 0.06532535 -0.051986385 -0.011450708 -0.00022251705 0.016284019 -0.06527934
0.03360612 -0.048242714 0.011111217 0.044389945 0.06620053 0.02621198 0.06373282 -0.015093449
0.0091115255 0.011931849 0.057888225 0.07050681 -0.054108754 -0.0788821 0.060933072 0.07572809
0.014598417 0.010979365 -0.025578767 -0.03151945 0.058715653 -0.078014776 -0.10417306 0.01318404
0.09000789 0.0016653974 -0.060469337 -0.06419668 -0.035369538 0.07534851 0.06553335 -0.06000159
0.02428852 -0.007114225 0.036989033 -0.028526612 0.04853386 -0.08022093 0.07726688 0.053958315
-0.045690145 -0.077248 0.062045764 -0.061589 -0.048999634 -0.019874584 -0.028406318 0.044852383
0.069184475 0.08233536 0.060390186 -0.09062882 -0.03557849 -0.02750936 0.004369846 -0.048308853
0.027754657 0.042527452 0.012379315 0.0725429 -0.037729606 -0.0911179 -0.003975908 -0.01147018
-0.008962704 -0.06386089 0.0013370158 0.022266805 -0.039130416 -0.05586482 -0.04549296 0.00982123
0.026936507 0.08226942 -0.001500815 0.008799596 -0.05024204 0.047608186 0.033038285 -0.035688937
0.051853362 0.07912085 -0.04656779 0.035565488 -0.03317534 -0.027663326 -0.003631337 0.01609801
0.088668555 0.013011154 0.036437962 0.0020149124 0.050641574 0.0047493055 0.052914366 -0.006272542
0.07189903 -0.049637057 -0.048303027 -0.012596722 0.07164214 -0.01679978 0.04373669 0.052524053
-0.021124864 0.0792545 -0.04662217 0.07014096 0.07809591 -0.040772114 0.026696393 -0.0028957578
-0.045694716 -0.024889011 -0.035909742 0.065627575 -0.09541262 -0.009474294 -0.013883023 -0.076319605
-0.039433397 0.0529448 0.04546281 -0.011566471 -0.033284187 -0.09097204 -0.04642138 0.023842579
-0.080969416 -0.028360035 -0.022272374 -0.02447572 0.07300125 -0.06499825 -0.048092045 -0.019840416
-0.045339916 0.008420749 -0.029290142 -0.025114322 -0.02615507 0.034349207 -0.019708157 0.016658545
-0.020473445 -0.083371915 0.079320624 0.08079948 -0.024577098 0.008861587 -0.041267704 0.07188601
0.041325912 -0.00968845 0.008955026 -0.10805576 -0.047787845 -0.029485349 0.066041954 -0.048149247
-0.033513848 0.048814923 -0.060248118 -0.04480735 -0.05199115 0.06924349 0.09104163 0.012386293
0.0043846625 -0.06188259 -0.005589541 -0.0012359847 -0.0007200362 -0.0288655 -0.0064083654 0.089404404

model_1/conv2d_1/Conv2D f4 [16, 3, 3, 32]
00000000: f13d 8dbc 5423 73bd f163 b13b 662a 3bbd
00000010: 5f71 90bd c831 74bc 597e 7abd 35ea bdbd
00000020: 6134 82bd c228 723d d74e f83b b987 b2bd
00000030: 0bf1 763c a40f 0abd 72e1 debb 2b15 013d
00000040: c1e2 cbbd 006a 363b 7a42 5e3a 9f95 493d
00000050: 2b43 a9bd 8933 ecbd 6bed d23d 031a 98bd
00000060: 28e0 373b 9e80 51bc 4243 1cbd e156 1abd
00000070: 7402 47bc f39a 983d a6c2 ca3d de35 40bc
00000080: 51c3 903d e079 c7bd cd00 623d 0100 48bd
00000090: ee0b 1c3b 3033 513d 4135 9c3d 0947 6a3d
000000a0: be67 863c 9c1b eebd efcb 17bd e453 193d
000000b0: 52aa 9abd c7ab 5b3d ea98 413d 5ed3 d9bd
000000c0: 3bd3 96bd 7d89 a13d e7a1 cbbd 3a67 8abd
000000d0: a626 613d 85ff 433d 1427 98bb b016 953c
000000e0: da6f ec3d f45e b2bb db5b 873a cec8 9c3c
000000f0: 051d a23d 21e8 823d 9f0c a23d 0830 213d
00000100: 849b abbd 4a43 bbbd 85e1 b93d 4db9 1f3d
00000110: f66a 57bc 5eb0 e53d 652f 98bd ce9b ed3d
00000120: 3cbc d23d bd56 d8bd d8b8 dabc 56ba 19bd
00000130: db09 883d 47b7 99bd eedb e73d b03d 8cbd
00000140: 2c0b b03d 1790 a3ba 8723 fd3c 2a00 383d
00000150: 3a96 003d 8b53 73bc 43b6 9a3b 571c da3d
00000160: 9959 a83d 52dd cabd 8ab3 683b 34e0 c2bd
00000170: 3cb6 97bd 18d6 b5bd 0157 da3c 11f7 b23d
00000180: a2cc 28bd e98c 0dbd 0dd6 af3d 7db2 40bd
00000190: 0de6 88bd dc5e 933d 6d48 b93d 2740 b5bd
000001a0: e9ed e53c 2bd8 1fbc 9c2c 95bd 7c58 963c
000001b0: eddc 243c c803 8ebc 72fa ccbc eeaf cdbd
000001c0: 4c01 cabd 4dc7 9fbd 85c9 eabd f0af 83bd
000001d0: d5f2 243d 1e16 b83d ad40 8f3d 4177 76bd
000001e0: 9021 2abd ea5a b4bc a65d aa3d b5b2 1abd
000001f0: 9219 d9bd 4460 ad3d 292e bbbd 4e1d ebbd
00000200: 7f36 5d3d 3cf4 c3bd 09fc d6bd 073e c3bd
00000210: 732a ac3c f9b7 99bc 1889 bbbc ba97 fdbc
00000220: 0e7b c53d ef6e 3fbd 8f34 c73d 7b9b 5b3d
00000230: 612c 00be 981c a4bd fa48 9ebd 9668 093c
00000240: f4c4 febc 86ec cc3d 07fb 74bd 406e 9e3c
00000250: b7e9 2ebd ca22 9c3d 4b30 4d3d f8ce dfbd
00000260: b895 95bd 496a ae3d 9bf3 3fbd 9178 b63c
00000270: c539 dabd f664 cb3d 3cbf b2bc 44cc 2a3c
00000280: 04a8 7ebd 484a 213d 9371 e4bd 6208 90bd
00000290: da7d 2d3d 8415 2c3d 2085 fcb9 4822 9e3d
000002a0: 7d76 323d ad6c 073c 5a35 e13d adbd f2bd
000002b0: bc22 84bd 16c1 c03d dd2d dc3c bd4f 94bd
000002c0: 36d1 0f3d 9436 953d 0d65 02bd 4df3 f2bd
000002d0: 57ac 923d 916b 3e3d 1719 81bd 502c a8bb
000002e0: c74a e03d cef6 c13d 405f 25bd 8a11 b63d
000002f0: 4aa8 d23b be76 863d 2595 5c3c c51c dfbd
00000300: d854 54bd 12de 83bd c0fa ba3d 4fcc b73d
00000310: d88a 65bd 9500 b0bd 0feb 98bb 0422 d83d
00000320: e636 a7bd 6541 ac3c e2ed 90bc 1e4a a03d
00000330: 07e1 ddbd d761 4a3d 0cd2 873c d4d7 14ba
00000340: d283 863d 8ff9 4abd 7ee0 7b3d c8bf 433d
00000350: 020b e5bd 9182 b9bd 4a48 843d 8aaa a7bc
00000360: 173e dc3b 79da 013d 738a b73d fa25 b4bd
00000370: 5a1d 39bb 6d53 b6bb 4370 9cbd e893 203d
00000380: df8c 863d 7f11 643d e688 0dbd e003 e63c
00000390: 0acd 203d b90c 8b3d 539b e6bd cc34 b63d
000003a0: f0c7 b13d 2860 503c 12b3 2fbc e1c7 31bd
000003b0: d20c 6d3d 5f5a 813d 21d9 a0bd 1906 8d3d
000003c0: 4586 48bd 4369 0cbd 6c89 a2bb 24a3 c8bd
000003d0: e182 c9bc ece0 c53d bdd2 cfbd a09a 3a3d
000003e0: 4383 e0bd e06f 303d 08af 0cbd 713a 1cbd
000003f0: 3760 4b3d 1610 963d 84ab 313d 28e5 afbc
-0.01724145 -0.059359863 0.0054135253 -0.04569473 -0.07052874 -0.014904447 -0.06115565 -0.09273187
-0.06357647 0.0591209 0.007577758 -0.08717293 0.015072118 -0.033706322 -0.0068017775 0.031514328
-0.09955359 0.0027834177 0.0008478534 0.049214955 -0.082647644 -0.11533267 0.1029919 -0.07426836
0.0028057192 -0.012787012 -0.03815008 -0.03768051 -0.012146581 0.07451429 0.099004075 -0.011731593
0.07068504 -0.09740043 0.055176545 -0.04882813 0.0023810822 0.051074207 0.07627345 0.05719665
0.01640689 -0.1162636 -0.03705972 0.03743352 -0.07552017 0.053630617 0.04726497 -0.10636018
-0.07364508 0.07887552 -0.0994299 -0.0675797 0.0549685 0.047851104 -0.0046433304 0.018199295
0.115447715 -0.005443448 0.0010327058 0.01913872 0.07915691 0.06391931 0.079125635 0.039352447
-0.083792716 -0.09143694 0.090762176 0.038995076 -0.01314806 0.1121528 -0.07430915 0.11601983
0.10289809 -0.10563419 -0.026699468 -0.03753122 0.06642505 -0.075056605 0.11321245 -0.068477035
0.08595881 -0.0012478855 0.03090073 0.04492203 0.031393267 -0.014851461 0.0047214343 0.10649937
0.082202144 -0.09905495 0.0035507404 -0.095154196 -0.07407805 -0.08878726 0.026652815 0.087385304
-0.041210778 -0.03455821 0.08585749 -0.04704522 -0.06684504 0.07195827 0.09047017 -0.08850127
0.028067546 -0.009756128 -0.07283899 0.01835274 0.010062438 -0.017335787 -0.025021765 -0.100433215
-0.098635286 -0.078016855 -0.11464218 -0.06430042 0.040270645 0.089885935 0.06994758 -0.060172323
-0.041535914 -0.022016007 0.08318643 -0.037768085 -0.1060058 0.08465627 -0.09139664 -0.11480199
0.05400705 -0.095680684 -0.10497291 -0.09533315 0.021016335 -0.018764483 -0.02289252 -0.030956138
0.096426114 -0.046736654 0.09726822 0.053615075 -0.12516929 -0.08013266 -0.07728763 0.008386752
-0.031099774 0.10006051 -0.05980971 0.01933968 -0.042703357 0.07623823 0.050094884 -0.10928148
-0.07303947 0.08516366 -0.04686318 0.022274287 -0.1065555 0.09931366 -0.021819703 0.010424677
-0.06217195 0.03937748 -0.11154475 -0.07032849 0.04235635 0.042012706 -0.0004816437 0.077213824
0.04357003 0.008265656 0.10996504 -0.11852584 -0.064519376 0.09411828 0.026877338 -0.07241771
0.03511163 0.072858006 -0.03183465 -0.11862812 0.071617775 0.046489302 -0.06303614 -0.0051322356
0.10951763 0.094709024 -0.04037404 0.08890064 0.006428753 0.06565617 0.013463293 -0.10894159
-0.051838726 -0.06438841 0.09129858 0.08974516 -0.056040615 -0.08593861 -0.004666693 0.10553363
-0.08164768 0.021027276 -0.017691556 0.07826637 -0.10833936 0.049409714 0.01657965 -0.0005677913
0.065681115 -0.049554404 0.06149339 0.04779032 -0.1118374 -0.09058107 0.064591005 -0.020467062
0.006721269 0.031702492 0.08961954 -0.08796306 -0.0028246255 -0.0055641443 -0.076386 0.039203554
0.06569838 0.055680748 -0.034554385 0.02807802 0.03925804 0.06789536 -0.112600945 0.08896789
0.08680713 0.012718238 -0.010723846 -0.04340351 0.057873555 0.06316065 -0.07853914 0.06885929
-0.048956174 -0.034280073 -0.0049602296 -0.097967416 -0.02459854 0.09662041 -0.10147617 0.04555762
-0.10962536 0.043075442 -0.03434661 -0.03814167 0.049652305 0.07327287 0.04337646 -0.021471575

model_1/dense/BiasAdd/ReadVariableOp f4 [60]
00000000: d1bb 9abc 2bb5 ce3b 2d22 58bc 4ea8 4b3b
00000010: 8cf8 e03b a134 cfbc 4e53 933c 54c1 c2ba
00000020: 9251 3a3c 84e8 8b3c bd58 01bb 17db 8f3c
00000030: 018f 253b 9c35 f43b ee15 27bc 9f63 1fbc
00000040: 8f20 d63b abb8 96bc 4b43 923c d645 f33b
00000050: 69f8 0dbc d467 fbb9 f897 a13c 6e8c b9ba
00000060: f2b5 a43c 374d 19bc 1a0c d0bc 1ca8 46bb
00000070: db61 4fbc 672a c43a fdc2 a73c 2f5d 7f3c
00000080: 7a2c 283b 4919 203c 24ae 443c ae0f d9bb
00000090: 1c03 e83c 050b 103c 014b 2fbd 57f7 613c
000000a0: 7f0b 933b 61af bd3c d8cd 313b 377d a93c
000000b0: 9c25 86bc f340 9ebb 461e 51bc 36f0 29bc
000000c0: bfb5 d9bc c7bb 04bc 0167 133d 4046 e1bc
000000d0: 991f ad3c ff1d 813c 6a96 ea3c 38df a53b
000000e0: a4f2 97bc 4c6b a4bc 347b 0e3d 3d46 ee3c
-0.018888386 0.006308218 -0.013191742 0.003107566 0.0068655666 -0.02529365 0.017984059 -0.0014858642
0.011371987 0.017078646 -0.001973673 0.017560525 0.002526224 0.00745268 -0.0101981 -0.009728341
0.006534643 -0.018398603 0.017854353 0.0074240966 -0.008665183 -0.0004795181 0.019725785 -0.0014156231
0.02010629 -0.009356788 -0.025396395 -0.0030312603 -0.012657608 0.001496625 0.02047872 0.015586182
0.0025661276 0.009771653 0.012004409 -0.0066241836 0.028321795 0.00879169 -0.04279614 0.013791881
0.0044874544 0.023154916 0.002713075 0.02068959 -0.016375355 -0.00482952 -0.012763565 -0.010372212
-0.026575921 -0.00810141 0.035986904 -0.027499318 0.021133231 0.015761374 0.028636176 0.00506201
-0.018548317 -0.020070694 0.034785464 0.029086227

model_1/dense_1/BiasAdd/ReadVariableOp f4 [3]
00000000: d632 183b 20fb 683d 90e9 af3d
0.002322366 0.056880116 0.085894704

model_1/dense/MatMul f4 [60, 960]
00000000: 4367 813c 26bd 473c e386 adbc 66a1 7e3d
00000010: 3234 4bbd 5155 1d3c d190 d0bb ac98 fcbc
00000020: 2417 943d 9679 783d 9109 83bd 88f8 823d
00000030: 8066 efbc 9871 1bbd 3f82 38bd 7f5b 08bc
00000040: ee09 80bd 997c 42bc 51f0 7f3c 7f27 8e3d
00000050: cdf6 f8bb d9db 97bd d9ea 89bd 3b10 92bd
00000060: b86c 3c3c b347 85bc 655c 773b 61b9 813d
00000070: c26e 62bd a9b1 d7bc e588 f7ba cd36 423d
00000080: 56a0 3ebd 9466 e43b 9338 0ebd 345b fdb9
00000090: acc9 52bd c417 8c3c b14c ef3c 27b7 853d
000000a0: 2355 0abc d062 f5bc e1db 1bbd 8f80 823d
000000b0: 8722 1f3d 82dc 713d 6537 c2bb 0a9e ae3c
000000c0: 7031 31bd fc4e 4abd b3fe 143c 6cb7 f4bc
000000d0: af36 c8bb 8f87 38bd f86a 89bd d2fe 7dbd
000000e0: 98bb 7b3d 439e 953d b924 87bc f01f 963d
000000f0: b836 6c3c 54e4 8abd 2846 02bc 8721 613c
00000100: e4ed a03c 08ad 833d 08e6 373d 8adf 823d
00000110: c283 2b3d da3d 763d b176 673c a372 45bd
00000120: 50cf 9ebd 6662 39bc 1c89 b6bc cdfc a13b
00000130: 52d4 373c 5063 dbbb 11f4 d93c 14af 993d
00000140: 18f9 97bd bed7 ff3c 3155 693d be20 39ba
00000150: 4eb5 0b3d 8c42 62bd b737 bebb 0a60 84bd
00000160: 578f a5bc 69a0 7bbd c0a4 413c ac2a 873d
00000170: a57b 72bd 5b2e dd3c a30d 2f3c 58c1 843d
00000180: f1ab c3bc f8e8 4d3d 3e69 8cbd a8d7 78bc
00000190: 1b9b 3bbd 49f3 71bd 2bc9 edbc 2de6 843d
000001a0: 8d38 87bd ee1f 8c3d c4e6 483c 8340 23bd
000001b0: ac04 9b3c 309e 8dbd eeb9 88bc 190d e23c
000001c0: aefc 8bbb 1683 7bbd dea3 72bd 0128 4c39
000001d0: 5e5b 65bd ad2d 9dbd 1c31 82bd c503 583d
000001e0: e599 9a3d 7da5 7cbd f75e 453d bcc6 563d
000001f0: 514e 063d 9eef e0bc e109 2dbd 773e 5a3c
00000200: 8c11 373d b72a efbc 9c8f b23c b52d 2e3d
00000210: 3e48 d6bc e6fb c9bc 0a1d 9b3d 15d9 5b3c
00000220: 73a3 04bd e843 24bc d462 d5bc b2fd 60bd
00000230: 0175 e0bc 709d 5fbd 0573 4ebd 9cbb 8fbd
00000240: e631 8e3a eb7b a2bc f60a 873d 22f5 233d
00000250: dac0 ebbb cc6d 273d be0f 583c 9ffd 7d3d
00000260: 7103 cbbc 0f19 403d 680d 2abd f4c5 9fbd
00000270: 5cdd d93c 1a83 473d de05 903d 0d25 75bd
00000280: fa36 373d d1fe 823d d446 6c3d 0976 c1bc
00000290: 1ffb 033c d6f9 553d 2d8f a63b fbc5 933c
000002a0: ba57 43bd c504 9cbc afb3 253d ed16 263d
000002b0: 4726 ebbc 9c8a a13c c422 c33c 762c f43c
000002c0: 3e1d 4fbd fe22 623d e059 8abd ebff 8a3d
000002d0: a833 f0ba 3b76 26bd a65b 37bd c620 9dbb
000002e0: 1a3c 243d c235 52bc 126a e83c 8de4 983c
000002f0: ce9d 93bd c99e 533d 9d74 1cbd 78eb 683c
00000300: 13d0 803c 688c a0bb 6003 cfbb 118c 7b3d
00000310: 8039 b53c 9492 2a3d 3b46 39bd 1b57 85bd
00000320: 910d 13bd b4ff 6fbd c621 9039 f6be 29bd
00000330: a31a 50bd a74a 9f3d d0ff 3e3d 720f 8f3d
00000340: 2f40 103d 3289 063c c537 62bd db81 a9bc
00000350: e961 b8bc 29a1 663d 2c57 533c bcc5 113d
00000360: 744f 46bd 137e 19bd 6686 91bd 638e acbc
00000370: 8398 2e3d fa3d 7f3d 02e7 a2bc 3bcc 38bd
00000380: 3037 743d b7d7 46bc 553f 783c 18d3 153d
00000390: 9c41 c0bc 9e34 55bd 9284 753d 4627 38bd
000003a0: 90e4 8a3c c578 0a3d c5ba 3bbd a7c8 b93c
000003b0: f920 8cbd 186e 5fbc 6622 a23b 066c 14bd
000003c0: 0ecf ab3c 076a 763d 5f96 7d3c eed0 0cbb
000003d0: e968 2e3d 8bb3 20bd 0700 c9bc bd72 e2bb
000003e0: 8c61 a33c a31b 72bd 20de 3f3d 55c5 b93c
000003f0: 39ea fd3b 4e25 3abc 0971 75bc b868 debc
0.01579631 0.012191093 -0.021182483 0.06216564 -0.049610324 0.009602861 -0.0063649197 -0.030834518
0.07230976 0.06066283 -0.06398309 0.0639506 -0.02922368 -0.03795013 -0.045046087 -0.008322596
-0.06251894 -0.011870527 0.015621261 0.06941127 -0.0075977803 -0.074149795 -0.06734247 -0.07132002
0.01150053 -0.01626954 0.003774428 0.06334186 -0.055281408 -0.026329832 -0.0018885402 0.047415543
-0.046539627 0.006970236 -0.034721922 -0.00048323872 -0.05146186 0.017101176 0.029211374 0.06529074
-0.00844315 -0.029954344 -0.03805149 0.06372177 0.038851287 0.059048183 -0.0059270137 0.021315593
-0.043260038 -0.04939173 0.009093928 -0.029872619 -0.0061100344 -0.045051154 -0.06709856 -0.062010594
0.0614582 0.07305577 -0.016497003 0.0733031 0.014417343 -0.067818314 -0.007951297 0.013740904
0.019644685 0.064294875 0.04489711 0.06390293 0.0418737 0.06011758 0.014127419 -0.04820503
-0.077543855 -0.011314964 -0.022282176 0.0049434663 0.011220055 -0.0066951886 0.026605638 0.075040966
-0.07420558 0.031230804 0.05696601 -0.0007062069 0.034108452 -0.055239245 -0.0058049816 -0.064636305
-0.020209951 -0.061432276 0.011819065 0.06599936 -0.059199948 0.026999643 0.010684404 0.0648219
-0.023885699 0.050271004 -0.06856011 -0.015188135 -0.045802217 -0.059069905 -0.029026588 0.06489215
-0.06602583 0.068420276 0.01226205 -0.039856445 0.018923126 -0.069149375 -0.01669022 0.027594136
-0.004272065 -0.06140431 -0.059238307 0.00019469859 -0.055995338 -0.076747276 -0.06357023 0.05273797
0.07548884 -0.06168126 0.04818627 0.05243562 0.032789532 -0.027458008 -0.04224575 0.013320557
0.04469447 -0.029195173 0.021796994 0.04252406 -0.026157495 -0.024656247 0.07573898 0.013418456
-0.03238244 -0.010025956 -0.026048101 -0.054929443 -0.027399542 -0.054593503 -0.05040266 -0.070182055
0.0010848611 -0.01983448 0.065938875 0.0400287 -0.0071946206 0.040876195 0.013187347 0.06200945
-0.024781914 0.046898898 -0.04151669 -0.078014284 0.02659481 0.048709013 0.07032369 -0.059849788
0.044730164 0.063962586 0.057684734 -0.023615854 0.008055477 0.052240215 0.005082986 0.01803874
-0.047691084 -0.019045243 0.040454563 0.040549207 -0.028704775 0.019719414 0.023820288 0.029806357
-0.050564997 0.055209152 -0.067554235 0.06787094 -0.0018325942 -0.040640097 -0.044765137 -0.0047951667
0.04009638 -0.0128302 0.02837089 0.018663669 -0.07207833 0.0516651 -0.03819715 0.014216296
0.015724218 -0.00489955 -0.006317541 0.061412875 0.022122145 0.041643694 -0.045232993 -0.06510755
-0.03590161 -0.058593467 0.00027490983 -0.04144188 -0.050806653 0.07777911 0.04663068 0.06985368
0.03521746 0.008211421 -0.055228967 -0.020691803 -0.022507625 0.056306038 0.012899201 0.035588965
-0.048415616 -0.03747375 -0.071057126 -0.021063989 0.042625915 0.062314965 -0.019885544 -0.045116644
0.059622943 -0.012136391 0.015151818 0.036578268 -0.023468785 -0.052052133 0.059940882 -0.04495933
0.01695469 0.03380658 -0.045832414 0.022678686 -0.068422265 -0.013637088 0.0049479483 -0.03623583
0.020972755 0.06015971 0.015477746 -0.0021486836 0.04258052 -0.039233726 -0.024536146 -0.0069106505
0.019943975 -0.059108388 0.046842694 0.022677103 0.007748869 -0.011361433 -0.014980563 -0.027149543

model_1/dense_1/MatMul f4 [3, 60]
00000000: 67b2 7dbe 712c e8bd b8ed 8bbe 98d1 0ebe
00000010: 0ed8 8ebe 313e 2ebe 4e0b 0c3e 4a4a 75bd
00000020: 4a06 883e 61a9 63be 51f9 1b3e 3f11 efbd
00000030: 240c 9d3d f1ba 753d e5a9 fdbd c494 663e
00000040: 383e 37be e41f 243e 4e45 703e 83f0 a03e
00000050: cda6 a1be 9313 953e 14ce db3b c918 223e
00000060: 85f3 4bbd f173 dcbd a371 4cbe 186e a4bd
00000070: c4e5 763e f7d3 a83d b2f6 953d 2b31 c83d
00000080: acb0 a9bd 8bb2 94bd d455 8e3e e09c 83bd
00000090: 3e75 56bd 939d 7b3e 483f 023e 3aea ad3c
000000a0: d07b 993e cd62 413e cfde edbb 9274 d8bd
000000b0: b49b d03d c47a 80be d509 f0bd 3907 abbd
000000c0: 0bc8 853e 0d9b 6e3d ba5d 4abe 7a80 8cbe
000000d0: 3012 4e3e 3602 973e 60a7 ca3d e203 233d
000000e0: ed7b 1f3e a19d 273e 4222 903d 80a2 0abd
000000f0: 8b31 ce3b 8dd1 1abe 8027 9c3d bf52 373d
00000100: 8ee3 89be b17c c5bd 3781 2fbc ab40 8e3e
00000110: e737 88be fedd 933d 686a 85be be7f a23b
00000120: cdee 3a3d ec60 91be b60a 4ebd 4791 323e
00000130: 455e 0abe 8193 dabd 81ef 2e3e 3b3a 923e
00000140: 03f3 1f3e 8d41 94bd db5e 333e e315 8a3c
00000150: f1b2 943d 9fd2 81be 8a85 0fbc 9bd2 e13d
00000160: 6b20 fa3d f3b7 4c3e 2522 f43d 9e7a 0d3e
00000170: 45a6 013e fd1e 90be a4cb 9e3e fe83 443e
00000180: a063 a33e d889 bebd 3508 96be f4bf fc3d
00000190: 3338 063d e159 1d3e 5153 98be 95a4 4abd
000001a0: 5d00 1ebd 3a7e 523e edae 77be 0c6a 6b3e
000001b0: 1cd1 0fbd a7f5 89be dd8c 9a3e 5d4c 86bd
000001c0: 5ecf 38bd 77a4 c13c 0584 c93d c0bd a43c
000001d0: 0fba 99be bdc9 5bbe 7d54 543e 9c41 a23e
000001e0: f641 61be 2334 413e c25a 41be 1331 643b
000001f0: 219e 8b3e a337 7abe 8265 603e 410e 5cbe
00000200: 2174 9b3e 219a 243e d06c 043e 05b7 5d3e
00000210: e923 133b fee1 933e d7c1 9ebd 53c0 70be
00000220: b5d1 233e ccd2 25be ad33 073e 721f a8bd
00000230: d05d 5abe 144b 6f3d 123c fb3d a53a 04bd
00000240: 455b 483e 3238 6a3d 1148 9bbe 8de3 cabd
00000250: 988c 65be 9964 e9bd ec98 453e 54b1 ce3d
00000260: 3a7f 21bd 0ea1 9b3e 6856 26bd 3694 45be
00000270: 5fc3 263e e870 2b3e 381a 99be 11d8 cb3d
00000280: a87e 613d f36a 383e d45b 7a3e 7d90 8c3e
00000290: 52ec 2ebe cf02 3fbe 6533 01bc a1d6 9dbe
000002a0: b2f4 a0be e041 9b3d 6759 873e 1b13 a3be
000002b0: b4c8 943e 4be4 793e bbc5 8b3e 01dc 4a3d
000002c0: a118 a2bc 1ee6 d0bd 796e 993e e3e7 603e
-0.24775086 -0.113366015 -0.27329803 -0.13947141 -0.27899212 -0.17015912 0.13676187 -0.0598853
0.26567298 -0.22232582 0.15231825 -0.11673211 0.07668331 0.059992734 -0.123859204 0.22517687
-0.17894828 0.1602779 0.23463938 0.31433496 -0.3157257 0.29116496 0.006707916 0.15829767
-0.049792785 -0.107643016 -0.19965224 -0.08028811 0.24111086 0.08243554 0.07322444 0.09775003
-0.082856506 -0.07260617 0.27799857 -0.06426406 -0.052357905 0.24571829 0.12719452 0.021229852
0.29977274 0.18885346 -0.007259227 -0.10569109 0.10185948 -0.25093663 -0.11720625 -0.08350987
0.26129183 0.058253337 -0.19762316 -0.2744177 0.20124125 0.29493874 0.098952055 0.039798625
0.15574618 0.16368724 0.07037784 -0.03384638 0.006292527 -0.15119 0.076247215 0.044756647
-0.26931423 -0.096429236 -0.01071196 0.27783713 -0.2660515 0.07220076 -0.26057744 0.0049590757
0.045637894 -0.28394258 -0.050303183 0.17438231 -0.13512523 -0.106726654 0.17083551 0.2856005
0.15620045 -0.07239065 0.17516653 0.01685614 0.07260693 -0.25356004 -0.008759866 0.11026498
0.122132145 0.19992046 0.11920575 0.13816306 0.12661083 -0.28148642 0.3101474 0.19190976
0.31911945 -0.09303635 -0.29303136 0.123413 0.03276844 0.15366317 -0.29751065 -0.049473364
-0.038574565 0.20555964 -0.24187823 0.22989672 -0.03511153 -0.2694523 0.30185595 -0.06557534
-0.045119636 0.023637993 0.09839634 0.020110011 -0.30024764 -0.21463676 0.20735355 0.3169068
-0.21997818 0.18867545 -0.18882278 0.003481929 0.2726908 -0.24435286 0.21913722 -0.21489812
0.30362037 0.1607442 0.12932134 0.21651848 0.0022451824 0.28883356 -0.07751816 -0.23510866
0.15997966 -0.16193694 0.13203306 -0.08209123 -0.21324849 0.05842121 0.12267317 -0.03228249
0.19566067 0.0571825 -0.3032842 -0.09906683 -0.22416914 -0.113961406 0.19296616 0.100924164
-0.039427973 0.30396312 -0.040609747 -0.19294819 0.16285466 0.16742289 -0.29902816 0.09953321
0.05505243 0.18009548 0.24449092 0.27453986 -0.17082337 -0.18653415 -0.007885789 -0.3082781
-0.31436688 0.07580924 0.26435396 -0.31850514 0.29059374 0.24403493 0.27299294 0.04952622
-0.019787135 -0.10200141 0.29967096 0.21963458
