firebase_ml_model.tflite (tflite, 13996 bytes, 6 tensors)

sequential/dense_2/BiasAdd/ReadVariableOp/resource f4 [2]
000000 56 e8 95 bb 93 e8 95 3b
       -0.0045748157 0.004574844

sequential/dense_1/BiasAdd/ReadVariableOp/resource f4 [60]
000000 2b 8f a6 3e 7e 78 c1 3d 0c 8e 22 3e f4 de 3f be
       0.32531103 0.0944681 0.15874499 -0.18737394
000010 1f fc 40 3d 76 00 2f 3d 74 c2 71 be 65 7f 3a 3e
       0.04711544 0.04272505 -0.23609334 0.1821266
000020 d8 c8 0c 3e 03 8b e4 bb 3d 9a ae 3d f1 43 b4 bd
       0.13748491 -0.0069745793 0.08525512 -0.08802021
000030 d3 0d 24 bd 57 14 39 be 6e 2b ca 3d 85 0e 14 be
       -0.040052246 -0.18074165 0.09871565 -0.14458664
000040 0b 25 f3 bd d3 0a a7 3d ff 14 b5 be 89 04 62 bd
       -0.118723 0.081563614 -0.3536758 -0.055180106
000050 48 b9 3b be 9a 30 8a bd 0b 9e 94 bd 1c 7d 49 3d
       -0.18332398 -0.06747551 -0.07256707 0.04919158
000060 69 7f ac 3e 90 4c 5d 3d 64 7b a1 bd 31 34 96 be
       0.33690956 0.054028094 -0.07884863 -0.29336694
000070 3e 5f 05 3d 57 6b 28 3d e3 f4 0c 3f 32 2c a9 bd
       0.032561533 0.041117992 0.5506117 -0.08260383
000080 e7 d8 35 bc 82 39 81 bc b1 e9 a4 bd 0b 54 4d bd
       -0.011099077 -0.015774492 -0.080523856 -0.050128978
000090 c5 33 36 3e 9a e4 0e 3e 7e 9d 53 be cb 43 95 3c
       0.17793186 0.13954392 -0.20665547 0.018220803
0000a0 7a 89 e0 bd 74 03 a7 bd 20 d8 c9 3d 04 2e f6 3c
       -0.109637216 -0.081549555 0.09855676 0.030051239
0000b0 2c ef 90 3d f2 1c 59 3d 2a 84 2c be 50 39 87 bd
       0.070768684 0.05300612 -0.16847292 -0.06602728
0000c0 f8 b2 5d 3d f5 30 8e bd 23 e6 d7 bc 52 9c 81 3e
       0.054125756 -0.069429316 -0.026354855 0.25314575
0000d0 bb c3 0f 3d 1c 7a b8 3d 0d fb 27 bd 16 6c 17 bd
       0.035098772 0.090076655 -0.041010905 -0.036968313
0000e0 1a 0c e9 3d 8a 4d 5f be 02 44 e3 3e 00 b5 5c 3d
       0.11379261 -0.21806923 0.44387823 0.053883553

sequential/dense/BiasAdd/ReadVariableOp/resource f4 [20]
000000 8a f4 ac be 19 fc 06 3e 77 2a 87 3e eb c7 a1 3e
       -0.33780318 0.13182105 0.26399586 0.31597838
000010 ee aa 9a 3e df 54 ef be a2 82 e5 be ab e0 12 3e
       0.30208534 -0.4674444 -0.44826227 0.14343517
000020 87 f2 9d 3e 37 8e c3 3e 37 64 82 3e 17 1c 8f 3e
       0.30849096 0.3819444 0.25467083 0.27951118
000030 68 36 49 3e 0a f0 53 3e 4b 6a 9a 3e 24 52 56 be
       0.1964966 0.20697036 0.3015922 -0.20929772
000040 6a 7a 32 3e 88 6e 89 3e ee d6 4d 3e e1 b4 cb be
       0.1742951 0.2684214 0.2010152 -0.39786437

sequential/dense/MatMul f4 [20, 80]
000000 b3 92 fb be 40 65 49 3d 49 da ec 3e b2 16 85 bc
       -0.4913536 0.049168825 0.46260288 -0.016246174
000010 73 86 2a bf 88 ff 5f 3e f5 58 87 3e bd fe 8c 3e
       -0.66611403 0.21874821 0.26435056 0.275381
000020 5a 39 d0 be 03 b1 aa 3d 79 8f 05 3f 36 bf de 3d
       -0.40668756 0.083345436 0.52172047 0.10876314
000030 a3 3b 14 bf 22 f7 87 bc ea f3 ca 3e 72 a2 85 bc
       -0.579035 -0.016597334 0.39639217 -0.016312812
000040 d6 8d a6 be d6 ab 13 3e bd 68 0a 3e 9f e3 d4 3c
       -0.32530087 0.14421019 0.13516517 0.025987444
000050 5a ba 45 bf cc d4 92 3b 6e f4 9b 3e 5e 5d 37 3e
       -0.77237475 0.004480934 0.30459923 0.1790671
000060 ad 81 0f bf 44 65 5a 3d 88 39 b9 3e c5 c3 ca bd
       -0.56057245 0.05331923 0.36176705 -0.09900621
000070 0b a3 8b bd 8c 8e c4 3d 71 a0 99 3e b9 b1 f3 3d
       -0.06818207 0.09597501 0.3000522 0.11899132
000080 8b 33 43 3e 37 7d ad 3d 76 d0 f6 3d c2 1b 54 3e
       0.19062631 0.084711485 0.120514795 0.20713714
000090 98 a4 e3 3e 84 88 93 bd 1f 32 9a 3e 19 ca 8c 3e
       0.44461513 -0.07203773 0.30116364 0.27497938
0000a0 56 41 05 3f 32 67 24 be 97 66 93 3e 03 40 9f bd
       0.5205282 -0.16054991 0.28789207 -0.07775881
0000b0 0a 74 99 3e be b8 6e 3e ed 45 07 3f 5e e0 66 3e
       0.29971343 0.23312661 0.52841073 0.22546527
0000c0 f8 8e 06 3f fe 42 3d be 47 75 26 3f 34 9e 47 3d
       0.52561903 -0.18482587 0.650227 0.04873486
0000d0 00 f8 38 3f 04 37 3c bd a2 e4 3b 3f 90 9b 11 bd
       0.7225342 -0.045950904 0.7339574 -0.035548747
0000e0 7e d4 c0 3e 52 75 13 be e9 9d 39 3f 33 e9 ba 3d
       0.3766212 -0.14400223 0.72506577 0.091265105
0000f0 6a 2e e7 3e 07 e8 77 bd ae a6 19 3f 0d 54 90 3e
       0.451526 -0.060524013 0.6001996 0.28189126
000100 ef ee 48 3e 30 6d 30 3d 76 0e 17 3f bf c5 87 3e
       0.19622396 0.04307288 0.5900644 0.26518056
000110 1a 77 b0 3e a4 a3 3a bd be 6f 29 3f 5e 04 37 3e
       0.34465867 -0.045566216 0.6618613 0.1787276
000120 0f 93 0e 3f 38 d7 4d bd 99 fe 31 3f 97 8e b2 3d
       0.55693144 -0.050254077 0.6952911 0.08718603
000130 f1 ae 2d 3f f1 37 ed 3d f4 5d 2c 3f a4 14 da 3d
       0.67845064 0.115829356 0.6733086 0.10648468
000140 04 33 b8 3d 27 61 32 3e 89 6b 0a be 1b a5 7b 3e
       0.089941055 0.17419873 -0.13517584 0.24574701
000150 75 58 86 3e ad 13 36 3e e3 6f 84 be ec 8d 8b 3b
       0.26239362 0.17780943 -0.25866613 0.0042588618
000160 df 84 87 3e 33 9d 16 3d fe 00 5f be bc 13 0d bb
       0.2646856 0.03677101 -0.21777722 -0.0021526655
000170 52 70 3a bd 94 68 83 bd d7 d4 69 bc 73 13 01 bd
       -0.045517273 -0.06416431 -0.014271936 -0.03151269
000180 e1 8a 22 be e4 87 de 3d 95 f0 a0 bd e1 55 0b 3e
       -0.1587329 0.10865763 -0.078583874 0.13606979
000190 e9 e3 69 3e b0 af 9a bd 09 e1 c9 be 88 ee dd 3d
       0.22840847 -0.07553041 -0.394295 0.10836512
0001a0 ad 07 f1 3d 59 6c f6 bd 5a 98 d3 be a1 61 87 3e
       0.11769042 -0.120323844 -0.41327173 0.26441672
0001b0 75 9a 99 be 10 8a 23 3d 91 38 92 be c2 a1 3c 3e
       -0.30000654 0.03992659 -0.28558782 0.1842108
0001c0 16 a4 28 be fc 06 22 be 0b f4 19 be 6e 9e 20 3d
       -0.16468844 -0.15822977 -0.15034501 0.03921359
0001d0 e2 26 90 bd 41 c9 48 3e eb 17 c9 bd 42 92 45 be
       -0.07038666 0.19608022 -0.09819015 -0.19294074
0001e0 ad 36 af be 0b 0c 47 3e ad 62 c9 bd b8 17 d5 bd
       -0.34221402 0.19438188 -0.09833274 -0.104049146
0001f0 d3 1e 67 be e2 b8 e6 3d a6 a5 90 be 7d c7 47 3e
       -0.22570352 0.11265732 -0.2825138 0.19509692
000200 da 8d a0 be e2 fc 30 bd 92 aa dd be 87 47 2b 3e
       -0.31358224 -0.043209918 -0.43294197 0.16726504
000210 c8 40 ec be cb 97 27 3e 39 0e 0c be 97 6f 55 3e
       -0.46143174 0.16366498 -0.136773 0.2084335
000220 9c 4e 0e bf f1 38 aa bd 29 17 b2 be 57 4c ad bd
       -0.555887 -0.08311642 -0.34783295 -0.08461826
000230 a8 d4 d8 be 02 06 1a bc 42 83 47 be 33 71 4f 3e
       -0.42349744 -0.009400846 -0.19483665 0.20258026
000240 5d 76 f4 be f1 9b 5c 3e 8c 98 aa be 20 98 e6 bd
       -0.47746554 0.21543862 -0.3331951 -0.11259484
000250 6f 97 a8 bd ee 96 1e be 45 a7 0b be 06 17 71 3d
       -0.08232009 -0.15487263 -0.13638027 0.058859847
000260 ff cd f9 be 5d a8 99 3d a5 9e 61 be cd 32 72 3e
       -0.48789975 0.07502816 -0.22033174 0.23652191
000270 22 51 af be 2e bb fd bd 8b 92 0c bf 6e dc 6e bb
       -0.34241587 -0.12389217 -0.54911107 -0.0036447304
000280 a6 5f 0e 3f 98 34 4c bc 7f 92 bb be 0a a7 1f be
       0.556147 -0.012463711 -0.36635205 -0.15591064
000290 06 d0 7c 3e 0c 4e a0 be be 68 c8 be cc c3 20 3e
       0.2468873 -0.31309545 -0.39142412 0.1569969
0002a0 1c 93 ee 3e 7f a3 a3 bc 63 7c 54 be 2d 9d 6c be
       0.4659661 -0.019975422 -0.20750575 -0.23106833
0002b0 b0 a4 f4 3e 6c 1f fa bc a6 db ea be fb c5 c1 3d
       0.47781897 -0.030532561 -0.45870703 0.0946159
0002c0 6f 8b c4 3e bc b8 f7 bc 51 03 00 be e2 91 1b bc
       0.3838763 -0.030239455 -0.12501265 -0.00949523
0002d0 a9 c3 13 3f dd 6a 0f be e2 6b b5 be 09 70 e0 3d
       0.5772043 -0.14005609 -0.3543387 0.10958869
0002e0 08 72 16 3f 67 13 7e be 54 b4 b8 be 50 70 1a 3e
       0.5876775 -0.24812089 -0.3607508 0.15081906
0002f0 c0 93 0c 3e ca d4 0a be 4a 4c bc be 3f ee f3 bd
       0.13728237 -0.13557735 -0.36776954 -0.11910676
000300 05 ea e4 be 41 a8 98 be d4 b7 f3 bc 25 ea 03 be
       -0.44709793 -0.29815868 -0.029750742 -0.12882288
000310 ca 12 f0 be 47 ae 4e 3d 25 c6 c4 bd 83 9b 9b 3d
       -0.46889335 0.050459173 -0.096081056 0.07598021
000320 11 07 bd be b1 17 5e 3d 58 25 9a be 3d 6a 17 be
       -0.36919454 0.054221813 -0.30106616 -0.1478662
000330 f7 56 1e bf 45 3e f1 bd 98 e4 94 be 1f 15 38 bc
       -0.6185145 -0.11779455 -0.29080653 -0.011235504
000340 c1 d3 fb be 8e ef a7 be 83 a6 34 bf 9b bf 44 be
       -0.49184993 -0.32799953 -0.70566577 -0.19213717
000350 3f 8a c9 be 73 04 3e be e8 d6 25 bf cb 9d 4e be
       -0.39363286 -0.18556385 -0.64781046 -0.2017738
000360 6e 1e 1e bf df f2 c7 bd ae 10 17 bf d0 20 85 be
       -0.6176518 -0.09763121 -0.59009826 -0.26001596
000370 f5 ea a4 be 32 63 9c 3c 0a b6 16 bf b2 79 55 be
       -0.32210508 0.019090269 -0.5887152 -0.20847204
000380 c7 9a 8f be a9 9c 3a be 74 b8 3c bf b1 fa ee bd
       -0.28047773 -0.18223824 -0.73718953 -0.11668909
000390 ba 86 4a be a7 02 7f be 84 c6 1f bf 0a 1e e7 bd
       -0.19777957 -0.24903356 -0.62412286 -0.11285026
0003a0 e5 dd 1a bf 92 c1 09 3e a9 eb 46 bf d8 47 d0 bb
       -0.60494834 0.13452747 -0.7770334 -0.0063562207
0003b0 e6 e6 49 bf 70 37 b7 bd d1 e0 44 bf 4c 87 10 be
       -0.7886795 -0.08946121 -0.7690554 -0.14114112
0003c0 9e e9 f0 3e a7 97 ae 3b d0 1f cf be 2f 70 ca bc
       0.47053236 0.005328137 -0.4045396 -0.024711696
0003d0 7b 06 4d 3f 26 d8 1d be 6a f7 21 be 44 e0 13 be
       0.80088013 -0.15414485 -0.15817037 -0.1444102
0003e0 9a c2 3f 3f 01 a1 80 be 84 15 44 be 08 d9 3f be
       0.74906313 -0.25122836 -0.19148833 -0.18735135
0003f0 79 e4 35 3f 5f 8a d0 bc ab b2 1b bf 21 55 18 be
       0.71051747 -0.025456605 -0.608195 -0.14876224

sequential/dense_1/MatMul f4 [60, 20]
000000 05 cf 24 3f 86 60 37 be 6a 3d 30 bf b2 c6 24 bf
       0.64378387 -0.17907915 -0.6884371 -0.64365685
000010 b0 03 b2 be 3a 21 45 3f 23 b0 1c 3f 8b e3 9d bd
       -0.34768438 0.77003825 0.61206263 -0.07709416
000020 ac d9 93 be ae 63 31 bf 0e c5 36 bf fd 26 21 bf
       -0.28877008 -0.69292724 -0.7139443 -0.62950116
000030 b1 0a d4 be 8f eb fc be 24 2c bc be cc 10 15 3f
       -0.41414407 -0.49398467 -0.36752427 0.58228755
000040 b2 4a 86 be 82 f6 2a bf 72 d4 f1 be 7c 59 69 3f
       -0.26228863 -0.6678239 -0.47232395 0.9115217
000050 7c 21 1b 3f bf 51 3e be d3 dc 15 bf 83 31 0d be
       0.6059797 -0.18585871 -0.58540076 -0.13788418
000060 56 d4 b7 3c 91 e1 83 3e fe bf 04 3f c4 c6 82 bd
       0.022440117 0.2575803 0.51855457 -0.06385568
000070 96 aa e3 be e0 72 65 be 42 89 92 be 23 fc de be
       -0.44466084 -0.22407103 -0.28620344 -0.4355174
000080 94 fe d8 be ee b6 55 be b3 24 08 bf 42 19 ff 3e
       -0.42381728 -0.20870563 -0.53181 0.49823958
000090 bb 86 b3 be bc c9 f6 be 11 32 84 be ae b5 f5 3e
       -0.3506373 -0.48200786 -0.25819448 0.47990173
0000a0 af 47 35 3f 0b ea 37 bd 1d 4e d3 be c4 c1 8d be
       0.70812505 -0.044900935 -0.41270533 -0.27686894
0000b0 30 c2 16 bf 80 79 15 3f b4 cc 01 3f c4 26 7e be
       -0.58890057 0.5838852 0.5070298 -0.24819475
0000c0 3c ec 73 be 18 6d cb be 85 8b c9 be 3a fb 0c bf
       -0.23820585 -0.3973167 -0.39364257 -0.5507084
0000d0 3f f1 ff be e5 52 26 be 1c 04 34 bf 81 79 d1 3e
       -0.49988744 -0.16242559 -0.7031877 0.40913013
0000e0 d3 b9 bf be 72 5a f6 be 9b ed af be ce ed 56 3f
       -0.3744646 -0.4811588 -0.34360966 0.8395661
0000f0 6a 39 b0 be bb 47 1e 3e 9b 90 2c 3e 8e c1 13 3f
       -0.34418803 0.1545705 0.16852038 0.57717216
000100 44 44 87 3e cf 34 e7 be ab 26 1b bf 9b 18 31 3e
       0.2641927 -0.45157477 -0.6060588 0.17294542
000110 95 c8 1e bc 79 9d ff 3e 26 8c d9 3e f8 cd d0 3e
       -0.009691377 0.4992483 0.42489737 0.40782142
000120 ef 1f 2b 3e 19 c8 95 3e 80 b3 d4 3e 56 d3 22 be
       0.167114 0.29254225 0.41543198 -0.15900931
000130 0d 61 b2 3e 56 71 c1 3e 30 c6 97 3e a0 0e f5 be
       0.3483967 0.3778178 0.29643393 -0.4786272
000140 5f da 00 3f aa cd 83 bd 80 11 04 bf 21 2b 1c bd
       0.5033321 -0.06435712 -0.515892 -0.03812707
000150 a4 11 7f bd a1 a0 9d 3d 0c 4c 6f 3e 35 27 c3 be
       -0.062272683 0.07696653 0.23368853 -0.3811585
000160 e5 2f bd be 18 8f cb bd f5 dc 4c be d8 32 01 bf
       -0.36950603 -0.09939402 -0.20006163 -0.50468206
000170 7a e0 24 be 7e e7 de bd 2b 2d 38 be 32 a5 54 3e
       -0.16101256 -0.108839974 -0.1798598 0.20766142
000180 a1 85 98 be 1c d6 a1 be 1a f0 ec bc 5e 2d fd 3e
       -0.2978945 -0.31608665 -0.028923083 0.49448675
000190 47 ae 11 3e b7 b5 96 be c6 ca f7 be 4e c8 bc be
       0.14226638 -0.29435512 -0.4839689 -0.3687157
0001a0 74 3a 8c 3d d2 ff 07 3f 1e 66 f7 3e 57 82 df be
       0.068470865 0.53124726 0.48320097 -0.4365413
0001b0 53 0d a6 be a4 ec 62 be 5d 96 9b be 42 d4 4b be
       -0.3243204 -0.22160584 -0.30388156 -0.19905189
0001c0 73 1b 8f bd e5 9a b1 be 08 2e 80 be 52 7d 92 3e
       -0.069876574 -0.34688488 -0.2503512 0.28611237
0001d0 d1 56 1e be f4 1a 06 bd 63 f3 ac be bd a9 df 3e
       -0.15462805 -0.03274055 -0.3377944 0.43684188
0001e0 3c 7f 01 bf 5f a9 76 3e c6 67 31 3f f1 c2 3b 3f
       -0.5058477 0.24088047 0.6929897 0.7334433
0001f0 38 cb 73 3e 6c 0f 17 bf a5 36 79 bf 5d fb 08 3f
       0.2380799 -0.59007907 -0.97349006 0.5350855
000200 eb 8e 8c 3e dc 76 06 3f 53 b0 c4 3e c2 af 1a 3f
       0.27452788 0.52525115 0.38415775 0.60424435
000210 5d e9 ea 3e 9b ec fe 3e 44 b9 1a 3f 04 68 2e bf
       0.45881167 0.4978989 0.6043894 -0.68127465
000220 4d 2a 44 3e 88 47 30 3f 1e 0f 54 3e 6a 70 78 bf
       0.19156761 0.6885915 0.20708892 -0.9704653
000230 ee 78 a2 3e 2c 2b ef be c2 1f f7 be a2 66 26 be
       0.31732887 -0.46712625 -0.48266417 -0.16250089
000240 b3 df f2 bd 8f 55 37 3f 0c da 1a 3f 99 1d 9d be
       -0.118590735 0.7161493 0.60488963 -0.30686644
000250 11 1c 04 be 0a 12 27 bf 5b 8f 02 bf 6c 2b de be
       -0.12901331 -0.652619 -0.50999993 -0.43392503
000260 83 dc 1d bf 18 c2 05 bf 2e d8 10 be 98 3e a0 3e
       -0.616646 -0.5224929 -0.14144966 0.31297755
000270 03 fb e2 be 89 6d a5 be f8 90 ab bd 96 16 3f 3f
       -0.44332132 -0.3231013 -0.0837726 0.7464384
000280 6f 3b 8a 3e 52 92 d3 be 65 9b bd be 7b 84 e6 be
       0.2699847 -0.4132257 -0.3703262 -0.4502295
000290 f8 84 f9 3d ac 14 9a 3d c7 34 60 3e b6 b2 a2 bd
       0.12183565 0.07523474 0.21895133 -0.07944243
0002a0 05 be 13 bd eb b1 10 3d f6 05 f4 be 24 3e c5 be
       -0.03606989 0.035325926 -0.47660798 -0.38523972
0002b0 7e cc c0 be eb 2b 2b be 5f c5 ba be bb fc 05 3f
       -0.37656015 -0.16715972 -0.36478707 0.5233876
0002c0 f0 58 b3 be e5 74 03 bf 5c ca 36 be 10 f7 e8 3e
       -0.3502879 -0.5135024 -0.17850631 0.45500994
0002d0 1f 6f 9e 3e 3a d4 0c bd d4 62 f9 be 19 f6 31 be
       0.30944154 -0.034382083 -0.48708212 -0.17379035
0002e0 66 77 9b be 4e f3 eb 3e cf f5 01 3f d8 d8 b8 bd
       -0.3036453 0.46084064 0.507657 -0.09025735
0002f0 c8 3d f2 be e0 f7 81 bd f8 e4 80 be 61 d3 05 bf
       -0.4731276 -0.063461065 -0.2517469 -0.52275664
000300 68 d4 90 bd 4c 35 5e bd 6f 61 19 be 30 20 ea 3e
       -0.07071763 -0.054250047 -0.14978574 0.45727682
000310 70 6e b5 be ff 1f f6 be 10 52 a6 be c7 35 de 3e
       -0.3543582 -0.48071286 -0.32484484 0.43400404
000320 d5 d1 84 3e 4d e5 7f be 96 68 30 be e8 b6 04 be
       0.2594134 -0.24989815 -0.17227396 -0.12960398
000330 5f 78 a3 3b b8 9c f7 3e 00 8b b6 3d c7 7d 8d be
       0.0049887146 0.48361754 0.08913231 -0.27635023
000340 2f f3 f9 be dd 54 d9 be f1 d1 df be 90 a0 90 bd
       -0.48818347 -0.42447558 -0.4371486 -0.07061875
000350 c7 71 fb be b2 a0 01 bd 2d 72 ac be 4b 24 a1 3e
       -0.49110243 -0.03164739 -0.3368086 0.31473002
000360 a7 f7 ac bd ed f9 fd be 9a 2d e0 bd 28 3c 02 3f
       -0.084456734 -0.4960474 -0.10946198 0.5087304
000370 8e 33 01 bf cf 6c 8e 3e b4 eb ad 3e 02 55 df 3d
       -0.5046929 0.2781739 0.3396889 0.10904886
000380 f0 b9 1d 3e ee 23 d8 be 06 b4 20 bf e6 5d fe 3e
       0.15402961 -0.42214912 -0.62774694 0.49681014
000390 b1 ce e0 3e bb eb 5e 3e fe 28 21 3e 64 dd 87 3e
       0.43907693 0.21769612 0.15738294 0.26536095
0003a0 3a 08 b8 3e ae 95 be 3e 6e 32 48 3e e5 02 03 bf
       0.35943776 0.37223572 0.19550487 -0.5117629
0003b0 4b 61 04 3f 19 8b 11 3f 63 bf 9a 3e 14 c1 c0 be
       0.5171096 0.5685287 0.3022414 -0.37647307
0003c0 55 ef 3e be 4f a2 8d 3e fc 17 87 3e 1c 8f 7a 3e
       -0.18645985 0.27662894 0.26385486 0.24468654
0003d0 35 15 c0 3e 28 80 90 be 7e f4 16 bd 2c bd 9c 39
       0.3751618 -0.28222775 -0.03685426 0.00029895583
0003e0 8b 3e e5 3d 03 c9 02 3e db 58 ab 3d 99 20 7b 3e
       0.1119357 0.12771992 0.08366557 0.24524154
0003f0 10 17 32 3d e8 01 f1 3e fd 99 d8 3d c6 ec de be
       0.043479025 0.47071767 0.10576246 -0.4354002

sequential/dense_2/MatMul f4 [2, 60]
000000 2d 80 d1 bd a8 be f3 3e 53 94 88 3d 0f a4 19 be
       -0.10229526 0.47606397 0.066689156 -0.1500399
000010 d3 a3 ee bc 14 ec 92 3e c2 c3 be be 7b de c6 bc
       -0.029130852 0.28695738 -0.37258726 -0.024276009
000020 17 ac c6 3e 83 a5 69 3d 11 29 92 bc 69 99 b4 bd
       0.3880317 0.05704261 -0.017841848 -0.08818323
000030 a4 d5 c1 bd 9b f2 89 be b2 bd cc 3e 1b da cf bd
       -0.09464577 -0.26942906 0.39988476 -0.10149022
000040 ed 54 b5 be 26 52 f5 3e a0 57 50 be 1e 84 be be
       -0.35416356 0.47914237 -0.20345926 -0.37210172
000050 b0 f5 1b be 86 a2 15 be 21 17 99 be ae e3 dd 3e
       -0.15230441 -0.14612779 -0.29900458 0.43337768
000060 0b 9c cc 3d 74 41 c0 3e 09 96 36 be 00 9b 91 be
       0.099907 0.37549937 -0.17830671 -0.28438568
000070 75 b0 85 3e eb 2a 98 3e ea 6c ef 3c a4 94 7a 3d
       0.2611119 0.29720244 0.029226739 0.06117691
000080 9b d0 9c be 87 c2 0a bf c0 08 d3 be 8d c0 4b be
       -0.30627903 -0.54203075 -0.41217613 -0.19897671
000090 6a d2 c4 3e 3e 68 be 3e 45 6d d9 be e5 fe 52 3e
       0.38441783 0.37188905 -0.4246618 0.20605047
0000a0 7d 51 d2 be 98 75 a1 be 13 6d 7d 3e 19 e4 cb 3e
       -0.41077796 -0.3153503 0.2474864 0.39822462
0000b0 37 c1 99 3e 24 bc 8c 3e dd df d8 bd 6e a4 26 3d
       0.30030224 0.2748729 -0.105895735 0.040684156
0000c0 5d 7c b4 3e fd 7a 6d be ae e6 72 be 04 44 bb 3d
       0.35251132 -0.23191448 -0.2372081 0.09143832
0000d0 cb b8 de 3e e7 9d 9f 3e 0a 22 4b be 6a 29 f4 bd
       0.4350036 0.31175157 -0.19837204 -0.119219616
0000e0 8e 3e ba 3e d2 46 63 3d ea d7 0f 3d 12 2e 6f 3e
       0.3637585 0.05548746 0.03511802 0.23357418
0000f0 8c c3 d3 be 8e fd 2b be a1 29 45 be be 66 49 3e
       -0.41360128 -0.16795942 -0.19254161 0.196681
000100 5c c3 be be 0c da b9 be e4 ca a0 bd a7 0f dd be
       -0.37258422 -0.3629917 -0.07851198 -0.43176004
000110 95 9c d9 be f0 13 a7 be ce ec c3 be 2b f2 eb 3e
       -0.42502275 -0.326324 -0.38266605 0.46083197
000120 03 02 19 3e 65 7c 16 3e 37 85 92 be 88 e5 82 3e
       0.14942174 0.1469589 -0.2861726 0.25565743
000130 9e 25 3f 3e 30 1c e3 be c2 f7 9f 3e 69 e6 b5 3e
       0.18666694 -0.44357443 0.31243712 0.35527351
000140 02 85 b8 3e cd fa c3 3e ab 24 b2 3e b0 2e b3 bd
       0.36038977 0.38277283 0.347936 -0.08749139
000150 6a dd da be a6 fc 21 3e ef 21 a0 3e db d7 93 3c
       -0.4274705 0.15819034 0.3127589 0.018047264
000160 e2 6e 46 be 92 99 98 be 7a 6d ff be 3b b1 ce 3e
       -0.19378236 -0.29804665 -0.4988821 0.4036959
000170 33 57 ab 3d 9a 16 fe 3e 02 57 b7 3e d1 19 a9 3e
       0.08366241 0.4962662 0.3580857 0.3302751
000180 79 8b 48 be fe 7d 8e be d4 36 85 bd 79 eb 08 bc
       -0.19584455 -0.278305 -0.06504598 -0.008356922
000190 77 e4 08 3d 93 b9 91 bd 61 24 ed be 5f 55 ad bd
       0.033421006 -0.071154736 -0.46316817 -0.08463549
0001a0 95 3f 2d be 46 cf ac be 00 0a ba 3e bc b7 bd 3e
       -0.16918786 -0.33751887 0.36335754 0.3705424
0001b0 01 92 be be 6f 04 88 3e 72 1b 88 3e d6 79 cd be
       -0.37220767 0.26565883 0.2658344 -0.40132016
0001c0 8a ab 34 be 14 d1 ae be e7 8e 4f 3e c3 2d f8 3d
       -0.17643562 -0.3414389 0.20269357 0.12118103
0001d0 a6 51 49 be 4d f7 b2 3e 98 0a f8 be b6 dd 2c be
       -0.19660053 0.349543 -0.48445582 -0.16881451
