firebase_ml_model.tflite (tflite, 717276 bytes, 8 tensors)

model_1/conv2d/BiasAdd/ReadVariableOp f4 [32]
-0.0033056834 0.012244167 -0.0021181353 -0.006427652 -0.010820886 0.006113613 0.02573396 -0.0053491527
0.0070928177 0.023949992 0.0027003107 0.013483952 0.0085013155 0.032585308 0.019364985 -0.012570304
0.023011275 0.00036232884 -0.0027770384 0.006612973 0.012679468 -0.021576274 0.021413926 0.0075727967
0.023545561 0.0097257495 0.019803934 0.006088764 -0.011598965 0.030461397 -0.017572666 -0.00071595696
00000000: 2aa4 58bb c29b 483c 6ad0 0abb 0e9f d2bb
00000010: 164a 31bc b454 c83b 07d0 d23c f247 afbb
00000020: de6a e83b c632 c43c b2f7 303b cbeb 5c3c
00000030: 1a49 0b3c 2c78 053d 51a3 9e3c adf3 4dbc
00000040: 2482 bc3c f4f6 bd39 f9fe 35bb a3b1 d83b
00000050: 8bbd 4f3c bac0 b0bc 426c af3c 3925 f83b
00000060: 9fe2 c03c c058 1f3c dc3b a23c 4184 c73b
00000070: 9609 3ebc 2e8a f93c 8df4 8fbc 0faf 3bba

model_1/conv2d_1/BiasAdd/ReadVariableOp f4 [16]
-0.03636001 -0.025388816 0.010960443 0.012054856 0.0012172991 -0.008742423 -0.007940494 -0.00020905533
-0.0072436905 0.0057784566 0.023734976 0.026889222 -0.008744768 0.009317245 0.022312902 0.012236185
00000000: 3cee 14bd 35fc cfbc 6e93 333c bb81 453c
00000010: c88d 9f3a 613c 0fbc d918 02bc dd35 5bb9
00000020: 7b5c edbb 3559 bd3b da6f c23c c946 dc3c
00000030: 3746 0fbc 5ca7 183c 8cc9 b63c 487a 483c

model_1/conv2d/Conv2D f4 [32, 5, 5, 1]
-0.005878006 0.036331486 0.029919105 0.07933312 0.004490716 -0.016569147 0.02478966 -0.058952007
0.014400933 -0.04473686 -0.031386673 0.08333044 0.023170587 0.058186326 -0.017504705 -0.011015757
-0.059047665 -0.043343145 0.007342992 0.016520903 -0.084986694 0.033739112 -0.0036700934 0.028572828
-0.06630569 -0.022477534 -0.08339065 -0.060924202 0.035338387 -0.004480986 0.038445827 -0.02602475
-0.06186217 0.008606735 -0.052025337 -0.06369893 -0.022038203 0.04408725 -0.06624941 -0.018213524
0.036584333 0.048700493 0.06506139 0.046535525 -0.082848415 -0.013651142 -0.053286612 0.011075415
0.015773715 -0.052659236 0.060348585 0.05298555 0.016831638 -0.008129046 -0.08122842 -0.06270045
0.020051185 0.037211087 0.0584086 -0.047328804 0.058452945 -0.06138777 0.030326089 0.055381086
0.052502245 0.080391176 0.05265352 0.020057226 -0.038307104 -0.013651683 -0.050432753 0.056900132
0.0036923795 0.081081204 0.033694632 -0.03961184 -0.03250172 -0.015482953 0.07723374 0.074801095
0.08140056 0.021555997 0.054573797 -0.054680683 -0.029628223 0.013419889 -0.022599766 0.038954996
0.032564323 0.08567188 -0.051258765 0.049918324 -0.026206665 0.049281895 -0.0727168 0.040966853
0.024314012 0.058043987 -0.0588105 0.01264489 0.08103195 0.07860148 0.07956068 0.012282163
-0.034633122 0.044802103 0.048061717 -0.061553467 -0.071868435 -0.029724294 0.0041545434 -0.05704097
0.071031146 0.016067568 -0.036081634 -0.058650516 -0.027496476 -0.03718918 0.017167382 -0.0038297973
-0.07544393 -0.007719986 0.050008312 0.041886143 0.022488432 -0.009103955 0.0018081231 -0.088620916
0.017609788 0.0540139 -0.07633371 -0.0044678636 0.0039365073 -0.0041148034 -0.0088571105 0.06342396
0.018305225 0.008806181 0.05174032 0.060354456 -0.08595587 -0.03337888 -0.041613497 0.0041963886
0.0006258509 0.07815003 -0.024480915 0.07870565 0.04330737 -0.07977849 0.07421944 0.078949966
-0.03952911 0.060094316 0.058253538 0.02627741 0.009466747 -0.054888677 0.08137988 0.055854987
0.005659314 -0.026375849 0.009263028 0.048121933 0.0067503895 -0.022918941 0.008605532 0.016786387
0.025875047 -0.009249051 0.08162099 -0.01883666 -0.05375659 -0.060377583 0.04072106 -0.005641106
-0.055073753 0.000995058 -0.028079776 0.04070141 0.0038933863 -0.064985394 -0.05747903 0.0004917546
-0.026956165 -0.0025941716 -0.08156959 0.024371881 -0.00054183276 0.06925218 0.033987053 -0.06400153
0.010482599 0.055052757 -0.0005206908 0.0017363077 0.05137468 -0.0736158 0.010689396 -0.045109026
0.02944682 0.07469134 -0.025347093 -0.052772116 0.015508362 0.053707138 -0.0069902814 -0.061946478
-0.0155435335 -0.07808414 -0.0353871 0.08876357 0.06598698 -0.059681486 0.056163937 0.0003421958
0.07968743 -0.035184015 0.013261989 0.06948239 -0.053401858 0.00022234746 0.06381391 -0.0422686
-0.030045731 0.055374622 -0.067546666 0.01770579 -0.049232777 0.030731421 0.0686266 -0.014592916
0.074681014 0.06857249 -0.0020480808 0.015596462 -0.0020866632 0.062571846 -0.05420646 -0.015143954
0.06734589 0.072692595 0.0038568024 0.024766741 0.005629321 0.06534982 0.016058577 -0.007877177
0.03297007 4.564497e-05 -0.055780273 0.06311281 -0.042641886 -0.0039285244 0.055075523 -0.013867188
00000000: 4a9c c0bb 53d0 143d e918 f53c 6779 a23d
00000010: db26 933b 05bc 87bc af13 cb3c a977 71bd
00000020: e4f1 6b3c ff3d 37bd 508f 00bd 26a9 aa3d
00000030: 3ed0 bd3c c954 6e3d 0766 8fbc 6f7b 34bc
00000040: f7db 71bd 9588 31bd 7b9d f03b d856 873c
00000050: 810d aebd 0632 0a3d f385 70bb 9011 ea3c
00000060: 47cb 87bd ce22 b8bc b8c8 aabd a88b 79bd
00000070: fcbe 103d 3cd5 92bb 5f79 1d3d db31 d5bc
00000080: 3063 7dbd 4303 0d3c 8518 55bd 9674 82bd
00000090: 7689 b4bc d594 343d c5ad 87bd 8734 95bc
000000a0: 74d9 153d 2b7a 473d e83e 853d 099c 3e3d
000000b0: 6eac a9bd 0aa9 5fbc 1043 5abd a875 353c
000000c0: e137 813c 36b1 57bd 1430 773d 6007 593d
000000d0: 81e2 893c b12f 05bc 165b a6bd 1869 80bd
000000e0: 6242 a43c a76a 183d db3d 6f3d d9db 41bd
000000f0: 5b6c 6f3d be71 7bbd 6b6e f83c 47d7 623d
00000100: 980c 573d 21a4 a43d 38ab 573d 0d4f a43c
00000110: e9e7 1cbd 4fab 5fbc 9392 4ebd 1d10 693d
00000120: d9fb 713b e70d a63d 6203 0a3d 0640 22bd
00000130: 8620 05bd 36ac 7dbc b92c 9e3d 5131 993d
00000140: 56b5 a63d 3496 b03c c688 5f3d daf8 5fbd
00000150: e3b6 f2bc 18df 5b3c 2523 b9bc 468f 1f3d
00000160: 2b62 053d bd74 af3d b6f4 51bd 2877 4c3d
00000170: 5caf d6bc d0db 493d 8cec 94bd dccc 273d
00000180: 2e2e c73c 88bf 6d3d 47e3 70bd 832c 4f3c
00000190: 14f4 a53d d0f9 a03d b6f0 a23d 203b 493c
000001a0: 76db 0dbd 6982 373d 5ddc 443d 7d1f 7cbd
000001b0: c22f 93bd 5d80 f3bc d622 883b cba3 69bd
000001c0: c778 913d 22a0 833c 56ca 13bd 863b 70bd
000001d0: 4a40 e1bc ae53 18bd 9ca2 8c3c 56fd 7abb
000001e0: 5982 9abd f0f7 fcbb 84d5 4c3d ce90 2b3d
000001f0: a939 b83c c128 15bc 8bfe ec3a e27e b5bd
00000200: 6742 903c ae3d 5d3d d954 9cbd 2867 92bb
00000210: d1fd 803b 79d5 86bb 6a1d 11bc 6ce4 813d
00000220: d7f4 953c cd47 103c a8ed 533d 3c36 773d
00000230: a209 b0bd 4bb8 08bd ea72 2abd dc81 893b
00000240: 2510 243a 1f0d a03d 338c c8bc 6e30 a13d
00000250: 1263 313d e862 a3bd 5d00 983d 85b0 a13d
00000260: 47e9 21bd 7525 763d 439b 6e3d b943 d73c
00000270: 6a1a 1b3c f3d2 60bd 7faa a63d 33c8 643d
00000280: c471 b93b 2a12 d8bc f5c3 173c 811b 453d
00000290: 5f32 dd3b 81c0 bbbc 38fe 0c3c 9b83 893c
000002a0: e8f7 d33c 5589 17bc e828 a73d 574f 9abc
000002b0: df2f 5cbd 7c4e 77bd 20cb 263d 07d9 b8bb
000002c0: 0495 61bd 9b6c 823a 8f07 e6bc 86b6 263d
000002d0: 2f28 7f3b 1017 85bd 226f 6bbd 18e9 003a
000002e0: 2dd3 dcbc fa02 2abb f50d a7bd 8aa7 c73c
000002f0: c809 0eba 16d4 8d3d 0236 0b3d 3c13 83bd
00000300: 35bf 2b3c 007f 613d f87e 08ba d294 e33a
00000310: 426e 523d e1c3 96bd 9422 2f3c 3ec4 38bd
00000320: 753a f13c c6f7 983d b5a4 cfbc 9327 58bd
00000330: c916 7e3c 04fc 5b3d bb0e e5bb 97bb 7dbd
00000340: 4eaa 7ebc 94ea 9fbd 10f2 10bd adc9 b53d
00000350: 2f24 873d 9374 74bd 280c 663d be68 b339
00000360: 2a33 a33d 1d1d 10bd d048 593c c94c 8e3d
00000370: e8bb 5abd f125 6939 deb0 823d d721 2dbd
00000380: 7722 f6bc 80d0 623d e855 8abd bc0b 913c
00000390: 4fa8 49bd 76c0 fb3c 1a8c 8c3d 2017 6fbc
000003a0: 5cf2 983d bc6f 8c3d 1839 06bb 4e88 7f3c
000003b0: 66c0 08bb ab25 803d 9807 5ebd 591e 78bc
000003c0: a4ec 893d dbdf 943d 68c2 7c3b 9fe3 ca3c
000003d0: 2b76 b83b 20d6 853d 478d 833c 460f 01bc
000003e0: a00b 073d ea72 3f38 db79 64bd 4a41 813d
000003f0: 42a9 2ebd daba 80bb df96 613d 3433 63bc

model_1/conv2d_1/Conv2D f4 [16, 3, 3, 32]
-0.0068904753 -0.03492046 -0.090511374 0.11490159 0.08476147 -0.079402804 0.04254078 0.045833975
-0.10922885 -0.048044283 0.09045584 0.06484939 0.04967484 -0.02071383 0.107700616 0.0017199407
-0.029494232 0.00081710616 0.08927844 0.048168384 -0.054537 -0.086550705 0.036738485 -0.009065628
-0.10990037 -0.013568964 -0.037530776 -0.114112206 0.06117134 -0.056080177 -0.035560433 0.06474198
-0.044744156 0.04144194 0.11309705 0.07768247 0.11290404 -0.04652594 0.045248948 0.04706537
-0.07785948 0.002664966 0.09573866 -0.039672967 0.028955191 0.06175461 -0.11397541 -0.0013655326
-0.006239964 0.0026611602 -0.06874421 -0.001028129 -0.10484439 0.01616098 -0.02835808 0.075475715
0.048672512 0.095372364 -0.012931785 0.07432701 -0.0034560654 -0.05284629 0.0853124 0.028964622
0.04329255 -0.006166896 0.01191428 0.08115507 0.014238428 -0.07464407 0.08121422 0.09461391
0.063751414 0.06241886 0.04313616 -0.079298906 -0.074709 -0.04733687 0.1123426 0.033340726
0.096380934 -0.0023443098 0.06995932 -0.10547547 0.031154161 -0.053532705 0.1158366 0.028202493
0.104636185 0.11085197 -0.03078337 -0.05753207 0.033410016 -0.081352875 0.028205058 -0.0032921568
0.05596701 -0.011380319 0.06647438 -0.095423825 0.08376062 0.038722195 0.08301981 0.083722584
0.0070137265 -0.068042636 -0.094657235 -0.0013622709 0.0134437755 -0.09586851 0.025100395 0.06248692
0.04113733 -0.007086979 0.0114294635 0.06554373 0.046385728 -0.06573792 -0.017510943 -0.002126227
0.0731569 0.037208285 0.05623792 0.08634968 0.048990883 0.045552436 0.11809945 -0.008396811
0.012900146 0.063543044 0.027449854 0.021470873 -0.08550572 -0.022059694 -0.052133173 -0.11012841
-0.01845829 0.097451866 -0.07723702 -0.05911124 -0.041348908 -0.095906064 -0.11555106 -0.06420666
-0.10998524 0.076513074 0.071409 -0.016850332 0.014805814 -0.03899178 0.08027335 -0.060637653
-0.061865706 0.08654186 -0.05746753 -0.09513645 -0.049544796 -0.07976471 -0.02720638 -0.06682664
0.042518668 0.076800644 0.06846452 -0.017970782 -0.041108046 0.10176542 -0.04579711 0.044152796
-0.008307488 -0.08895461 0.008939831 -0.053295538 0.03552699 0.047342014 0.015887246 -0.08569691
0.0012497273 -0.05120568 0.07738252 -0.03443072 -0.025904864 -0.10846844 0.05490838 0.09025832
0.10202432 0.035677508 0.05492888 -0.0049029724 0.09186194 -0.013001091 0.09805445 0.04330155
0.06412847 -0.11714351 -0.056208406 0.09780397 0.07728951 -0.074743964 0.07109798 0.017736638
-0.049361758 -0.096980564 -0.085596316 0.1061747 -0.09286144 -0.11482914 -0.046819657 -0.102977104
0.10439259 -0.067933105 -0.011042152 0.051522322 -0.04595747 -0.013194661 -0.03443807 0.055586856
-0.04770731 0.08850143 -0.07259733 0.09832281 0.0515357 0.08956634 0.080171816 0.025219146
0.07426486 0.055303898 -0.0751591 -0.034448024 -0.03310393 0.0919796 0.06508869 0.058268417
-0.069191895 0.015834497 -0.07994782 0.012070615 0.012079834 0.09436032 -0.045105606 -0.08345805
-0.119721785 -0.11597213 0.03065125 -0.04909347 0.02735118 -0.029150331 -0.03987197 0.10085868
0.060876574 -0.091777995 0.08596236 -0.019719334 0.0816895 -0.11313103 0.04939969 -0.03357553
00000000: 7fc9 e1bb c208 0fbd 075e b9bd 8651 eb3d
00000010: 6c97 ad3d f09d a2bd 3e3f 2e3d 68bc 3b3d
00000020: 60b3 dfbd 15ca 44bd e940 b93d c2cf 843d
00000030: d877 4b3d 0db0 a9bc 2492 dc3d a26f e13a
00000040: e39d f1bc 1133 563a 9dd7 b63d 364c 453d
00000050: 3062 5fbd 7f41 b1bd 187b 163d 0088 14bc
00000060: 7213 e1bd 5c50 5ebc dfb9 19bd a9b3 e9bd
00000070: cd8e 7a3d 54b4 65bd d1a7 11bd 7197 843d
00000080: a645 37bd 06bf 293d 6d9f e73d fd17 9f3d
00000090: 3c3a e73d fc91 3ebd f656 393d 9ec7 403d
000000a0: cb74 9fbd b6a6 2e3b a112 c43d 1f80 22bd
000000b0: 7033 ed3c 67f2 7c3d f16b e9bd acfb b2ba
000000c0: 9d78 ccbb dc66 2e3b c4c9 8cbd 49c2 86ba
000000d0: a8b8 d6bd 0864 843c 344f e8bc 0393 9a3d
000000e0: d45c 473d 9652 c33d d6df 53bc c238 983d
000000f0: 287f 62bb 5a75 58bd 44b8 ae3d 3747 ed3c
00000100: 8753 313d ac13 cabb 1d34 433c a134 a63d
00000110: 4c48 693c fdde 98bd a453 a63d f0c4 c13d
00000120: 1a90 823d ebaa 7f3d 8baf 303d 7767 a2bd
00000130: 0801 99bd 4ee4 41bd e113 e63d 4990 083d
00000140: 5e63 c53d fea2 19bb d546 8f3d 8603 d8bd
00000150: 0337 ff3c 1c45 5bbd bd3b ed3d ea08 e73c
00000160: 7f4b d63d 5c06 e33d 682d fcbc bfa6 6bbd
00000170: f1d8 083d 569c a6bd 4b0e e73c 3ac1 57bb
00000180: aa3d 653d 8474 3abc b823 883d 916d c3bd
00000190: b08a ab3d 2a9b 1e3d 4a06 aa3d bf76 ab3d
000001a0: 67d3 e53b f059 8bbd a7db c1bd 3a8e b2ba
000001b0: 4843 5c3c b656 c4bd 589f cd3c 49f2 7f3d
000001c0: 9e7f 283d e439 e8bb a542 3b3c cb3b 863d
000001d0: f6fe 3d3d 9aa1 86bd 1c73 8fbc 2b58 0bbb
000001e0: 49d3 953d b767 183d bc59 663d 1ad8 b03d
000001f0: aaaa 483d 3195 3a3d 20de f13d c792 09bc
00000200: 225b 533c db22 823d 84de e03c afe3 af3c
00000210: 9f1d afbd 88b6 b4bc 9889 55bd 018b e1bd
00000220: d735 97bc d894 c73d 712e 9ebd a11e 72bd
00000230: 795d 29bd 666a c4bd 09a6 ecbd c87e 83bd
00000240: f13f e1bd e3b2 9c3d e23e 923d b509 8abc
00000250: 1694 723c d8b5 1fbd 5b66 a43d 305f 78bd
00000260: e566 7dbd dc3c b13d 1363 6bbd e6d6 c2bd
00000270: 7cef 4abd ae5b a3bd eadf debc 68dc 88bd
00000280: 0e28 2e3d a849 9d3d 2037 8c3d 7637 93bc
00000290: e960 28bd 636a d03d c095 3bbd 90d9 343d
000002a0: 211c 08bc d62d b6bd 5e78 123c 6c4c 5abd
000002b0: c084 113d b3e9 413d f825 823c dd81 afbd
000002c0: e4cd a33a 0cbd 51bd ba7a 9e3d 3a07 0dbd
000002d0: 7036 d4bc b424 debd 9ce7 603d 5bd9 b83d
000002e0: 20f2 d03d 9422 123d 1bfd 603d 1da9 a0bb
000002f0: 1d22 bc3d 8702 55bc c5d0 c83d f75c 313d
00000300: ca55 833d f0e8 efbd c93a 66bd 734d c83d
00000310: f649 9e3d 5d13 99bd d19b 913d 6d4c 913c
00000320: 8e2f 4abd bf9d c6bd 1f4d afbd 1f72 d93d
00000330: 232e bebd 8a2b ebbd f8c5 3fbd a9e5 d2bd
00000340: c8cb d53d 8320 8bbd 24ea 34bc 1209 533d
00000350: e63d 3cbd 6b2e 58bc ef0e 0dbd 0baf 633d
00000360: be68 43bd 3d40 b53d e9ad 94bd 785d c93d
00000370: 1917 533d 8f6e b73d 1f31 a43d 6298 ce3c
00000380: 2d18 983d 5786 623d 04ed 99bd 5f19 0dbd
00000390: fd97 07bd cd5f bc3d 384d 853d ddaa 6e3d
000003a0: 7bb4 8dbd 59b7 813c afbb a3bd d4c3 453c
000003b0: 7fea 453c fc3f c13d a8c0 38bd 0eec aabd
000003c0: b230 f5bd cc82 edbd 5518 fb3c 3c16 49bd
000003d0: 950f e03c adcc eebc ca50 23bd ff8e ce3d
000003e0: b759 793d 1af6 bbbd 090d b03d 718a a1bc
000003f0: d34c a73d 3eb1 e7bd 5457 4a3d 7f86 09bd

model_1/dense/BiasAdd/ReadVariableOp f4 [60]
-0.0010149785 -0.0060084704 0.0020222971 0.0017875258 0.0016402863 -0.010889604 0.0030877127 -0.0063602505
0.00012975771 -0.0007687036 -0.0028444598 0.007601184 -0.00025951007 -0.007979599 -0.008410013 -0.004973234
0.0012091002 -0.004567105 -0.006993521 0.004470273 0.00917559 0.006288599 0.0008585912 -0.0023071559
-0.0046233023 -0.0030120923 -0.003991104 0.00082799507 0.006937326 0.0063403766 -0.0020107867 -0.003674167
-0.00048167547 0.009195679 0.0117192315 0.0011401781 0.0059470837 -0.004978323 -0.007855491 0.003140104
-0.00036361878 5.319201e-05 -0.0050036777 0.004186602 -0.012407913 -0.008724684 -0.006550453 -0.010131158
-0.0019612473 0.0054031448 0.0015652212 0.0025478501 -0.0019519617 0.01028359 0.0064583123 -0.007696902
-0.007652651 -0.0100254845 -0.008660279 0.002632502
00000000: 0709 85ba b4e2 c4bb 8488 043b 6a4b ea3a
00000010: e0fe d63a 4f6a 32bc 395b 4a3b a669 d0bb
00000020: 920f 0839 d382 49ba 1e6a 3abb 5a13 f93b
00000030: da0e 88b9 ddbc 02bc 27ca 09bc 83f6 a2bb
00000040: ac7a 9e3a a7a7 95bb e829 e5bb 5e7b 923b
00000050: 3755 163c 9810 ce3b 1413 613a a733 17bb
00000060: 127f 97bb 8666 45bb cfc7 82bb cf0d 593a
00000070: 8252 e33b efc2 cf3b 67c7 03bb 4bca 70bb
00000080: 6389 fcb9 79a9 163c 0502 403c 0772 953a
00000090: c1df c23b 3321 a3bb 51b4 00bc 34ca 4d3b
000000a0: 16a4 beb9 7c1a 5f38 e4f5 a3bb c32f 893b
000000b0: 8f4a 4bbc faf1 0ebc 2fa5 d6bb 28fd 25bc
000000c0: 4588 00bb dd0c b13b 1c28 cd3a d5f9 263b
000000d0: f7d8 ffba 817c 283c 40a0 d33b 4b36 fcbb
000000e0: 17c3 fabb ee41 24bc d8e3 0dbc 0e86 2c3b

model_1/dense_1/BiasAdd/ReadVariableOp f4 [4]
0.005845066 0.0134390695 0.018483747 0.022777682
00000000: f887 bf3b 8b2f 5c3c 3a6b 973c 4398 ba3c

model_1/dense/MatMul f4 [60, 2880]
-0.040669013 -0.035533722 0.020761834 -0.015867893 0.030637683 -0.039011236 0.0135002015 -0.014327787
0.04109963 -0.030924538 -0.02195748 -0.04308811 -0.010496929 -0.030937903 0.040368326 0.021594254
0.00842033 -0.00014987793 -0.006444896 0.014868268 0.004275003 -0.011810593 -0.0046100495 -0.016764086
0.014017231 -0.04288138 0.03784762 0.042200994 -0.032094277 0.013979565 -0.02490842 -0.0082763545
-0.028714532 0.0347223 0.0025266502 -0.022362864 -0.038892467 -0.028961977 -0.024242528 -0.02588313
-0.0026087519 -0.004864477 0.044674665 -0.041530453 -0.010932849 0.03832961 0.021240523 0.04396059
-0.010903494 -0.0069427495 -0.013670338 0.03678785 0.023318354 0.043346982 0.032839943 -0.006079279
-0.009347672 -0.0124631785 0.011234778 -0.040576648 0.008397232 -0.028822206 -0.027901802 -0.038256124
-0.024307001 -0.014618704 0.026806008 0.030956862 0.015298456 -0.00040033367 -0.044188935 0.04388993
-0.040571768 0.0030003095 0.011911231 -0.036696177 -0.004028813 -0.032731824 0.029204052 0.008814988
0.034843903 -0.0049925316 -0.041918922 0.011047097 0.022545021 -0.023132794 0.0029322177 0.0010865905
-0.032038376 -0.01313545 0.04333424 -7.363567e-05 0.0326462 0.014537843 0.018571796 -0.012093224
0.028977674 0.042419102 0.040150266 -0.03351386 -0.029270226 -0.024857823 0.0061905156 0.013355016
-0.0008513302 -0.010148215 0.023474284 -0.012501983 -0.040791646 0.011957963 0.005028666 -0.020341735
-0.023500308 -0.01325677 0.040885318 -0.0006453686 -0.03607117 -0.027714644 0.019244408 -0.015002754
0.007974241 -0.03722022 -0.019196782 0.020062443 0.019020876 0.014358566 -0.019353198 -0.007133618
-0.0074969246 -0.016051803 -0.010949769 -0.010154721 0.04169299 0.03078074 0.03886838 0.026950035
0.019977124 0.0076595456 0.021536173 0.0252602 0.021946134 -0.0029948284 0.00952708 -0.014727125
0.015109689 -0.02780598 0.011177865 0.010155292 -0.043286446 -0.03663192 -0.035823405 -0.011068421
0.037829094 0.03251413 -0.008462627 -0.031801555 -0.01058506 0.010021556 -0.014330253 -0.02587265
-0.0027549148 0.014934522 0.0089009665 -0.013086261 0.027505161 -0.020332582 0.024500063 -0.026047273
-0.015586042 0.04493366 0.019011475 0.0073616575 -0.040888645 0.030082604 -0.044094905 0.035906747
-0.043486636 -0.022656344 0.024982663 -0.004052322 -0.030735034 0.005910203 0.023714283 -0.03068534
0.019712862 -0.013967292 0.017899469 0.003260476 0.009137535 0.008494588 -0.009153774 0.008407787
0.022188295 -0.037235033 -0.018966932 0.020493302 0.012177636 -0.0012392096 0.021394692 0.016142959
-0.026844159 -0.005199902 -0.035533007 -0.015934285 -0.034392953 0.040006317 -0.014356442 0.033520814
0.0061183586 0.038475648 0.028441736 0.0129737435 -0.025172828 0.022282697 -0.04095249 0.04285342
0.0006455331 -0.011746182 0.0031907535 0.02176352 -0.039620757 -0.010286539 0.00146416 0.01264553
-0.030295687 -0.039174154 0.004998964 -0.041711025 -0.034692917 -0.020731367 0.031182423 0.0029272595
0.026918346 0.0041487613 0.006249036 0.030870767 0.024695197 -0.011905578 0.023721471 -0.023628404
0.0016376161 -0.020084606 0.044641368 0.01488539 -0.008847644 -0.043752875 0.029554281 0.009836372
-0.03182694 0.010589319 0.039616685 -0.035488352 -0.0057621174 -0.023535244 0.01693113 0.031057118
00000000: 8d94 26bd cf8b 11bd b914 aa3c 62fd 81bc
00000010: e1fb fa3c 3fca 1fbd f32f 5d3c 18bf 6abc
00000020: 1658 283d 7555 fdbc 2ce0 b3bc 287d 30bd
00000030: 50fb 2bbc 7c71 fdbc 4259 253d 6fe6 b03c
00000040: 6cf5 093c 8d28 1db9 b52f d3bb 099a 733c
00000050: 5315 8c3b 3881 41bc e60f 97bb d654 89bc
00000060: 87a8 653c 63a4 2fbd 1b06 1b3d f3da 2c3d
00000070: 4a75 03bd 8c0a 653c be0c ccbc 8c99 07bc
00000080: bd3a ebbc f838 0e3d 2896 253b 5332 b7bc
00000090: b54d 1fbd ab41 edbc 4498 c6bc dc08 d4bc
000000a0: 98f7 2abb 3166 9fbb c8fc 363d d61b 2abd
000000b0: b11f 33bc 82ff 1c3d 9b00 ae3c 0510 343d
000000c0: 92a4 32bc 0180 e3bb 8ef9 5fbc dbae 163d
000000d0: 2206 bf3c 9b8c 313d 2d83 063d b034 c7bb
000000e0: fa26 19bc 5c32 4cbc 1312 383c b333 26bd
000000f0: 8b94 093c 8c1c ecbc 5292 e4bc 74b2 1cbd
00000100: 7a1f c7bc 4a83 6fbc 4698 db3c 3f99 fd3c
00000110: 60a6 7a3c e0e3 d1b9 75ff 34bd edc5 333d
00000120: 952e 26bd d7a0 443b 5327 433c bb4e 16bd
00000130: 2204 84bb ce11 06bd 563d ef3c bd6c 103c
00000140: 7bb8 0e3d 6498 a3bb 2db3 2bbd e2fe 343c
00000150: 56b0 b83c fc80 bdbc 732a 403b ed6b 8e3a
00000160: ac3a 03bd 1236 57bc 3e7f 313d d96c 9ab8
00000170: 06b8 053d 2230 6e3c e123 983c a822 46bc
00000180: 9662 ed3c a7bf 2d3d 9b74 243d d445 09bd
00000190: 1dc8 efbc a2a2 cbbc cfd9 ca3b ffce 5a3c
000001a0: cd2b 5fba b344 26bc 244d c03c 1ed5 4cbc
000001b0: 2415 27bd 55eb 433c 82c7 a43b b6a3 a6bc
000001c0: b883 c0bc ec32 59bc 5d77 273d f42d 29ba
000001d0: 5dbf 13bd d209 e3bc 73a6 9d3c 1cce 75bc
000001e0: 64a6 023c 3b74 18bd 9242 9dbc fe59 a43c
000001f0: abd1 9b3c 3140 6b3c 998a 9ebc 20c1 e9bb
00000200: c3a8 f5bb 127f 83bc a966 33bc fd5f 26bc
00000210: 45c6 2a3d e427 fc3c 7334 1f3d 52c6 dc3c
00000220: 11a7 a33c edfc fa3b a16c b03c 7bee ce3c
00000230: 61c8 b33c e244 44bb 7817 1c3c 0a4a 71bc
00000240: a18e 773c 5ec9 e3bc 5d23 373c 6262 263c
00000250: 214d 31bd 5a0b 16bd 90bb 12bd 5358 35bc
00000260: aef2 1a3d 892d 053d d5a6 0abc 5942 02bd
00000270: f66c 2dbc 7431 243c 70c9 6abc e1f2 d3bc
00000280: cd8b 34bb edaf 743c 5cd5 113c c267 56bc
00000290: 8152 e13c 8490 a6bc 5bb4 c83c 1761 d5bc
000002a0: 995c 7fbc 5c0c 383d f4bd 9b3c 0f3a f13b
000002b0: da7a 27bd cb6f f63c dc9c 34bd f412 133d
000002c0: 0b1f 32bd cc99 b9bc 71a8 cc3c 57c9 84bb
000002d0: 0ac8 fbbc 60aa c13b 7544 c23c d25f fbbc
000002e0: de7c a13c 12d7 64bc e8a1 923c b6ad 553b
000002f0: 99b5 153c e22c 0b3c b6f9 15bc d1c0 093c
00000300: 3ac4 b53c c383 18bd 8a60 9bbc 92e1 a73c
00000310: b584 473c f96c a2ba ec43 af3c 3d3e 843c
00000320: 48e8 dbbc f163 aabb 0f8b 11bd 9e88 82bc
00000330: a0df 0cbd aadd 233d 4837 6bbc 1f4d 093d
00000340: 837c c83b a498 1d3d a5fe e83c d38f 543c
00000350: 3f37 cebc 348a b63c ccbd 27bd 1187 2f3d
00000360: fe38 293a 0f73 40bc f61b 513b 6949 b23c
00000370: 6049 22bd df88 28bc 0fe9 bf3a 322f 4f3c
00000380: a92e f8bc 1475 20bd 59ce a33b 2ed9 2abd
00000390: 291a 0ebd d4d4 a9bc 4872 ff3c 44d7 3f3b
000003a0: dd83 dc3c 55f2 873b b7c4 cc3b b1e4 fc3c
000003b0: 954d ca3c 9d0f 43bc 8853 c23c 5b90 c1bc
000003c0: 47a5 d63a 7988 a4bc ded9 363d dae1 733c
000003d0: b5f5 10bc 3736 33bd d21b f23c bc28 213c
000003e0: f75c 02bd d37e 2d3c 1b45 223d 3c5c 11bd
000003f0: 25d0 bcbb fccc c0bc 27b3 8a3c 7f6b fe3c

model_1/dense_1/MatMul f4 [4, 60]
-0.034536093 0.087317586 0.0019231203 0.013788176 0.3077563 -0.19182795 0.15714656 0.091343366
0.2485521 -0.14179717 0.06247263 -0.056841865 -0.02046548 -0.29131934 0.06647226 0.22338068
-0.20858972 0.1570145 0.19367693 -0.28186104 -0.09901647 -0.09254639 0.19895352 0.12130104
-0.06261804 0.14110994 0.039164115 -0.032425627 -0.08051947 -0.14561252 -0.25253072 -0.26356912
-0.055367775 -0.29024637 0.21849082 0.04780471 -0.12250975 -0.26144093 -0.25129074 -0.17816201
-0.20941406 0.27546677 0.20891613 0.12949751 -0.24012157 -0.12599297 -0.13750514 -0.10694852
0.28535366 -0.27630267 0.06496989 -0.30083075 -0.077488065 0.028785655 0.10526633 -0.14481139
-0.084814064 -0.09603989 -0.18309182 -0.19150457 -0.07059177 0.09124847 0.10674791 0.28351867
-0.029552117 -0.022178784 0.11486495 0.22144265 0.30080026 -0.068450466 -0.12974675 0.17511958
0.22772434 -0.19438021 0.19100747 0.24112494 -0.02243187 -0.1695518 0.094204865 0.1105753
0.24906613 0.051399138 0.025537984 0.278134 -0.032686792 -0.1755251 -0.23551437 -0.12550242
0.1703404 0.20984243 0.23675635 0.27634817 -0.26031283 0.10255468 -0.13545178 0.15649806
0.2109426 -0.11655474 0.17360844 0.05292791 -0.07359241 0.10378318 -0.16896649 0.24399894
-0.26417038 -0.09203696 0.22089565 -0.22550617 0.20493385 -0.14443725 -0.2047122 0.18101257
0.12839405 -0.086005665 -0.10677999 -0.020735083 0.18316038 -0.08117581 -0.22899912 0.12707157
-0.12742993 -0.059548434 0.06495647 0.020196153 0.17820653 -0.20832108 -0.23778032 -0.22804587
0.009022891 0.006023985 -0.09632465 0.122338355 0.14022885 -0.01520301 -0.27598894 -0.19792251
0.07447979 -0.20227116 -0.23252343 0.0775364 0.054805815 0.024761662 0.09740414 -0.09748691
-0.04219422 -0.085253865 0.07105569 -0.25366324 0.19061886 0.0854528 0.08063002 -0.07717328
-0.06536212 0.20723829 0.307797 -0.25887814 -0.12950617 0.03687211 -0.3146203 -0.10906466
-0.3137879 0.06349474 -0.14802398 0.18629707 -0.15049532 -0.15183897 -0.1860234 -0.10562111
-0.13638777 0.20213474 -0.010493509 -0.16522354 -0.15754622 0.18597472 0.07612128 -0.11913973
-0.17360602 -0.25976676 0.013703432 -0.009958941 0.11382921 -0.29510856 -0.026476884 -0.09925298
-0.13630624 -0.25686267 0.21621437 -0.24051759 -0.2432611 0.038906433 -0.016828265 0.14942227
-0.25082862 -0.1867822 -0.2950933 -0.23851945 0.053870916 0.011365149 -0.21012235 0.14504047
0.2668048 0.24806611 -0.10777603 -0.21559209 -0.156827 0.017595995 -0.10712111 0.30392092
0.05481878 0.12382443 -0.21384388 -0.18854845 0.17166792 0.25757366 0.2961875 0.16561271
0.27575216 -0.12481885 -0.18571047 0.22159131 0.26925647 -0.1913623 -0.07658713 -0.1432932
-0.25280425 -0.17574753 -0.23551252 -0.21447347 -0.15178964 0.23070948 0.18493257 0.2113656
-0.0142575195 0.3013011 0.26448992 -0.2011362 -0.2807564 -0.23242576 -0.24015355 0.09749845
00000000: b875 0dbd 90d3 b23d 3611 fc3a cde7 613c
00000010: 3c92 9d3e 8c6e 44be 07eb 203e 3b12 bb3d
00000020: 7184 7e3e 4733 11be 4de3 7f3d 04d3 68bd
00000030: 39a7 a7bc cf27 95be 9c22 883d e8bd 643e
00000040: 8b98 55be 69c8 203e 3f53 463e 1750 90be
00000050: 26c9 cabd f688 bdbd 79ba 4b3e ae6c f83d
00000060: e33d 80bd 207f 103e 8d6a 203d bcd0 04bd
00000070: 64e7 a4bd 731b 15be b54b 81be 88f2 86be
00000080: 52c9 62bd 2c9b 94be 0fbc 5f3e dfce 433d
00000090: 64e6 fabd 96db 85be 2ea9 80be 1a70 36be
000000a0: a470 56be fb09 8d3e 1cee 553e ff9a 043e
000000b0: 6ee2 75be 4d04 01be 26ce 0cbe d307 dbbd
000000c0: e019 923e 8b77 8dbe ef0e 853d 7d06 9abe
000000d0: 10b2 9ebd e5cf eb3c e095 d73d 7049 14be
000000e0: ffb2 adbd 90b0 c4bd 6c7c 3bbe c619 44be
000000f0: 6b92 90bd 7ae0 ba3d a69e da3d 5c29 913e
00000100: 4817 f2bc 48b0 b5bc 513e eb3d ddc1 623e
00000110: 7e02 9a3e c22f 8cbd 55dc 04be 8c52 333e
00000120: 9230 693e 9b0b 47be 7697 433e 75e9 763e
00000130: 0bc3 b7bc fd9e 2dbe 7bee c03d 4e75 e23d
00000140: 310b 7f3e e787 523d 0935 d13c 9467 8e3e
00000150: 96e2 05bd dabc 33be ae2a 71be b583 00be
00000160: b76d 2e3e efe0 563e 4270 723e 827d 8d3e
00000170: b947 85be 3008 d23d dfb3 0abe 0741 203e
00000180: 5601 583e 40b4 eebd 69c6 313e f0ca 583d
00000190: 9eb7 96bd 478c d43d 8d05 2dbe dcda 793e
000001a0: 5741 87be e07d bcbd 7832 623e 17eb 66be
000001b0: 2eda 513e 5ce7 13be 13a0 51be 5c5b 393e
000001c0: bb79 033e bd23 b0bd 78af dabd 9fdc a9bc
000001d0: 658e 3b3e 813f a6bd bf7e 6abe 0d1f 023e
000001e0: fe7c 02be 0fe9 73bd e607 853d 6772 a53c
000001f0: c67b 363e 1f52 55be af7c 73be db84 69be
00000200: bfd4 133c d964 c53b dc45 c5bd 888c fa3d
00000210: 2798 0f3e 0c16 79bc 6c4e 8dbe 33ac 4abe
00000220: dc88 983d 2c20 4fbe 9f1a 6ebe 67cb 9e3d
00000230: 107c 603d f8d8 ca3c d27b c73d 38a7 c7bd
00000240: d9d3 2cbd 9499 aebd a585 913d 26e0 81be
00000250: 9731 433e e101 af3d 5a21 a53d 060d 9ebd
00000260: 93dc 85bd 4636 543e 9297 9d3e ad8b 84be
00000270: 449d 04be 3607 173d e915 a1be 4b5d dfbd
00000280: cfa8 a0be 8809 823d 9993 17be a9c4 3e3e
00000290: 721b 1abe ad7b 1bbe eb7c 3ebe e14f d8bd
000002a0: 3ca9 0bbe 69fc 4e3e f7ec 2bbc 5c30 29be
000002b0: cc53 21be 2870 3e3e 79e5 9b3d 88ff f3bd
000002c0: c7c5 31be 2600 85be 5c84 603c d32a 23bc
000002d0: 4a1f e93d 7818 97be 0de6 d8bc 2545 cbbd
000002e0: dd93 0bbe 8183 83be 4d67 5d3e 3e4a 76be
000002f0: 7019 79be 5a5c 1f3d 6edb 89bc 2702 193e
00000300: 9c6c 80be d543 3fbe 7816 97be 713e 74be
00000310: c0a7 5c3d e434 3a3c 502a 57be 7d85 143e
00000320: a49a 883e 0b05 7e3e aeb9 dcbd 2cc4 5cbe
00000330: 4297 20be 7a25 903c 5062 dbbd 869b 9b3e
00000340: a889 603d aa97 fd3d e4f9 5abe d812 41be
00000350: b7c9 2f3e b2e0 833e e3a5 973e 6196 293e
00000360: 632f 8d3e 06a1 ffbd e32a 3ebe d5e8 623e
00000370: fcdb 893e 7bf4 43be b7d9 9cbd 74bb 12be
00000380: 8f6f 81be 29f7 33be 322a 71be ef9e 5bbe
00000390: be6e 1bbe 1b3f 6c3e f75e 3d3e 3970 583e
000003a0: 5f98 69bc 2344 9a3e 396b 873e a6f6 4dbe
000003b0: 4ebf 8fbe 0501 6ebe d0ea 75be 44ad c73d
